DeepSignalingFlow/analysis_nci/fold_3_pan/block_conv_up_weight.npy (npy, 74176 bytes, 1 tensors)

array f4 [18512]
-8.345946e-17 1.2654403e-11 5.9562517e-13 -4.5840383e-14 -5.7952487e-09 -2.0342421e-16 1.657046e-19 4.537372e-16
-4.8670897e-17 2.0935343e-12 -2.3774667e-06 2.784336e-10 2.4740367e-14 -7.7272494e-11 -4.033023e-14 0.7389704
-2.8077013e-10 -1.7803787e-18 4.122749e-15 -5.3916096e-08 8.546422e-18 3.0492718e-15 -1.8849843e-08 3.1485448e-16
7.647137e-17 -1.774861e-14 1.07735976e-14 -6.663849e-14 8.378558e-06 -1.191769e-16 4.63264e-07 -3.984135e-14
1.0622526e-10 1.749025e-13 3.567611e-05 2.6560502e-07 1.1257784e-14 1.09156147e-13 -9.362443e-19 0.020872006
-1.6149283e-14 -7.273343e-10 1.7871574e-15 2.786432e-15 -1.8618435e-07 -1.05580976e-16 -6.3656177e-12 3.4922624e-11
-1.9224866e-13 5.9144035e-14 2.4741942e-12 -9.583497e-14 6.1561685e-18 -3.8461487e-11 -6.533593e-14 -2.4872045e-16
-2.3821548e-15 4.551411e-09 2.6353125e-13 4.777802e-13 -4.3867904e-15 1.7878968e-15 -1.5223702e-16 6.504533e-10
-1.3599984e-11 8.852605e-16 2.064086e-17 -0.00063275313 -2.020165e-15 -8.054227e-20 -9.8763685e-11 1.101386e-12
9.269275e-10 -5.0540398e-11 -1.7644956e-16 -2.9598865e-11 3.9898664e-11 -8.846656e-15 -1.3131277e-09 4.175393e-12
1.2866987e-12 1.1866515e-08 -1.5724264e-14 1.3940748e-07 2.5685798e-16 4.8181505e-16 8.690731e-16 8.7252966e-10
-1.928193e-09 -4.3346943e-10 -8.1918997e-16 -2.2092477e-09 2.7071352e-11 3.2566838e-14 -3.7368462e-11 5.6944863e-18
-2.4100052e-06 5.4296095e-05 -5.326277e-16 9.714813e-17 -8.704275e-15 7.930809e-14 1.4051984e-16 1.9106165e-17
-1.6970634e-14 2.5883722e-09 -2.7337052e-12 2.0756849e-13 0.12208994 2.9030465e-14 -5.229073e-16 2.166485e-14
8.277253e-08 3.3173106e-12 -6.1278027e-15 -2.517911e-14 9.649603e-13 -6.110562e-17 8.641395e-17 5.2349094e-11
0.0010417016 0.19520025 -4.225489e-05 7.36097e-10 -1.8229388e-15 -6.094331e-07 3.2651846e-13 3.4322559e-15
3.1035503e-15 -0.22078824 -0.066744074 -2.062743e-11 -1.165383e-10 -1.835275e-10 -1.3884396e-14 2.0201627e-14
-3.2413683e-07 -8.3460594e-07 -8.236765e-11 -5.735068e-14 -7.6948185e-17 -8.266299e-06 -7.820137e-14 4.587226e-17
8.8126737e-16 -3.8563857e-12 1.4409587e-14 -5.3602583e-10 -4.99108e-16 4.685951e-17 -5.153128e-15 -9.512966e-11
-2.655106e-17 5.719357e-14 1.9970622e-16 -2.1568246e-14 8.336017e-12 2.33747e-15 3.294074e-13 0.0042406395
-1.4818254e-16 2.6914453e-16 -1.3051384e-10 4.3670373e-10 1.0696501e-14 -3.0032235e-15 -3.651468e-08 2.086246e-09
3.7840038e-16 -2.8876014e-14 1.0310029e-06 9.830974e-17 -4.872281e-05 -1.9200488e-06 -7.020553e-13 -1.8942674e-17
-3.585975e-15 6.0327896e-14 7.5958445e-13 2.3815008e-12 1.0774931e-08 0.030437525 -3.3370335e-16 -2.0197229e-16
-1.5862065e-11 4.1416034e-10 -8.684424e-15 3.356134e-13 2.2634198e-17 1.3925684e-13 1.3120652e-16 0.55541664
6.3490554e-13 0.00025811215 1.7521416e-16 -8.030076e-17 -6.030176e-13 1.4896998e-10 -5.234152e-14 -1.4952027e-11
-2.9407178e-11 -3.565148e-08 3.0024344e-07 1.0304602e-15 5.713513e-16 4.816473e-09 -1.3937308e-08 -0.0070756725
2.8866043e-06 -3.2115553e-05 3.770324e-11 -1.8992249e-13 -1.1332549e-09 -1.5899489e-13 8.712144e-12 0.008496714
-3.5236385e-17 -8.920365e-05 -1.2361276e-08 6.3421157e-09 6.761926e-05 1.1430905e-13 2.5477588e-13 1.2717858e-16
-1.9916782e-16 -3.7880666e-12 6.416756e-16 -1.3355092e-16 9.982705e-16 0.20203424 2.34122 -1.6063931e-12
-3.255074e-08 1.3165073e-12 -3.277427e-14 0.00010410513 1.2757089e-14 4.1477862e-14 2.7098623e-12 1.1036311e-09
4.7872783e-17 -2.0277017e-08 -6.7282398e-15 -6.6754375e-14 -2.319144e-16 3.2750366e-15 -2.8550537e-16 2.4860737e-15
7.4726796e-07 6.692203e-17 -1.1476219e-16 -0.00076398806 -5.570352e-17 1.5536578e-15 -0.3443454 1.6754447
00000000: c571 c0a4 5d9e 5e2d 51a7 272b 5d72 4ea9
00000010: 8c1f c7b1 3b88 6aa5 24a1 4320 e5c7 0226
00000020: 7474 60a4 c351 132c 918c 1fb6 0c12 992f
00000030: 67d7 de28 8cec a9ae 97a1 35a9 2a2d 3d3f
00000040: e25a 9aaf 675e 03a2 a689 9427 6091 67b3
00000050: 56a7 1d23 23b9 5b27 3eeb a1b2 5280 b525
00000060: bb54 b024 82dd 9fa8 7314 4228 790e 96a9
00000070: a291 0c37 d066 09a5 85b6 f834 f36d 33a9
00000080: 8197 e92e 37ec 442a eea2 1538 7a98 8e34
00000090: 5dcd 4a28 3ccc f529 4f2a 8aa1 c5fb aa3c
000000a0: b675 91a8 9aed 47b0 3cc7 0027 99c8 4827
000000b0: f7e9 47b4 0274 f3a4 63f8 dfac 6197 192e
000000c0: e773 58aa 372e 8529 1f1b 2e2c 19cd d7a9
000000d0: 5e1f e322 c927 29ae 991f 93a9 a960 8fa5
000000e0: 00a7 2ba7 a262 9c31 db5a 942a b17b 062b
000000f0: 000d 9ea7 e0d4 0027 7084 2fa5 95cb 3230
00000100: e240 6fad b228 7f26 da60 be23 58df 25ba
00000110: 7791 11a7 d12c be9f 032f d9ae 9d01 9b2b
00000120: b9ca 7e30 6e47 5eae b86e 4ba5 5c2d 02ae
00000130: e779 2f2e 005e 1fa8 9379 b4b0 99e8 922c
00000140: 3516 b52b 7cdd 4b32 afa1 8da8 09b0 1534
00000150: 8c11 9425 addf 0a26 477e 7a26 d1d6 6f30
00000160: 2181 04b1 664d eeaf 8d1d 6ca6 7fd1 17b1
00000170: 441f ee2d 02ab 1229 2659 24ae e716 d222
00000180: 93bb 21b6 fdbb 6338 fd84 19a6 2202 e024
00000190: 62cd 1ca8 0096 b229 2302 2225 2839 b023
000001a0: 9edb 98a8 20df 3131 0e5e 40ac 8bb3 692a
000001b0: 4a0a fa3d d9bd 0229 c0b7 16a6 be23 c328
000001c0: aec0 b133 5b6f 692c 01c7 dca7 13cb e2a8
000001d0: 5cce 872b 64e6 8ca4 cb41 c724 d73b 662e
000001e0: b589 883a 93e2 473e d83a 31b8 3956 4a30
000001f0: 495b 03a7 ec97 23b5 45d0 b72a f251 7727
00000200: 66a2 5f27 5016 62be 1eb1 88bd d870 b5ad
00000210: 9e22 00af 66ca 49af 7a1e 7aa8 c8f5 b528
00000220: 0705 aeb4 af09 60b5 dd20 b5ae 6b24 81a9
00000230: 316e b1a4 7caf 0ab7 0518 b0a9 688c 5324
00000240: 0e02 7e26 3caf 87ac 3fca 8128 7757 13b0
00000250: acdb 0fa6 f219 5824 37a9 b9a7 3d31 d1ae
00000260: ebe3 f4a3 d9c9 8029 df3e 6625 fd44 c2a8
00000270: 15a6 122d b66e 2827 9c70 b92a 10f5 8a3b
00000280: c4d7 2aa5 b926 9b25 6180 0faf 9614 f02f
00000290: e7b0 4028 b267 58a7 51d4 1cb3 a15d 0f31
000002a0: 0a22 da25 c70b 02a9 fd60 8a35 d4af e224
000002b0: b85b 4cb8 30da 00b6 6a9c 45ab 20b7 aea3
000002c0: c832 81a7 aad8 8729 d4cd 552b 4e95 272c
000002d0: a61c 3932 1e58 f93c ec5d c0a5 b3db 68a5
000002e0: 3286 8bad e3af e32f d671 1ca8 fdee bc2a
000002f0: 7dc3 d023 0dca 1c2a 5445 1725 c92f 0e3f
00000300: c4b5 322b 3a53 8739 1802 4a25 3429 b9a4
00000310: ffbb 29ab 52cb 232f aab9 6ba9 f984 83ad
00000320: 8a55 01ae 381f 19b3 2531 a134 4581 9426
00000330: 49ae 2426 257e a531 ee70 6fb2 0bdb e7bb
00000340: 7cb7 4136 d0b3 06b8 13d2 252e 6ed5 55aa
00000350: ddc0 9bb0 2803 33aa 0244 192d cd35 0b3c
00000360: c87f 22a4 d812 bbb8 775d 54b2 d7e9 d931
00000370: d0ce 8d38 57b3 002a 136d 8f2a 7ea0 1225
00000380: f79f 65a5 df47 85ac 4df3 3826 46f9 19a5
00000390: aedd 8f26 10e2 4e3e 8cd6 1540 6914 e2ab
000003a0: ebcd 0bb3 2d48 b92b 299a 13a9 0453 da38
000003b0: b0cf 6528 b8cc 3a29 8ab0 3e2c 91ae 9730
000003c0: 35c6 5c24 a22d aeb2 0f69 f2a7 4751 96a9
000003d0: 86b0 85a5 c3fd 6b27 2895 a4a5 f723 3327
000003e0: dd97 4835 cb4f 9a24 d24f 04a5 5f46 48ba
000003f0: 8e71 80a4 dbe7 df26 0a4e b0be f974 d63f
