DeepSignalingFlow/analysis_nci/fold_3_pan/block_conv_down_weight.npy (npy, 74176 bytes, 1 tensors)

array f4 [18512]
000000 2c b1 03 2d 0d b0 00 b6 6e 77 8a b3 79 7a 04 b9
       7.485828e-12 -1.9175961e-06 -6.44785e-08 -0.00012634126
000010 27 d3 5a a7 6d 53 18 29 53 cc 63 2b e3 d9 cb 20
       -3.0368043e-15 3.382314e-14 8.093016e-13 3.4533723e-19
000020 57 f2 52 34 99 03 4e 36 25 2d c1 a4 d6 66 21 b1
       1.9645937e-07 3.0698486e-06 -8.3776886e-17 -2.348704e-09
000030 f7 b5 96 aa 02 53 66 3e af d5 90 27 c5 6d b6 b1
       -2.6771616e-13 0.22492602 4.0199705e-15 -5.3093765e-09
000040 d8 b7 61 a5 ea ba 46 25 c9 3a fc 26 6b 77 0c 26
       -1.9577928e-16 1.7237091e-16 1.7501946e-15 4.87341e-16
000050 f7 18 fd 2a 2b 45 2a b3 6a c1 f2 a5 60 05 05 2d
       4.495915e-13 -3.9644117e-08 -4.211137e-16 7.561368e-12
000060 ed a5 f3 a3 bc 7f f7 b0 10 7c 47 ae 75 f8 57 ad
       -2.6416385e-17 -1.800792e-09 -4.535755e-11 -1.2276504e-11
000070 76 e3 61 ac 12 5f 23 a4 7c 04 ae 22 ff 32 81 35
       -3.210069e-12 -3.542552e-17 4.7167543e-18 9.626091e-07
000080 e3 cb ee b1 51 c8 a1 bf a8 c9 18 ad 52 b2 35 a4
       -6.949891e-09 -1.2639257 -8.684976e-12 -3.9399162e-17
000090 ed f5 10 ae 85 b1 a7 2b f6 c2 09 2e ee 8b a3 32
       -3.2960235e-11 1.1915335e-12 3.1323354e-11 1.903933e-08
0000a0 72 91 0b a3 9c 31 8c a5 77 45 ab a9 de 72 48 2f
       -7.566004e-18 -2.4319745e-16 -7.605976e-14 1.8230703e-10
0000b0 d3 5f a0 a8 57 75 cb aa 9f 1e bd 2f 72 1c 9e 2f
       -1.7805126e-14 -3.6141465e-13 3.4400657e-10 2.8760244e-10
0000c0 64 71 f6 a2 bc 01 9a 22 8c 99 87 aa e9 e7 99 35
       -6.679849e-18 4.174362e-18 -2.4087362e-13 1.1466883e-06
0000d0 e7 4f 15 ac d2 c2 1e a4 86 1b a4 a3 b5 0f c4 a3
       -2.1218528e-12 -3.4425808e-17 -1.7792572e-17 -2.1257015e-17
0000e0 c0 b5 20 b1 c3 21 7c a8 58 ea ad ad 65 cc b4 a5
       -2.3386377e-09 -1.3996131e-14 -1.9771892e-11 -3.1363526e-16
0000f0 e2 4a 37 24 2b 82 22 2c 19 5f d3 2e 76 39 6e 26
       3.9745228e-17 2.3093842e-12 9.612062e-11 8.265071e-16
000100 5b 30 2e 2b df 10 9d 2f 67 d0 29 af 2f e0 11 28
       6.1884325e-13 2.857012e-10 -1.54445e-10 8.097729e-15
000110 ee 78 18 a5 f9 fd b8 bc 62 b0 bc 23 bd 7f 87 29
       -1.3224871e-16 -0.022582041 2.0457702e-17 6.0173634e-14
000120 2f e4 6f a6 ce 04 9b a7 58 d1 0d 2b 81 3e af 2c
       -8.322903e-16 -4.302635e-15 5.0383786e-13 4.9807385e-12
000130 42 3b 27 b3 bf 48 4d b4 c7 37 9f ab 44 61 ce b8
       -3.8936612e-08 -1.9118578e-07 -1.1313111e-12 -9.8409626e-05
000140 73 4a 0e 24 98 7f 0d 29 b8 cf be a5 de 2e 3d b6
       3.0854403e-17 3.141896e-14 -3.3100502e-16 -2.8190475e-06
000150 08 2f f0 a8 a4 db ad 2f e3 8a af af 0f 18 9a a9
       -2.6665749e-14 3.162458e-10 -3.1931e-10 -6.843147e-14
000160 49 ea c5 a6 9a 28 a5 25 40 e8 b7 28 db f0 f5 38
       -1.3733124e-15 2.865045e-16 2.0417804e-14 0.00011727373
000170 13 5b 53 24 8c ed 8c 28 f7 9b a9 28 7d 30 8d b4
       4.5830475e-17 1.5646142e-14 1.8830408e-14 -2.6298576e-07
000180 c1 cb 51 29 01 0e 65 b0 29 d2 a9 a2 58 3a ae 2a
       4.658405e-14 -8.3329615e-10 -4.6030058e-18 3.0949093e-13
000190 9c c0 4a 22 dd ed ff b4 f6 36 12 26 b0 a6 29 25
       2.7478071e-18 -4.767052e-07 5.072841e-16 1.4714889e-16
0001a0 05 92 b8 29 3d 1e bc ab 93 dc 38 27 6d 62 c3 a4
       8.196572e-14 -1.3366596e-12 2.5654703e-15 -8.473451e-17
0001b0 33 b9 c4 b8 5c 26 5b ad 4a 3e 01 33 4d 3b ce ab
       -9.380504e-05 -1.2457226e-11 3.0091805e-08 -1.465364e-12
0001c0 6b 97 03 2d e8 2b 85 ad b8 98 5c 2f 2d 54 11 29
       7.480109e-12 -1.5139848e-11 2.006314e-10 3.226948e-14
0001d0 df dd 13 27 ac 9e f2 28 c0 cd 04 2a 90 5c e8 b5
       2.0520625e-15 2.693621e-14 1.1795339e-13 -1.7312286e-06
0001e0 bc b2 ec 24 a9 79 c6 b1 07 9f 80 ad bb b1 ce 26
       1.0265147e-16 -5.7763896e-09 -1.4622538e-11 1.4342295e-15
0001f0 44 ac 01 2d 08 c1 59 b1 35 bc 73 a5 9d 5e 86 a2
       7.371052e-12 -3.1687382e-09 -2.1140657e-16 -3.642095e-18
000200 d7 66 4a b3 84 6e 7e 26 64 ad 13 a4 3c 72 9f 23
       -4.7125322e-08 8.827373e-16 -3.202241e-17 1.7287195e-17
000210 d8 60 09 2a ba 56 48 26 ce bb 84 2d 35 05 88 ab
       1.2201644e-13 6.9506475e-16 1.5090065e-11 -9.664826e-13
000220 dc c2 32 2b e8 0b ff b7 94 fd 48 ad 60 c0 b7 a4
       6.3508725e-13 -3.0403913e-05 -1.1424989e-11 -7.9689495e-17
000230 b9 51 32 2c db a4 2d af 54 d0 d0 21 ec 41 59 b0
       2.5340687e-12 -1.5792827e-10 1.4149772e-18 -7.903782e-10
000240 20 e6 74 33 ad 3b bd a4 ce 3c 23 a7 db 4f 0c 3d
       5.7019975e-08 -8.206678e-17 -2.2653756e-15 0.034255844
000250 c7 8c 0d 32 af 5e 4d a4 2d ba 08 b1 73 45 e9 af
       8.239289e-09 -4.453249e-17 -1.9896433e-09 -4.24318e-10
000260 ba 86 93 24 14 34 46 a6 bc 69 4d b2 61 55 9e 28
       6.3979323e-17 -6.876563e-16 -1.1956612e-08 1.7578551e-14
000270 05 91 4e aa cc b3 91 a9 a8 83 50 33 4a 4f cc ab
       -1.8346789e-13 -6.470483e-14 4.8548515e-08 -1.4517079e-12
000280 f9 e6 0f ae ca a2 1e ab 61 fc 7f a4 06 7a 22 2a
       -3.271958e-11 -5.635879e-13 -5.5508084e-17 1.4430826e-13
000290 18 a0 62 a9 24 00 01 a6 39 11 87 a9 f8 9e 5e bd
       -5.032094e-14 -4.4756056e-16 -5.998192e-14 -0.054350823
0002a0 52 e2 20 ac ba 7b ef ac 58 bb c7 a9 a7 50 e7 37
       -2.2863e-12 -6.806525e-12 -8.869874e-14 2.7574903e-05
0002b0 ac d3 7b 2b 19 8c 15 25 76 47 80 b4 67 b2 73 26
       8.9466867e-13 1.2971157e-16 -2.3893853e-07 8.454934e-16
0002c0 b2 a1 07 29 61 63 72 32 c6 9c 31 28 2f f2 0f 31
       3.011627e-14 1.410885e-08 9.859469e-15 2.0946904e-09
0002d0 66 82 c7 28 9a ef 58 2e 10 73 6b 26 74 2d fe a8
       2.214999e-14 4.9325523e-11 8.168794e-16 -2.8219377e-14
0002e0 fb a9 dd 2e dc e6 a6 2c 86 5b 94 27 ec 6d d4 ac
       1.0080111e-10 4.7436343e-12 4.117748e-15 -6.037606e-12
0002f0 bc e1 55 b0 21 9f 29 2b e6 90 39 b6 6b 52 91 a8
       -7.7809736e-10 6.0261697e-13 -2.765149e-06 -1.6133977e-14
000300 61 54 f9 a8 36 c0 54 a4 7d 65 b5 aa 79 75 3f 31
       -2.7681147e-14 -4.613298e-17 -3.222248e-13 2.7860934e-09
000310 c2 e8 0e 2b 36 01 64 2d ce 2b ca a8 9c 56 11 a5
       5.077155e-13 1.2960568e-11 -2.2445502e-14 -1.260609e-16
000320 9b 9d a4 2e 7b 99 4d b4 2f d7 82 24 27 ff 08 2f
       7.485853e-11 -1.9147949e-07 5.674305e-17 1.2459776e-10
000330 7d 66 5f a5 fe ad d3 2f 45 f1 ce 27 58 fe 1c 27
       -1.9376891e-16 3.8504305e-10 5.743807e-15 2.178723e-15
000340 84 8c 7d a6 d7 30 19 3f 30 df 8c aa 59 ad 2f 32
       -8.796744e-16 0.5984015 -2.5023863e-13 1.0225755e-08
000350 ae 81 b2 26 bb bb 69 ab 40 03 1f b9 c0 ca a7 ac
       1.2386381e-15 -8.3038757e-13 -0.00015164632 -4.7689352e-12
000360 e0 06 0a a3 41 83 b7 29 10 9c c4 32 19 8a b2 b6
       -7.482451e-18 8.1496015e-14 2.2888372e-08 -5.32089e-06
000370 29 57 06 bc 2e d7 30 bb cf 4d 25 b7 8d 22 9d 22
       -0.008199492 -0.0026983726 -9.852883e-06 4.2591517e-18
000380 c6 c8 10 2c ba c0 12 36 84 dd a2 25 52 1d 70 24
       2.0575082e-12 2.1867877e-06 2.8252625e-16 5.206654e-17
000390 ce 07 e9 bc ee d0 1b af 25 ec ba a8 00 79 78 39
       -0.028446104 -1.4171395e-10 -2.075256e-14 0.00023696199
0003a0 e7 b9 e3 b6 9b 0b c4 ad d9 e6 8f ab a7 fc ce 25
       -6.786769e-06 -2.2287774e-11 -1.0224834e-12 3.5906507e-16
0003b0 8c b2 7b 29 91 c0 9b 28 e9 68 d8 30 54 c9 a5 ab
       5.588806e-14 1.729197e-14 1.5745886e-09 -1.1779835e-12
0003c0 7e 98 82 b1 ab 8a 35 27 f6 7b 10 34 fe e6 e5 29
       -3.8008343e-09 2.5193968e-15 1.3456142e-07 1.0209714e-13
0003d0 9c 8f 0f 26 d4 f5 bc 29 9a 67 8b a9 98 b4 02 a8
       4.980772e-16 8.3915215e-14 -6.190812e-14 -7.25561e-15
0003e0 ad 92 c7 24 0b b5 b8 2c 50 af 29 a7 14 35 b1 36
       8.655097e-17 5.2496943e-12 -2.3548498e-15 5.28119e-06
0003f0 a6 27 8d 31 19 a8 52 b6 ce 65 2c 35 77 b9 81 38
       4.1081476e-09 -3.1390284e-06 6.422314e-07 6.185745e-05
