DeepSignalingFlow/analysis_nci/fold_3_pan/first_conv_down_weight.npy (npy, 74176 bytes, 1 tensors)

array f4 [18512]
4.3372925e-14 -1.06585025e-08 7.947207e-16 -0.0010349706 -1.807013e-14 -0.22413762 8.5603165e-12 3.2109843e-10
-0.20073178 -0.4310728 -0.27959102 0.16470604 -0.043963093 -0.36530232 0.020534625 0.59538424
-0.5498482 -0.76072514 -0.22244379 -0.31116748 0.54484975 -0.20804644 0.14092924 4.4791507e-11
2.3692743e-12 -1.374396e-12 9.414145e-10 7.5189717e-16 2.6430867e-15 -1.01082524e-19 -0.07027525 2.1357214e-07
-2.9576798e-15 1.863548e-16 5.5490515e-16 1.9179606e-15 2.9109462e-13 7.2217565e-10 0.010940946 -4.604461e-14
-3.573941e-16 -4.2982962e-16 -2.686668e-10 3.943942e-14 -2.133859e-12 2.0544018e-08 1.158359e-13 2.4483706e-14
-6.947177e-10 -3.9084313e-12 1.1754638e-16 1.697958e-15 -1.0043669e-09 3.0941225e-09 1.4355445e-09 7.511145e-11
3.5902503e-09 1.8056555e-14 4.7740296e-16 2.0219572e-18 -2.1703032e-16 2.7504445e-13 -0.0048326827 -1.688276e-05
2.7735733e-14 1.8762306e-13 -4.0237323e-16 8.844016e-15 -1.9806726e-07 -7.377584e-13 3.7042685e-14 8.034072e-15
3.6879468e-16 2.9013565e-12 -7.545242e-15 3.9020504e-13 -1.5025823e-07 1.941244e-11 -6.3587326e-12 1.1162804
0.65493464 -6.796028e-07 1.5578667e-15 1.6058242e-14 -2.602896e-16 1.7246642e-09 2.1528269e-11 -4.8331396e-17
9.2209454e-18 1.2724014e-13 1.2594394e-16 -1.0168593e-13 1.0838684e-09 1.1355602e-12 -4.7521688e-17 3.0681059e-12
-3.9501328e-12 -2.282745e-16 2.8132361e-14 -1.5777884e-08 -1.5486224e-12 -2.0581865e-06 -4.435649e-09 1.2682447e-09
1.2936967e-05 5.180188e-15 1.8054648e-11 4.275586e-14 -7.8161996e-08 8.930522e-14 2.3532157e-10 -6.5632014e-11
1.5827227e-14 -2.2744575e-11 2.4173204e-14 2.9687497e-09 1.233747e-07 3.2262103e-11 -5.603108e-17 -1.6262391e-05
0.002050118 1.6315356e-10 -8.562664e-09 -1.7354961e-11 7.028628e-11 -6.13784e-16 9.2384717e-10 3.327688e-08
2.9257868e-18 -9.5280685e-17 0.21934633 6.676799e-05 8.432816e-12 -2.606323e-15 -1.0326718e-15 -1.5374509e-14
9.41815e-12 1.4063002e-14 2.5291427e-12 -7.312524e-17 6.574185e-11 -1.8797418e-12 -1.0519788e-18 -6.6541502e-15
-1.7395375e-14 -1.4538154e-11 9.4646836e-08 1.4771652e-17 -8.56502e-11 -2.1438912e-16 1.5347434e-14 -1.04821634e-17
3.5379685e-08 -1.5020063e-17 3.773919e-06 4.2384415e-11 4.5252443e-12 1.8096096e-17 3.6886104e-06 -1.735817e-13
5.423433e-13 -5.180948e-16 -5.1368995e-13 -0.00014890042 -8.18707e-14 0.007329398 -0.004531488 -0.028398277
0.01691323 -0.0064978693 0.007048852 -0.01642642 0.027543452 0.012056851 -0.00372638 0.029124973
-0.013449781 0.021151232 -0.021177312 -0.008737638 -0.008499646 -0.014220527 -0.010939896 -0.0033510295
0.009082403 -1.7780112e-08 -7.918756e-13 1.1162064e-16 -1.3608725e-14 1.2651551e-14 -1.7051692e-09 8.846545e-12
-3.9108514e-14 2.535079e-17 1.7335235e-16 1.1674936e-11 -6.673719e-16 4.7783246e-15 -1.8781215e-07 2.1709223e-11
9.0330234e-13 1.03050025e-11 -6.654883e-12 1.278989e-13 2.25048e-18 -2.2336236e-10 2.889355e-08 8.665876e-18
-1.5112056e-06 -1.4789162e-08 -0.0005186767 -3.8772526e-17 -2.913062e-13 6.13333e-07 -1.0674565e-18 5.1236294e-12
-6.428045e-08 -3.5512733e-17 -2.6970446e-12 5.8499807e-12 5.49483e-12 -4.237516e-14 5.94238e-14 -2.3768568e-17
-2.520922e-09 -2.8544781 -1.0637329 1.9012213 1.163329 -1.0997087 -0.97108555 -1.0275601
-1.4643189 0.37792447 1.7378912 0.37996295 0.9439394 -0.8943963 -2.7205474 -1.580663
2.4624329 2.6603978 -2.9123297 -0.7442379 -1.4628752 1.7191644 -0.0031659694 -1.3035502
-0.2589683 -0.049454387 0.2728408 -1.6353909 -0.28861088 0.73105127 0.9876526 0.9169765
00000000: 9455 4329 971c 37b2 0a10 6526 daa7 87ba
00000010: e2c2 a2a8 5584 65be 3d98 162d 9686 b02f
00000020: a28c 4dbe 93b5 dcbe 8e26 8fbe b3a8 283e
00000030: a512 34bd e808 bbbe 3b38 a83c 1a6b 183f
00000040: dac2 0cbf e2be 42bf 4ec8 63be 5851 9fbe
00000050: 467b 0b3f 200a 55be c14f 103e c1fe 442e
00000060: 0db9 262c d66d c1ab 1463 8130 38b8 5826
00000070: 5874 3e27 a3ac ee9f 78ec 8fbd 4352 6534
00000080: 901f 55a7 3bda 5625 c6f0 1f26 2134 0a27
00000090: 28df a32a 9882 4630 a741 333c d25d 4fa9
000000a0: 0f06 cea5 a8c7 f7a5 7eb3 93af 8e9e 3129
000000b0: 3028 16ac c678 b032 6d6b 022a 9587 dc28
000000c0: 69f6 3eb0 0584 89ac 9185 0725 98b3 f426
000000d0: 050a 8ab0 61a0 5431 bb4c c530 fd2b a52e
000000e0: 5ab8 7631 95a3 a228 1f9a 0926 b131 1522
000000f0: 0b38 7aa5 15d6 9a2a 7b5b 9ebb 739f 8db7
00000100: 3fd2 f928 aa3e 532a cff3 e7a5 d351 1f28
00000110: 50ac 54b4 18a9 4fab 4fd3 2629 9eba 1028
00000120: 7d98 d425 312a 4c2c 49ec 07a8 79aa db2a
00000130: ab56 21b4 eec0 aa2d 5fba dfac 47e2 8e3f
00000140: cca9 273f f36d 36b5 2383 e026 c9a3 9028
00000150: f70b 96a5 3a09 ed30 5a5d bd2d a4e3 5ea4
00000160: af18 2a23 7942 0f2a 1734 1125 f3f9 e4a9
00000170: 3bf7 9430 ded0 9f2b b527 5ba4 15e6 572c
00000180: a2fb 8aac 5f97 83a5 cf64 fd28 ef87 87b2
00000190: 01f3 d9ab 601f 0ab6 6268 98b1 654e ae30
000001a0: da0b 5937 cda2 ba27 74cf 9e2d 278e 4029
000001b0: 03da a7b3 f418 c929 915e 812f 8a53 90ae
000001c0: 1a8f 8e28 3b10 c8ad 9dbb d928 cc02 4c31
000001d0: fb78 0434 e6e3 0d2e e932 81a4 386b 88b7
000001e0: 465b 063b a563 332f ff1a 13b2 e6a7 98ad
000001f0: a88f 9a2e 44e9 30a6 f7f1 7d30 51ec 0e33
00000200: 8de2 5722 cab3 dba4 539c 603e cb05 8c38
00000210: 075a 142d 2cce 3ba7 ddd2 94a6 347b 8aa8
00000220: 94af 252d 2656 7d28 fcf8 312c 869d a8a4
00000230: 5f91 902e 6b46 04ac a33e 9ba1 b4bd efa7
00000240: 01af 9ca8 06c2 7fad a640 cb33 943e 8823
00000250: c758 bcae 802c 77a5 c63c 8a28 9e5c 41a3
00000260: 60f4 1733 1f89 8aa3 6f43 7d36 9c68 3a2e
00000270: c737 9f2c 33e8 a623 d889 7736 856f 43aa
00000280: f4a7 182b a654 15a6 4397 10ab 2722 1cb9
00000290: 3f5b b8a9 722b f03b e07c 94bb 81a3 e8bc
000002a0: 9d8d 8a3c 14ec d4bb 0efa e63b b390 86bc
000002b0: cea2 e13c 198a 453c 4836 74bb 7f97 ee3c
000002c0: 785c 5cbc 5945 ad3c 0b7c adbc 4f28 0fbc
000002d0: 1942 0bbc 37fd 68bc 403d 33bc f29c 5bbb
000002e0: 5cce 143c e1ba 98b2 a7e4 5eab 99b0 0025
000002f0: 2b27 75a8 fbe8 6328 4f5b eab0 4ca1 1b2d
00000300: 0c21 30a9 dcd1 e923 95dc 4725 3d63 4d2d
00000310: 5b5b 40a6 4428 ac27 69a9 49b4 d3f4 be2d
00000320: cb41 7e2b 9b49 352d db25 eaac 5900 102a
00000330: 5e0e 2622 ea96 75af 9731 f832 71db 1f23
00000340: a1d4 cab5 6c13 7eb2 cef7 07ba 85ce 32a4
00000350: a6fd a3aa eca3 2435 5e87 9da1 8d45 b42c
00000360: 8d0a 8ab3 09c6 23a4 a3c9 3dac f1d3 cd2c
00000370: 0755 c12c 3cd7 3ea9 7dcf 8529 f239 dba3
00000380: 873c 2db1 c5af 36c0 6628 88bf 385b f33f
00000390: f7e7 943f 41c3 8cbf 1099 78bf 1787 83bf
000003a0: cd6e bbbf 517f c13e 3873 de3f 818a c23e
000003b0: 03a6 713f 28f7 64bf 731d 2ec0 2a53 cabf
000003c0: 8098 1d40 f543 2a40 9c63 3ac0 6086 3ebf
000003d0: 7f3f bbbf 940d dc3f 277c 4fbb bcda a6bf
000003e0: 7e97 84be af90 4abd cab1 8b3e 7d54 d1bf
000003f0: cec4 93be 2d26 3b3f cdd6 7c3f f9be 6a3f
