DeepSignalingFlow/analysis_nci/fold_3_pan/first_conv_up_weight.npy (npy, 74176 bytes, 1 tensors)

array f4 [18512]
0	0x32807669	1.4955008e-08
1	0x3d2f82c7	0.04284933
2	0x2f0f94ea	1.3058679e-10
3	0xa6a18942	-1.1208823e-15
4	0xb7c42eb3	-2.3386767e-05
5	0x36a45979	4.897997e-06
6	0x269caf24	1.0872146e-15
7	0x2b6bed11	8.3817767e-13
8	0x27b8905c	5.1226774e-15
9	0x3da52492	0.08063616
10	0x28988b07	1.6935683e-14
11	0xbf8a3581	-1.0797578
12	0xbf85254b	-1.0402006
13	0x3d99c39a	0.07508011
14	0xbf30ee2c	-0.6911342
15	0xbfad6492	-1.3546317
16	0x3f4ebe7b	0.807594
17	0x34cb04b0	3.7815107e-07
18	0xb195fee5	-4.365449e-09
19	0xbcf86f3b	-0.030326476
20	0xbd2b301a	-0.04179392
21	0xa65c97f0	-7.6533747e-16
22	0x2736c940	2.5366672e-15
23	0xbef9e171	-0.4880481
24	0xbc01bbab	-0.007918279
25	0x3ea05895	0.31317583
26	0xbd37abd6	-0.04484161
27	0xbe81732d	-0.25283185
28	0x3bb9c75e	0.0056695184
29	0xbe8400cd	-0.2578186
30	0xbd020ca6	-0.031750344
31	0xabb1107b	-1.2581181e-12
32	0xaf3e459c	-1.730513e-10
33	0x2709c9fe	1.912207e-15
34	0xab940dc7	-1.0519856e-12
35	0x3fd14cd9	1.6351577
36	0xbf669ffa	-0.90087855
37	0x3e328ca5	0.17436464
38	0x3f4fdf19	0.81199795
39	0xbfa71211	-1.3052388
40	0x3b063148	0.0020476151
41	0x3fd680e6	1.6758087
42	0x3e8fb679	0.28068903
43	0x3e52bebd	0.20580573
44	0x3fd67b1b	1.6756319
45	0x3eea0410	0.45706224
46	0xbe6a0af6	-0.22855744
47	0xbf5b54d6	-0.85676324
48	0xbff60212	-1.9219382
49	0x3ed91a79	0.4240301
50	0xbff22397	-1.8917111
51	0xbe5c0c82	-0.21489146
52	0xbecbcd42	-0.39805037
53	0x3ec40eb0	0.38292456
54	0x3f4a1c2f	0.78949255
55	0x3fe78b60	1.8089409
56	0xbddd10f6	-0.10794251
57	0xbfe76560	-1.8077812
58	0xbf225553	-0.63411444
59	0xbf682001	-0.90673834
60	0x3f6921fc	0.9106748
61	0x3f939f18	1.1532927
62	0xa480e8b3	-5.590536e-17
63	0xad3aed89	-1.0625619e-11
64	0xa8ad715b	-1.9256018e-14
65	0x2d81e1aa	1.4765817e-11
66	0xaffbdef6	-4.5815057e-10
67	0x33a73b4f	7.787332e-08
68	0xb44f75b8	-1.9321203e-07
69	0xaac82975	-3.5555903e-13
70	0xa561f8e7	-1.959997e-16
71	0xafcc1df3	-3.7128664e-10
72	0xbe26fb50	-0.16306806
73	0x33ae46bb	8.115372e-08
74	0x2a95db62	2.6619944e-13
75	0x26232ce5	5.661283e-16
76	0xa540542a	-1.6681861e-16
77	0x3629e381	2.5315387e-06
78	0xbcc07ffd	-0.02349853
79	0xaa5ced17	-1.9622182e-13
80	0x2f2bb3da	1.5616256e-10
81	0x245ecd25	4.831234e-17
82	0xbe6e38bf	-0.23263834
83	0x2ca6b9e2	4.738641e-12
84	0xa891cda0	-1.618741e-14
85	0xbdb93113	-0.09042563
86	0xa96b3deb	-5.2234187e-14
87	0xbfda0069	-1.7031375
88	0x3f0f4751	0.55968195
89	0x3e0ec6a8	0.13942969
90	0x2dcf85fc	2.3592676e-11
91	0xa0916d05	-2.4636099e-19
92	0xbde22f50	-0.110441804
93	0xb19ab408	-4.502457e-09
94	0xa8054ced	-7.399664e-15
95	0xbec0ca90	-0.37654543
96	0xbb4cbb8c	-0.0031239716
97	0x3f7520de	0.95753276
98	0xbd75b396	-0.05998572
99	0x3d22a88a	0.039711513
100	0xae072ace	-3.0733464e-11
101	0xa442fc16	-4.228057e-17
102	0xa70d7709	-1.963221e-15
103	0x25354fae	1.5726244e-16
104	0x26db3c99	1.5212603e-15
105	0xbb06ad00	-0.0020549893
106	0xbe0ed5bd	-0.13948722
107	0x3f8aca69	1.0843021
108	0x3f9ecfac	1.2407126
109	0x3f19d461	0.6008969
110	0xbf632462	-0.8872739
111	0xbca3e760	-0.02000779
112	0xaa9ee660	-2.8226293e-13
113	0x25833b3c	2.2765016e-16
114	0x2bb3644e	1.2746555e-12
115	0xb5b5ca64	-1.3544454e-06
116	0xa96ee02a	-5.3041047e-14
117	0xaf3c9eef	-1.7154965e-10
118	0x2894088c	1.6435007e-14
119	0xa91bb0e2	-3.4570335e-14
120	0x230f9e5c	7.7855794e-18
121	0xa57a87e4	-2.1730085e-16
122	0xa460a083	-4.8708216e-17
123	0xa68a36cc	-9.590526e-16
124	0x33100407	3.3531276e-08
125	0xb03381b5	-6.5304145e-10
126	0xa91a1e99	-3.422141e-14
127	0x2617e51c	5.269915e-16
128	0x2fb05870	3.2077052e-10
129	0xaf5a4885	-1.9852749e-10
130	0xac38daa4	-2.6269343e-12
131	0xb1ef19c1	-6.9587434e-09
132	0x2b93ba50	1.049669e-12
133	0xa6e1784a	-1.5645116e-15
134	0x2e1008e4	3.2749706e-11
135	0x2e2ef353	3.9779135e-11
136	0x29675cc1	5.1372755e-14
137	0xa60ab001	-4.81169e-16
138	0xadd31d0c	-2.4000822e-11
139	0xad1415a0	-8.417628e-12
140	0x2e49f4a5	4.5919397e-11
141	0x345821f8	2.0128925e-07
142	0x3eacb948	0.33735108
143	0x3e70f412	0.23530605
144	0x3f56ceb1	0.83909136
145	0xae5631fd	-4.8702365e-11
146	0x3c19dc0d	0.009390843
147	0xbd7a4311	-0.061099116
148	0xbf16044c	-0.58600307
149	0x3e99aff6	0.3001706
150	0x3896727c	7.173882e-05
151	0xbf07dda3	-0.53072566
152	0xbdc7e2cd	-0.09760056
153	0x3f16a24e	0.5884141
154	0x3e4aff45	0.1982394
155	0xad3b5804	-1.0649263e-11
156	0x3e91773f	0.2841129
157	0x358593f3	9.952331e-07
158	0x26b34f3e	1.2442099e-15
159	0x3fa58ef8	1.2934256
160	0xbe318b75	-0.17338355
161	0x3f83e924	1.0305524
162	0x403633bc	2.8469076
163	0x3f05dd0d	0.5229042
164	0x3f997543	1.198891
165	0xae940cc4	-6.7325284e-11
166	0xbed0f4be	-0.40811723
167	0xa56d1b55	-2.0565734e-16
168	0xbee862ab	-0.45387778
169	0x3f93c72d	1.1545159
170	0x400a4d97	2.1609857
171	0xbfbd4a38	-1.4788275
172	0xc01c955a	-2.4466157
173	0xc026463d	-2.598037
174	0x4002337a	2.0343919
175	0x3fbd291e	1.4778173
176	0xbf3ac9ed	-0.72964364
177	0x3eab5ee6	0.3347084
178	0xa81726e6	-8.390619e-15
179	0x2ec09641	8.7578396e-11
180	0xafb95907	-3.3714562e-10
181	0x2a09d7a9	1.2242866e-13
182	0xbdd24dae	-0.102687225
183	0x3f3de409	0.7417608
184	0x3d8f5a74	0.069996744
185	0xb1d7ecf7	-6.2842633e-09
186	0xafc9c3c2	-3.670078e-10
187	0x27314b2f	2.4604442e-15
188	0x248099cc	5.577169e-17
189	0x312cac18	2.5127118e-09
190	0x2521b01c	1.4024192e-16
191	0x23944a36	1.6077622e-17
192	0xb3429782	-4.530694e-08
193	0xab227db4	-5.772841e-13
194	0x28a9228b	1.877775e-14
195	0xa3657f88	-1.2441121e-17
196	0x2ea88b0e	7.6644566e-11
197	0xa5f8ff53	-4.3194157e-16
198	0xb36d90db	-5.5312608e-08
199	0x26de8ca3	1.5442464e-15
200	0xbd179b12	-0.03701312
201	0xb3da4438	-1.0163825e-07
202	0xa49ed785	-6.888668e-17
203	0x30317d82	6.457058e-10
204	0x30100734	5.239713e-10
205	0x2b17e1d5	5.395938e-13
206	0x2524daaf	1.4298825e-16
207	0x26342a10	6.250705e-16
208	0xa559b117	-1.888175e-16
209	0xad9a0633	-1.7510526e-11
210	0x354d04ce	7.6375443e-07
211	0xbe0fabd9	-0.14030398
212	0x3fa6328c	1.2984176
213	0x3ed44ea3	0.41466245
214	0x3f26d841	0.6517373
215	0xbf386abd	-0.7203787
216	0x3d4f0264	0.05053939
217	0xa5368850	-1.5832168e-16
218	0x230e8ebe	7.728062e-18
219	0x26d475f9	1.4742432e-15
220	0xac0896a8	-1.9410393e-12
221	0x24d7a965	9.352835e-17
222	0xb27b4582	-1.4625927e-08
223	0xab34ea39	-6.4273895e-13
224	0x29fd2bf9	1.1243085e-13
225	0x3f6f9838	0.9359164
226	0xc05a6dd7	-3.412954
227	0xbfd810bd	-1.6880108
228	0x3f8de87c	1.1086574
229	0xbf037d10	-0.51362705
230	0xbdd59791	-0.104292996
231	0x2cb7068e	5.2019005e-12
232	0xaada90de	-3.88251e-13
233	0xbf32713e	-0.69704044
234	0x2a23b4e0	1.4540062e-13
235	0x40147fdd	2.3203042
236	0x3f5e7e90	0.8691187
237	0x3e2e2a59	0.17008342
238	0x4039c36a	2.9025521
239	0x3f4e2f46	0.80540884
240	0xbf7ddd5c	-0.9916589
241	0xbfc33609	-1.5250865
242	0x3f17ff13	0.5937359
243	0xc03ffb67	-2.9997194
244	0xbd827914	-0.0637075
245	0xb0cea004	-1.5033952e-09
246	0xac6b6bac	-3.3455278e-12
247	0x3e7339d4	0.23752528
248	0xbe43f2be	-0.19135568
249	0x3edab60f	0.42717025
250	0xbe1f3c01	-0.15550233
251	0xbefb184a	-0.4904197
252	0xbf8365b8	-1.0265417
253	0x25b0c011	3.0661282e-16
254	0x3ebf5eb1	0.3737693
255	0xbfe10efb	-1.7582697
