DeepSignalingFlow/analysis_nci/fold_3_pan/last_conv_down_weight.npy (npy, 74176 bytes, 1 tensors)

array f4 [18512]
000000 22 0d 1d b2 7e 83 14 a2 4b d2 e4 ad 39 87 b2 31
       -9.141589e-09 -2.0127352e-18 -2.6013988e-11 5.195855e-09
000010 a8 b6 ee 2c 87 7a 8f 2b 05 51 7a a4 8c 86 c1 a7
       6.7846458e-12 1.0194769e-12 -5.4278735e-17 -5.3714137e-15
000020 3a 76 cd 33 30 90 ae a9 19 f1 eb a6 85 28 d3 33
       9.567562e-08 -7.752165e-14 -1.637175e-15 9.8328236e-08
000030 10 19 cc 23 c1 48 24 b8 4d c7 61 29 51 e9 91 28
       2.2128339e-17 -3.9168404e-05 5.0132902e-14 1.6199419e-14
000040 f6 2f d6 21 ba a4 67 a7 db c7 2e bc b6 92 d5 2e
       1.4513899e-18 -3.2146988e-15 -0.010667766 9.71218e-11
000050 d4 00 53 ae 13 8b f7 a3 14 22 5e a5 e2 43 31 2c
       -4.797658e-11 -2.6838694e-17 -1.9266977e-16 2.5190895e-12
000060 32 5b ff 35 c9 45 4b b3 30 5f dd a5 2c 61 78 a5
       1.9025522e-06 -4.732809e-08 -3.840189e-16 -2.1543494e-16
000070 dc 36 98 a8 9b a3 7f ad ce 09 a9 26 f0 cb 0e 38
       -1.6899181e-14 -1.45313995e-11 1.1729388e-15 3.404537e-05
000080 8f 24 89 a5 90 c3 22 30 7f 8f 5f a6 6a d3 b4 2c
       -2.3790485e-16 5.921317e-10 -7.756314e-16 5.1393794e-12
000090 e8 a8 24 24 98 ce 94 b9 5d 14 f1 a2 5c 01 d7 af
       3.57049e-17 -0.00028382684 -6.534474e-18 -3.9109238e-10
0000a0 ff ec b5 2b 01 fe a9 a9 88 7f 0b ab 7d c4 a2 26
       1.2926603e-12 -7.54917e-14 -4.9559705e-13 1.1294266e-15
0000b0 82 24 71 23 21 f6 b8 aa da a9 7d 27 99 7c 30 2a
       1.3072367e-17 -3.2855752e-13 3.520288e-15 1.5675169e-13
0000c0 23 63 5a a4 6d 77 8f ac a9 c5 0f ab 55 eb 56 2f
       -4.7355187e-17 -4.0775634e-12 -5.1078114e-13 1.9546793e-10
0000d0 46 f7 0e aa 13 ff c3 be bb 79 60 a5 b6 fb dd b7
       -1.2697924e-13 -0.38280544 -1.9470147e-16 -2.6462465e-05
0000e0 fc 8d 32 b3 d0 48 d7 bc ec ac ab 26 17 61 72 a9
       -4.157299e-08 -0.026279837 1.1912379e-15 -5.3819006e-14
0000f0 6d dc 30 28 b3 fe f9 28 2b f4 54 31 a1 f1 e7 ab
       9.81776e-15 2.7755011e-14 3.0988854e-09 -1.6480603e-12
000100 5e 6b 18 b1 a7 d8 16 ac f3 08 3a 2d 8f 00 c0 a4
       -2.2179942e-09 -2.1436548e-12 1.0574863e-11 -8.326767e-17
000110 92 9a b7 3b e2 88 83 35 7b 3c 54 25 b5 e3 48 ab
       0.005603143 9.800099e-07 1.840856e-16 -7.137028e-13
000120 7f 56 cc 26 78 2b 7c ab 24 f5 4c 34 30 57 2b 33
       1.4178788e-15 -8.958871e-13 1.9088162e-07 3.9893337e-08
000130 bd 59 1b ae 77 d9 97 ab e7 63 bb 2a 3a dc 7e 30
       -3.5322623e-11 -1.0789554e-12 3.3287194e-13 9.271762e-10
000140 48 57 47 34 d6 d8 44 2d 1f d1 86 b3 23 99 05 32
       1.8565072e-07 1.1189457e-11 -6.2779e-08 7.776438e-09
000150 4e ea 03 27 35 b9 46 ac 6e cf 0d a6 5a aa 15 ac
       1.8306919e-15 -2.8240303e-12 -4.920032e-16 -2.1268738e-12
000160 fa 23 20 a7 5e aa c4 30 23 23 4e 22 ac b1 79 b2
       -2.2223963e-15 1.4309298e-09 2.7936807e-18 -1.45341055e-08
000170 ad d1 f9 a3 6d f9 0d 32 71 15 1a a4 b9 bd 0b a6
       -2.7085435e-17 8.263993e-09 -3.341159e-17 -4.8482435e-16
000180 16 21 4b 27 c7 ea 23 38 d9 c4 18 ac 78 59 02 25
       2.8189845e-15 3.9080882e-05 -2.1709772e-12 1.1306016e-16
000190 53 9c 11 b5 eb a5 1e af a1 74 83 2b 25 1f 17 a6
       -5.424419e-07 -1.4428962e-10 9.340481e-13 -5.243086e-16
0001a0 21 38 1a 2c b3 2d bc a8 e9 d4 89 2a 3a be 1d b5
       2.1915874e-12 -2.0892012e-14 2.4483825e-13 -5.8763874e-07
0001b0 1c d3 bd a8 80 04 3f b9 38 c2 9a 2a d8 9f 35 a6
       -2.107477e-14 -0.00018216856 2.7490662e-13 -6.301362e-16
0001c0 a0 24 59 a7 08 88 31 a9 24 c0 8b 25 0b 4b e9 af
       -3.0134654e-15 -3.9419883e-14 2.4242856e-16 -4.2435774e-10
0001d0 f9 dc 16 a6 06 69 a8 a6 dd 00 ce 23 ab c4 de 31
       -5.234118e-16 -1.1685808e-15 2.233493e-17 6.483409e-09
0001e0 3a 53 1a bb 6c 57 48 24 f9 42 95 29 28 cb 0b bd
       -0.0023548142 4.3442136e-17 6.628547e-14 -0.03412929
0001f0 ea 25 2d 2c ae 37 25 b0 ac 8a da bc 57 d3 0b 2b
       2.4605825e-12 -6.0105776e-10 -0.026677452 4.9676013e-13
000200 7d bd c5 a9 5a 1c 01 ad c9 54 84 34 c8 fb 5a 33
       -8.7814284e-14 -7.339096e-12 2.4648605e-07 5.0986074e-08
000210 c6 6c 2a b7 64 ef 60 28 31 5e c8 34 ea 20 1a 33
       -1.0158115e-05 1.24864074e-14 3.7321436e-07 3.5885854e-08
000220 1d aa 22 aa 79 06 51 a9 a9 c6 cd 2a e1 81 de a2
       -1.444751e-13 -4.6412937e-14 3.6553163e-13 -6.0310735e-18
000230 29 89 a4 a7 be 41 a2 ab 27 89 58 a4 f9 eb 52 b2
       -4.5667853e-15 -1.1529039e-12 -4.6953706e-17 -1.2277263e-08
000240 78 46 05 ad e3 b4 5b ab 45 93 dd bc 74 50 88 2f
       -7.575822e-12 -7.805546e-13 -0.027047763 2.479542e-10
000250 fe 3e 3c 2c c1 7b 4a b0 c8 36 25 32 bb d1 f9 23
       2.6751375e-12 -7.3663037e-10 9.61672e-09 2.7085458e-17
000260 53 82 d5 a3 41 af 19 26 a3 7f cf a3 dd d3 9e ab
       -2.31487e-17 5.332005e-16 -2.2497041e-17 -1.1285379e-12
000270 10 e8 45 af 22 cc cb 2a 29 9e a2 29 e7 8c 46 a4
       -1.7999491e-10 3.620169e-13 7.2216816e-14 -4.3053755e-17
000280 16 e3 9f 28 d2 d4 b5 a3 7f db 06 26 5b 9a 7e 23
       1.7751029e-14 -1.9714192e-17 4.678806e-16 1.3802054e-17
000290 6d 92 9c 2b ab 98 bc ac a8 ca 87 b3 ec 23 44 30
       1.1125108e-12 -5.360231e-12 -6.32329e-08 7.135543e-10
0002a0 07 1d bd a4 4e 93 a0 b0 89 ce 23 31 b3 36 3e 3a
       -8.201486e-17 -1.1683399e-09 2.3837023e-09 0.00072560756
0002b0 23 75 d8 24 f6 9f 2a 2d 82 9a 15 a5 c2 78 24 a6
       9.3873505e-17 9.6989e-12 -1.2976039e-16 -5.706259e-16
0002c0 0e a1 49 a6 ac e0 9b ad c1 98 7d a4 5a 2c 89 25
       -6.9954154e-16 -1.7721234e-11 -5.4990018e-17 2.3795765e-16
0002d0 f1 59 3e 25 da 88 63 2c 5f 15 80 b5 fa d0 87 b2
       1.6510346e-16 3.2334608e-12 -9.542963e-07 -1.58111e-08
0002e0 b4 e8 15 26 ae 4e e4 29 4a 76 36 b0 b0 ee 12 2b
       5.201013e-16 1.0138883e-13 -6.6379313e-10 5.2200865e-13
0002f0 cf 56 0a a9 26 13 40 a9 21 db 65 a6 73 e8 b2 24
       -3.071745e-14 -4.2649173e-14 -7.974731e-16 7.758898e-17
000300 14 8b 07 2d 54 61 0d a6 b5 52 b6 a4 28 a3 cf a3
       7.704743e-12 -4.9051106e-16 -7.907003e-17 -2.2512084e-17
000310 a4 9e 64 32 70 03 b6 ae 63 a4 ba 2e e9 13 8f 35
       1.3307417e-08 -8.2770124e-11 8.487502e-11 1.0660125e-06
000320 e0 bd 40 b2 a8 83 09 33 ce d8 06 37 ad 43 f8 27
       -1.12190435e-08 3.201754e-08 8.037501e-06 6.89072e-15
000330 b4 a1 22 b5 17 1e dd 2d f4 d1 47 2a 54 bb f1 a3
       -6.058501e-07 2.5138154e-11 1.7747593e-13 -2.6208609e-17
000340 f3 1c 85 2a 7a cf 7d 27 67 75 a5 2e 41 b3 28 b0
       2.3645634e-13 3.5223276e-15 7.524186e-11 -6.137278e-10
000350 53 d6 05 a7 70 21 fd b6 40 08 45 2d 49 e7 36 25
       -1.8573643e-15 -7.54388e-06 1.1199985e-11 1.5864346e-16
000360 26 a7 92 ae 9d b3 18 2b 2f 0e ce ae 15 38 49 a6
       -6.669003e-11 5.425051e-13 -9.370315e-11 -6.981189e-16
000370 24 6f 9d 29 eb c5 9e aa 33 ef 99 2b f0 b6 b7 26
       6.9914804e-14 -2.820377e-13 1.0937695e-12 1.2747761e-15
000380 21 dc 9d 2f 98 d3 62 ab 10 86 ba a4 99 cf b9 b3
       2.8714545e-10 -8.0584974e-13 -8.089175e-17 -8.6524956e-08
000390 7f 15 b9 ac 07 ea 09 31 3b 55 95 2d 38 4a a1 a8
       -5.260403e-12 2.0069153e-09 1.6977189e-11 -1.7906778e-14
0003a0 49 03 de 26 53 c5 7a ab f6 45 91 27 56 2d 71 29
       1.5405235e-15 -8.9091684e-13 4.0321436e-15 5.3552072e-14
0003b0 63 b8 9c a7 23 13 fa b3 52 72 80 2e 6a 77 f1 a8
       -4.349861e-15 -1.1645013e-07 5.8410735e-11 -2.6808162e-14
0003c0 45 2c 44 33 6b 93 1d 28 5f 6a 01 ab 5a fa d9 32
       4.567507e-08 8.747217e-15 -4.5977626e-13 2.5375972e-08
0003d0 16 06 a9 2e 73 16 8e bc 22 9e 94 2b cc 4d 1f ae
       7.686311e-11 -0.017344689 1.0559923e-12 -3.6221512e-11
0003e0 fa db aa 24 3b ad 1c b0 01 63 ff 3b 40 52 b6 22
       7.40984e-17 -5.6998645e-10 0.0077937846 4.9418284e-18
0003f0 e0 03 61 2e 71 41 71 2b 11 87 d2 2f 77 ac d1 aa
       5.116252e-11 8.571122e-13 3.8294748e-10 -3.724553e-13
