DeepSignalingFlow/analysis_nci/fold_3_pan/last_conv_up_weight.npy (npy, 74176 bytes, 1 tensors)

array f4 [18512]
0	0x31867736	3.913466e-09
1	0xa7257956	-2.2964126e-15
2	0xbaa272d6	-0.0012393843
3	0x20c686da	3.3631742e-19
4	0x2bc3c82e	1.3911144e-12
5	0x2a626a2f	2.0109672e-13
6	0xa9f74b25	-1.0982039e-13
7	0x2d0d1b69	8.021008e-12
8	0x25103125	1.250666e-16
9	0xac289e18	-2.3961996e-12
10	0x3143b45c	2.8478757e-09
11	0x2b196fd8	5.4511734e-13
12	0xa80b1f15	-7.72279e-15
13	0xa81ba839	-8.640706e-15
14	0x2405cfc0	2.901575e-17
15	0xbae4a107	-0.001744301
16	0xac6c595f	-3.3587228e-12
17	0xb5da5f2d	-1.6269965e-06
18	0xa4c36f81	-8.4756664e-17
19	0xaf24777b	-1.4958161e-10
20	0x27ec882f	6.565081e-15
21	0xb613a311	-2.1999624e-06
22	0x3ca7ddcf	0.020491509
23	0x3543c694	7.293213e-07
24	0x30af9480	1.2775132e-09
25	0x2f97aa6d	2.7587835e-10
26	0xb4c20ac5	-3.6143152e-07
27	0xb9aec4c6	-0.00033334474
28	0x3a66c615	0.000880332
29	0x3ac5fd02	0.001510531
30	0xa52ca371	-1.4973998e-16
31	0xa8411c0c	-1.0719734e-14
32	0x244a6611	4.388822e-17
33	0x2b3a3a2b	6.61612e-13
34	0xa9b0415e	-7.8273095e-14
35	0x26a65ef7	1.1544304e-15
36	0xad7a5cf3	-1.4231494e-11
37	0x2db8b722	2.0999705e-11
38	0xb29c8477	-1.8221028e-08
39	0x3706db36	8.038061e-06
40	0xaf1949c5	-1.3941477e-10
41	0xb415023c	-1.3877519e-07
42	0xa9fc0746	-1.119231e-13
43	0xac23b22d	-2.32626e-12
44	0x2d0e0ed8	8.0750615e-12
45	0xb0992ce8	-1.1144978e-09
46	0x248ec7bb	6.192104e-17
47	0x2e52860c	4.786753e-11
48	0xa8b72c08	-2.0336177e-14
49	0xb711d628	-8.692536e-06
50	0xaafbacb6	-4.47064e-13
51	0x26b65996	1.2653069e-15
52	0xa71e1859	-2.1940104e-15
53	0x291df187	3.5070495e-14
54	0x3390be81	6.740175e-08
55	0xa9d1c39c	-9.315397e-14
56	0x3bc866b8	0.0061157607
57	0xa8f33c01	-2.7004442e-14
58	0xab516ab0	-7.4399775e-13
59	0xab9650dc	-1.0680584e-12
60	0xb541fed0	-7.2268904e-07
61	0x311b9152	2.2638074e-09
62	0xa99afde3	-6.883016e-14
63	0xa76e50ee	-3.3073007e-15
64	0xa95bde1f	-4.8820428e-14
65	0x2e9bdab4	7.0874334e-11
66	0xa8741b98	-1.3550704e-14
67	0x33270275	3.8884952e-08
68	0x2d5983e0	1.2364304e-11
69	0xb4680d0a	-2.1611427e-07
70	0x325c4685	1.282172e-08
71	0xa98d63c3	-6.278964e-14
72	0x38e478ee	0.00010894412
73	0x3149486d	2.929052e-09
74	0xa7c81502	-5.553393e-15
75	0xa7873069	-3.7522513e-15
76	0xa6c30b0c	-1.3533837e-15
77	0xa764ac48	-3.173475e-15
78	0xa42367bb	-3.5432854e-17
79	0x2c437ac4	2.7779315e-12
80	0x2f252726	1.5020571e-10
81	0xb77a4575	-1.4917333e-05
82	0xaa9b8146	-2.7623232e-13
83	0x2937bb94	4.079686e-14
84	0xa40f8499	-3.1120497e-17
85	0x2c38e4c8	2.6274972e-12
86	0x3c0015c3	0.007817688
87	0x32caea1c	2.3622356e-08
88	0x2c17e80e	2.1587207e-12
89	0x273ca5e1	2.6180164e-15
90	0x28c08ef5	2.137828e-14
91	0x37872ef5	1.611512e-05
92	0x38f4192b	0.000116395146
93	0xae25523e	-3.7589702e-11
94	0xa98e0ba6	-6.3080875e-14
95	0x2aa44e18	2.918644e-13
96	0xa9e5036d	-1.0170237e-13
97	0x2dc8cd33	2.2828494e-11
98	0x2ce2f802	6.4508407e-12
99	0x2cc848a6	5.6924075e-12
100	0xade5be84	-2.6118892e-11
101	0xb15acaa1	-3.1838356e-09
102	0x3097ffc3	1.1059388e-09
103	0x2fc700b1	3.619838e-10
104	0x2688e5be	9.499167e-16
105	0xa4234dcf	-3.5410897e-17
106	0x298ce30f	6.256637e-14
107	0x352a0d87	6.334962e-07
108	0xb397c317	-7.066972e-08
109	0x2f37110b	1.6649808e-10
110	0xac40dee4	-2.740857e-12
111	0x2dc57527	2.2448333e-11
112	0x26282c1b	5.8346483e-16
113	0xb7957c74	-1.7820137e-05
114	0xa4dc8889	-9.564109e-17
115	0xb92c2373	-0.00016416404
116	0x29289a1f	3.7437172e-14
117	0x2bbfd26f	1.3629773e-12
118	0x273781d7	2.5466738e-15
119	0xa42d0ba2	-3.752325e-17
120	0xaa8057c2	-2.2798262e-13
121	0x2ccc7b4c	5.8117174e-12
122	0xbadfb4f6	-0.001706748
123	0x23fd3422	2.7452394e-17
124	0xb2975451	-1.7617056e-08
125	0xaa8cc9e7	-2.5009094e-13
126	0xb5d5f9be	-1.5942421e-06
127	0xa64d82fa	-7.130117e-16
128	0xa4044afc	-2.868645e-17
129	0xac23f11e	-2.329754e-12
130	0xa9cba2eb	-9.043273e-14
131	0x26e8ed35	1.6162529e-15
132	0xa99ab6d7	-6.8706915e-14
133	0xad9cb9f8	-1.7817733e-11
134	0xb0459a13	-7.1887135e-10
135	0x319056df	4.2008277e-09
136	0xab0cf141	-5.00728e-13
137	0x25947084	2.575015e-16
138	0x2f448cde	1.7876142e-10
139	0x363680d4	2.7195101e-06
140	0x2ca4407a	4.6683187e-12
141	0x38a813b9	8.014538e-05
142	0xa52f38b9	-1.5198049e-16
143	0xab0e9d20	-5.066659e-13
144	0xaa87c4dc	-2.4117416e-13
145	0x2fcc85d9	3.7202488e-10
146	0x3c29a53e	0.010354338
147	0x3fbeb575	1.4899126
148	0x2ab745d5	3.2555786e-13
149	0x2ffb8953	4.575421e-10
150	0xa9881e9c	-6.044923e-14
151	0xb42c08b3	-1.6021913e-07
152	0x30c505db	1.4335301e-09
153	0x3305c8ba	3.1149035e-08
154	0x30f08725	1.7500709e-09
155	0x250c5653	1.2172312e-16
156	0xa6b4aeea	-1.253742e-15
157	0x30d5b652	1.5549608e-09
158	0xb5453dcb	-7.347814e-07
159	0x3092397d	1.0639237e-09
160	0xac85de51	-3.8047694e-12
161	0xa5a81258	-2.9155785e-16
162	0xb0fb1b99	-1.8270497e-09
163	0xa6d1ac39	-1.4548969e-15
164	0xb0a0c562	-1.1697632e-09
165	0x321aad72	9.003417e-09
166	0xa91a4532	-3.4254887e-14
167	0xa9822cd1	-5.780934e-14
168	0xa793f807	-4.106961e-15
169	0x2721ec42	2.2471314e-15
170	0x248d29ef	6.122004e-17
171	0xaa353619	-1.6094798e-13
172	0x2ecc8df0	9.302059e-11
173	0x2dc60f55	2.2516803e-11
174	0x2dda4296	2.48133e-11
175	0x351670e5	5.604364e-07
176	0x2a04d9df	1.1799544e-13
177	0xaba9876b	-1.2045758e-12
178	0x29f1f770	1.07454735e-13
179	0xb4b09842	-3.2893337e-07
180	0x3e5861a6	0.21131
181	0x2aa6bc22	2.9618067e-13
182	0x263f946a	6.6467575e-16
183	0xabb0d7ef	-1.2565486e-12
184	0xaecfaf1f	-9.444378e-11
185	0xaa86e578	-2.3962408e-13
186	0x37e4dc2f	2.7282249e-05
187	0xb0a95f64	-1.232348e-09
188	0x2e8aee9c	6.317899e-11
189	0x286d8fd3	1.318733e-14
190	0xb2b9872f	-2.1598309e-08
191	0x24b937cb	8.032548e-17
192	0xb0b877ad	-1.3421776e-09
193	0x2a1c7417	1.389586e-13
194	0x22f36161	6.5968386e-18
195	0x35d14144	1.5590708e-06
196	0xa8b2560d	-1.9799288e-14
197	0xaa1bf8d8	-1.38531e-13
198	0xb6922f8b	-4.356674e-06
199	0x24d2a953	9.135983e-17
200	0xb183fdba	-3.841447e-09
201	0xb1184395	-2.2157327e-09
202	0xa4b3a4ab	-7.7907834e-17
203	0xab9741e9	-1.0747489e-12
204	0xae046fb8	-3.011255e-11
205	0xa42cabb7	-3.7442003e-17
206	0x23ceb1bb	2.2409837e-17
207	0xa49102f5	-6.2888735e-17
208	0x2cc0d31c	5.480406e-12
209	0xab10bdaa	-5.142229e-13
210	0x2d9af33d	1.7615793e-11
211	0xb3a2ea0a	-7.586284e-08
212	0xaf17e317	-1.3814049e-10
213	0x29da0fbf	9.683876e-14
214	0xb693193a	-4.383878e-06
215	0xa9a8620a	-7.477706e-14
216	0xac58dc90	-3.0817883e-12
217	0xb1c1d697	-5.6414353e-09
218	0xac3d93c5	-2.6940544e-12
219	0xaff011ad	-4.3668305e-10
220	0x1f985806	6.4520127e-20
221	0xbb74511a	-0.0037279786
222	0xa87b8b70	-1.3963535e-14
223	0xa8df8b92	-2.4818502e-14
224	0x2d6613ed	1.3078411e-11
225	0xacb0fea6	-5.0304925e-12
226	0x2a937d72	2.619949e-13
227	0xac73b881	-3.4634797e-12
228	0x228c43c8	3.8018842e-18
229	0xa8edf666	-2.6419144e-14
230	0xa80bda7e	-7.763428e-15
231	0x261e83ce	5.499589e-16
232	0xa8095ded	-7.625395e-15
233	0xa466a948	-5.0016687e-17
234	0x31d9c98f	6.3384458e-09
235	0x29ddb96d	9.846538e-14
236	0xa30cc06d	-7.630163e-18
237	0xa92875b3	-3.740558e-14
238	0x28f4f2f1	2.71948e-14
239	0x2d74bf0e	1.3912217e-11
240	0x2b10491e	5.126055e-13
241	0xbd166938	-0.03672144
242	0xb5001223	-4.771011e-07
243	0x27d3f382	5.8828276e-15
244	0xa96e98d7	-5.2979183e-14
245	0x2fa7271d	3.0404915e-10
246	0xafe89e55	-4.2313056e-10
247	0xaccb9918	-5.786604e-12
248	0xae7c43f8	-5.7358535e-11
249	0x2f9b2f37	2.8227884e-10
250	0x29f084e2	1.06811925e-13
251	0x3133df56	2.617488e-09
252	0x30875554	9.846794e-10
253	0x2403c069	2.8569075e-17
254	0x31077dc6	1.971658e-09
255	0xa6e4f29c	-1.5886438e-15
