DeepSignalingFlow/analysis_nci/fold_4_pan/block_conv_down_weight.npy (npy, 74176 bytes, 1 tensors)

array f4 [18512]
0	0xaaa41d56	-2.9152608e-13
1	0x2d6c9aa5	1.3449385e-11
2	0xb02fa481	-6.3898403e-10
3	0x2a216ca6	1.4337368e-13
4	0x268cd0c6	9.77104e-16
5	0x24d15112	9.077664e-17
6	0x2a58cc66	1.9255569e-13
7	0xa4a7ce8c	-7.277461e-17
8	0x2fac1118	3.1298764e-10
9	0x2a6cc653	2.1029818e-13
10	0x28bc9aa3	2.0939256e-14
11	0x241c79e3	3.393035e-17
12	0xb8f99328	-0.00011900655
13	0xb88c0019	-6.6757384e-05
14	0x37015764	7.709346e-06
15	0x2e0d4d97	3.2128602e-11
16	0xa7927a2a	-4.065559e-15
17	0xb03348bf	-6.52232e-10
18	0x356ba782	8.778808e-07
19	0x2debc57e	2.6804111e-11
20	0x349f8dd6	2.9719257e-07
21	0x22d1d682	5.6876682e-18
22	0x338928d3	6.3869855e-08
23	0x2e63d67e	5.180433e-11
24	0xaad5ebdd	-3.8000064e-13
25	0x2d3f0e52	1.0860273e-11
26	0xb61bc4ab	-2.3211276e-06
27	0x2995a5b0	6.6456714e-14
28	0x2ae84514	4.125941e-13
29	0xa9e0e7c2	-9.987802e-14
30	0xa922e56f	-3.6170228e-14
31	0x2bddd85b	1.5763045e-12
32	0x2d56c125	1.2207378e-11
33	0x2cb5e138	5.1693337e-12
34	0xacf45020	-6.9437928e-12
35	0x2a34df50	1.6064689e-13
36	0x37b4f35a	2.1570992e-05
37	0x3589f745	1.027926e-06
38	0xb8104a0a	-3.440123e-05
39	0x2cecda86	6.7317844e-12
40	0x26456e4a	6.8497575e-16
41	0x27523d85	2.9176704e-15
42	0xb7549da0	-1.2672885e-05
43	0x2ce6da46	6.5612264e-12
44	0xb7d2f315	-2.5147145e-05
45	0xb33449e4	-4.197672e-08
46	0x290f4eb1	3.1820632e-14
47	0xb14f8eda	-3.0203666e-09
48	0xac51811e	-2.977236e-12
49	0xaa61e765	-2.0064296e-13
50	0xa3f78417	-2.6835736e-17
51	0x2ba0121d	1.1373711e-12
52	0xab84cc77	-9.435915e-13
53	0xa6dce0c4	-1.5326489e-15
54	0xa959549b	-4.8257063e-14
55	0x31a4f949	4.8013686e-09
56	0xa89091ef	-1.60505e-14
57	0x27b5047c	5.0242454e-15
58	0xbe3a7245	-0.18207653
59	0xa4eaf549	-1.0189685e-16
60	0x2794ea2f	4.1332154e-15
61	0xaf0a7ee9	-1.2596114e-10
62	0xaf1e4178	-1.4393275e-10
63	0xb13e5bc6	-2.7700806e-09
64	0xb294f110	-1.733909e-08
65	0x2d9dce01	1.7940318e-11
66	0x26b1b32e	1.2330409e-15
67	0x33d869e3	1.00775445e-07
68	0xa66aa710	-8.141147e-16
69	0xb8982266	-7.254332e-05
70	0x2158e6fe	7.348936e-19
71	0x223ccb9f	2.5586547e-18
72	0xab98b803	-1.0851323e-12
73	0xab1fccf0	-5.6772555e-13
74	0x2fa3a9ba	2.9770125e-10
75	0xaa396404	-1.6466e-13
76	0xa4c5bbdc	-8.575338e-17
77	0xb0953e57	-1.0858895e-09
78	0x2675b44f	8.5245814e-16
79	0xa61c4ca4	-5.422724e-16
80	0x25537b41	1.8343093e-16
81	0xa3b2031c	-1.9300116e-17
82	0x2bde2418	1.5784067e-12
83	0xba46b44f	-0.00075799687
84	0xb7aa8a28	-2.0329913e-05
85	0xa78f7b71	-3.982431e-15
86	0x389a14db	7.347177e-05
87	0xa344717d	-1.0649213e-17
88	0x3014f6a2	5.419257e-10
89	0x258cedfb	2.444739e-16
90	0x32e2a400	2.6384441e-08
91	0xa3b20017	-1.9298837e-17
92	0x24160978	3.2534086e-17
93	0x381d4905	3.749972e-05
94	0xb03af70f	-6.8017497e-10
95	0x2e8edd60	6.4967365e-11
96	0x2f16320d	1.3660202e-10
97	0x234c59c3	1.107787e-17
98	0xa6a34db5	-1.133146e-15
99	0xb388e7a1	-6.3751266e-08
100	0x2bbff930	1.364053e-12
101	0xa71278d7	-2.0327078e-15
102	0xb22ea344	-1.0165255e-08
103	0xa3c47a78	-2.130223e-17
104	0x2e4732a6	4.5292346e-11
105	0x25766d18	2.1374061e-16
106	0x2382d6a6	1.4185535e-17
107	0xb7cccd66	-2.4414341e-05
108	0xac40d9a7	-2.7405662e-12
109	0xad5b4f1f	-1.2466277e-11
110	0xadd5781b	-2.4268634e-11
111	0xaa9716ce	-2.6838812e-13
112	0x2486c03d	5.84389e-17
113	0xab03e71f	-4.6861294e-13
114	0x26052e43	4.620634e-16
115	0x2900bae0	2.8583798e-14
116	0xa831f820	-9.879277e-15
117	0xafaa699e	-3.0997865e-10
118	0x296a7b2f	5.2065282e-14
119	0xa98b7aa8	-6.1941175e-14
120	0x242716f7	3.6231805e-17
121	0xafa25102	-2.9525188e-10
122	0x30f7dd14	1.803445e-09
123	0x20c37ce7	3.3116938e-19
124	0xaae45a5e	-4.056364e-13
125	0xaa86df13	-2.395797e-13
126	0x35c76f92	1.4859127e-06
127	0x355ed157	8.3006074e-07
128	0x24710cf1	5.2269507e-17
129	0x3101dad6	1.8896364e-09
130	0xab8081f4	-9.131016e-13
131	0xaed0786d	-9.480137e-11
132	0x2c4dbeee	2.923824e-12
133	0x2ae9d549	4.153711e-13
134	0x2dcf9ad1	2.3601928e-11
135	0x36847f14	3.9487004e-06
136	0x2a5c7807	1.9581568e-13
137	0xaa03c5c1	-1.1703747e-13
138	0x2823787d	9.074444e-15
139	0xb50d7e78	-5.271063e-07
140	0x2c927ef6	4.163665e-12
141	0x2ab62d07	3.2360938e-13
142	0xaa99b2eb	-2.730241e-13
143	0x361dcac0	2.351284e-06
144	0xb6b67ad5	-5.438322e-06
145	0xa7a85944	-4.672615e-15
146	0x27a3637f	4.5349462e-15
147	0xb284341a	-1.5390516e-08
148	0x29b9d8d3	8.2532634e-14
149	0xa88d3831	-1.5678514e-14
150	0xa49963cb	-6.652223e-17
151	0x26e1eb16	1.5676231e-15
152	0x2f0709e7	1.2281696e-10
153	0xa8c9b5c0	-2.2394304e-14
154	0xbdee36d2	-0.1163155
155	0x23ad5b73	1.8795428e-17
156	0xa30f8c96	-7.781816e-18
157	0xa4d5c2e1	-9.270416e-17
158	0xbdd16960	-0.10225177
159	0xacaeefef	-4.9720154e-12
160	0xadbbbe23	-2.1343876e-11
161	0x294b3e6b	4.5129194e-14
162	0x3f10f7a8	0.56627893
163	0xa8af8f66	-1.9491092e-14
164	0x294a0d6f	4.4864662e-14
165	0xb03948a7	-6.7405853e-10
166	0x2bb943c3	1.3163848e-12
167	0x3d7dc96d	0.061959673
168	0xa40cf9f8	-3.0569393e-17
169	0x3196191b	4.3684287e-09
170	0xa64f7fb9	-7.199065e-16
171	0x24bea659	8.268117e-17
172	0x29164eb5	3.3374958e-14
173	0xa6763eee	-8.543368e-16
174	0xa85dc6ab	-1.2311044e-14
175	0x21ec4079	1.6009048e-18
176	0x2f0bb28a	1.2705406e-10
177	0x2e2fd21a	3.9977e-11
178	0xb010c211	-5.266268e-10
179	0xaf184966	-1.3850396e-10
180	0xacadddd6	-4.9415845e-12
181	0x36c0f469	5.750499e-06
182	0xa593cbef	-2.5638626e-16
183	0xa5855331	-2.3128195e-16
184	0xb540e135	-7.1853293e-07
185	0x2e8af994	6.3198474e-11
186	0x35912a47	1.0815646e-06
187	0x2db65638	2.0729293e-11
188	0x30a1487f	1.1734896e-09
189	0xa9356171	-4.027459e-14
190	0x25da822a	3.7905174e-16
191	0x31bac597	5.435776e-09
192	0xa6dc47fe	-1.528508e-15
193	0x26642512	7.915363e-16
194	0xa551349d	-1.8145686e-16
195	0x28a7abb7	1.8615194e-14
196	0xae39f377	-4.228037e-11
197	0x2edb5cf7	9.975481e-11
198	0xaa70d50b	-2.1390196e-13
199	0xb65c9834	-3.2871149e-06
200	0xb29bac9f	-1.8122874e-08
201	0x2f6284f1	2.060181e-10
202	0xa7cef4fe	-5.7442107e-15
203	0x2c435b53	2.7761862e-12
204	0x2601458e	4.485013e-16
205	0x2b1e1ecb	5.617561e-13
206	0xb932b273	-0.0001704188
207	0xa9aa6f01	-7.568773e-14
208	0x3425e1a2	1.5448907e-07
209	0x393f4135	0.00018239471
210	0x2d368eec	1.0377237e-11
211	0x2c98373a	4.326231e-12
212	0xa9c828c1	-8.888854e-14
213	0xaa1fb1e2	-1.4183752e-13
214	0x2faf3890	3.1872505e-10
215	0xb1167ec7	-2.1899937e-09
216	0xa72f3c01	-2.4318657e-15
217	0xb0cd7e5b	-1.4951625e-09
218	0xa3930c12	-1.5942884e-17
219	0x2c4817e7	2.8434978e-12
220	0xb3a1bd2b	-7.531556e-08
221	0x2875ca75	1.3644133e-14
222	0xaf1d4be1	-1.4306024e-10
223	0x22e6af76	6.25274e-18
224	0x2e145fd8	3.373643e-11
225	0xa007b578	-1.1494988e-19
226	0xaf3b7bf9	-1.7051595e-10
227	0xb778aff4	-1.4822919e-05
228	0xaaef709a	-4.2533061e-13
229	0x34029e8f	1.2164877e-07
230	0x27954ed3	4.144127e-15
231	0x274462c8	2.7254014e-15
232	0x23684394	1.25910554e-17
233	0x2e8a64be	6.293409e-11
234	0x32a2e07d	1.8961368e-08
235	0xa92b3419	-3.8014815e-14
236	0xaed35d1d	-9.611709e-11
237	0xbb347e71	-0.0027541185
238	0x308d5ac4	1.0284897e-09
239	0x31b2d0a2	5.2042006e-09
240	0xbc9287f5	-0.017887095
241	0x28300470	9.770925e-15
242	0x2ac16f1b	3.4360782e-13
243	0xae1bd506	-3.5432123e-11
244	0xaae2b11c	-4.026856e-13
245	0xb62b5c01	-2.553454e-06
246	0x35257a74	6.164548e-07
247	0xaf979865	-2.7575023e-10
248	0x29c4cd76	8.73979e-14
249	0x2d375dc4	1.0423166e-11
250	0x28b31ad1	1.9884622e-14
251	0x2aaefa61	3.1082344e-13
252	0xaf913ed6	-2.6419994e-10
253	0x258e45b4	2.4680306e-16
254	0xaed6c4db	-9.766562e-11
255	0xa78a2f78	-3.835416e-15
