DeepSignalingFlow/analysis_nci/fold_4_pan/last_conv_up_weight.npy (npy, 74176 bytes, 1 tensors)

array f4 [18512]
0	0xa3aadc59	-1.8524758e-17
1	0x264f4ea5	7.1924135e-16
2	0xac32a38e	-2.5386112e-12
3	0x242546b4	3.583856e-17
4	0xa5022ecf	-1.1291562e-16
5	0x3d3e865e	0.04651486
6	0x2ea69e06	7.5768766e-11
7	0x2253fb3f	2.872884e-18
8	0xbf1baacc	-0.6080749
9	0x2bf1a16e	1.7168886e-12
10	0xacd01caa	-5.914898e-12
11	0xaa0ef8d0	-1.2698458e-13
12	0xa8c6fbdc	-2.2091642e-14
13	0x274c00ab	2.831105e-15
14	0xb799516d	-1.8276938e-05
15	0xb684d1ab	-3.958315e-06
16	0x2c9486a8	4.221363e-12
17	0x259053be	2.5036764e-16
18	0xa715f0b0	-2.080838e-15
19	0xae23ea10	-3.72698e-11
20	0xa8b607f3	-2.0209506e-14
21	0x28ea7705	2.6030835e-14
22	0xaa9aeb18	-2.7519024e-13
23	0xb01cba7f	-5.7017496e-10
24	0x2b584677	7.6836405e-13
25	0xac82732a	-3.707608e-12
26	0x2ebf37e0	8.6956e-11
27	0xbebb62a8	-0.36598706
28	0xa578707f	-2.1548686e-16
29	0xaef4eba8	-1.1137696e-10
30	0xb4883b3e	-2.5375078e-07
31	0x298e4a92	6.319003e-14
32	0xab817e1b	-9.201003e-13
33	0xaf32c320	-1.6258328e-10
34	0xb38dd512	-6.6045814e-08
35	0xa346e0ec	-1.07812306e-17
36	0x273af43f	2.5945091e-15
37	0x2a017d80	1.1501043e-13
38	0xad95e1ac	-1.7039557e-11
39	0xafa12c62	-2.9317265e-10
40	0x257b82cb	2.1815094e-16
41	0xa80bc34f	-7.758401e-15
42	0x31889897	3.9754684e-09
43	0xa6834ab3	-9.110198e-16
44	0x25791210	2.1603427e-16
45	0xabe704c0	-1.6414856e-12
46	0x237f26ee	1.3831821e-17
47	0x2e9254ab	6.6543514e-11
48	0xad34b054	-1.0270968e-11
49	0xb51ebaa4	-5.9131185e-07
50	0x248c306a	6.079734e-17
51	0x2a27bd67	1.4898292e-13
52	0xb29ea00a	-1.8466398e-08
53	0x27aa91c5	4.7342522e-15
54	0x2deffa4f	2.7282314e-11
55	0xb408f538	-1.2755197e-07
56	0x25502b68	1.8055831e-16
57	0x2dcc2d61	2.3212267e-11
58	0xad0784c2	-7.70334e-12
59	0xa505656f	-1.1570278e-16
60	0xa749065b	-2.7897799e-15
61	0xaad9fd1e	-3.872258e-13
62	0xafd257c2	-3.8261133e-10
63	0x2621e710	5.6171244e-16
64	0xafc0e813	-3.5089495e-10
65	0xa3fc8d2f	-2.7381688e-17
66	0x3578b618	9.265218e-07
67	0xa699d543	-1.0674312e-15
68	0xbdcb84a0	-0.099374056
69	0x25ae7064	3.0260347e-16
70	0xbf02747c	-0.5095899
71	0x2b3a4b6f	6.618516e-13
72	0x35a89e0b	1.2562972e-06
73	0xa8bdcc05	-2.1071695e-14
74	0x2c6dbd34	3.3784755e-12
75	0xa632a857	-6.19843e-16
76	0xb44b3069	-1.892346e-07
77	0x282c1a77	9.553657e-15
78	0xa7e0c529	-6.238625e-15
79	0x37519782	1.2492646e-05
80	0x31134b2b	2.1434043e-09
81	0xa5d697dc	-3.7225986e-16
82	0x9fff6106	-1.0815721e-19
83	0x264e1340	7.1496696e-16
84	0x2ba6f55f	1.1863114e-12
85	0xa53636aa	-1.5804505e-16
86	0x2af82cc9	4.4084726e-13
87	0xa7b41a4c	-4.9988547e-15
88	0xaa4e185b	-1.8304925e-13
89	0xad6d6d8e	-1.3496216e-11
90	0x2e0a4574	3.1439254e-11
91	0x348e525b	2.6509483e-07
92	0xa87fe3eb	-1.4204765e-14
93	0x2cfb1e3d	7.137206e-12
94	0xa90eb812	-3.168999e-14
95	0xb5998d31	-1.144048e-06
96	0x2b6d3e73	8.428598e-13
97	0x2d1226c5	8.307748e-12
98	0xa50afc7e	-1.205514e-16
99	0xa7b195a7	-4.9289622e-15
100	0x2e82cd5c	5.948195e-11
101	0x3f438044	0.7636759
102	0xbee1ee80	-0.44127274
103	0xb17badc9	-3.6624093e-09
104	0x2be0bb5b	1.5968159e-12
105	0xa3a1b21a	-1.7531084e-17
106	0x2a0c3df8	1.2455998e-13
107	0xa760ce1b	-3.1197975e-15
108	0xa6c4c85f	-1.3654543e-15
109	0x260d8c94	4.910972e-16
110	0xa666cf99	-8.0078627e-16
111	0x347d3163	2.3580428e-07
112	0xaa6c74f4	-2.1001587e-13
113	0xab446e02	-6.9785855e-13
114	0xb68bfcf5	-4.171971e-06
115	0xb0a9d646	-1.2357269e-09
116	0xa4794519	-5.4051796e-17
117	0x289a4cb5	1.7130701e-14
118	0x2807348f	7.505402e-15
119	0x31344d0f	2.623725e-09
120	0x2506549f	1.1651318e-16
121	0x2e1a78e3	3.5122915e-11
122	0xa9bcef71	-8.3904136e-14
123	0x3cae5a60	0.021283329
124	0xa3b2a3b1	-1.9368125e-17
125	0x28043483	7.338859e-15
126	0xaac63a8d	-3.5212493e-13
127	0xa75f8eea	-3.102494e-15
128	0x2e510a95	4.7530497e-11
129	0x24eb7e61	1.021291e-16
130	0x2edc16cf	1.0008493e-10
131	0x2704be1c	1.8421738e-15
132	0x28811e53	1.4335028e-14
133	0xa5f12dae	-4.183779e-16
134	0x3323e3b4	3.815849e-08
135	0xa5607ac7	-1.9470502e-16
136	0xaa186818	-1.3536427e-13
137	0xbb2be988	-0.0026231725
138	0xacf6191d	-6.9945287e-12
139	0x2ee82a2b	1.0557629e-10
140	0x2c09d117	1.958494e-12
141	0xb1d8873a	-6.301801e-09
142	0x36424c83	2.8952788e-06
143	0xad91b550	-1.656511e-11
144	0xb05ca60c	-8.02715e-10
145	0x28b4c078	2.0067484e-14
146	0x2a9c94a4	2.7814307e-13
147	0x27549c02	2.9505482e-15
148	0x24f761a7	1.07284604e-16
149	0xb48bfbf9	-2.6074102e-07
150	0x32115642	8.459724e-09
151	0x238e16d7	1.5405344e-17
152	0x2f4dbaf9	1.8711067e-10
153	0xaa65e1ee	-2.0417671e-13
154	0x24b86a14	7.997698e-17
155	0x2520542a	1.3906304e-16
156	0x20ede7c8	4.0302742e-19
157	0xa59dde38	-2.738574e-16
158	0x231fbc15	8.659235e-18
159	0x2ad6725a	3.8093384e-13
160	0x278ce203	3.910285e-15
161	0xa644f70c	-6.833597e-16
162	0x2854863e	1.1797473e-14
163	0xad94397a	-1.6851177e-11
164	0x2e1442eb	3.371074e-11
165	0x2586046c	2.324829e-16
166	0xb02e0b3f	-6.3316813e-10
167	0xb56c3f2f	-8.8008795e-07
168	0xaf83dad8	-2.398426e-10
169	0x34061ded	1.249061e-07
170	0x3129b7c3	2.4697193e-09
171	0x339585dc	6.962702e-08
172	0x2a4aea0e	1.8022408e-13
173	0xa53140e9	-1.5374295e-16
174	0x2636d34f	6.343031e-16
175	0x26d24cf1	1.4592532e-15
176	0x245eface	4.8351016e-17
177	0x2892260b	1.6225755e-14
178	0x30002561	4.661925e-10
179	0x2a57c2d1	1.9163427e-13
180	0x2a5dbd1c	1.9694354e-13
181	0x2dbe3e22	2.1628092e-11
182	0x25180d95	1.31885e-16
183	0xaf9fdc7d	-2.9078598e-10
184	0x37ef80c1	2.8550976e-05
185	0x22ea93d1	6.3582334e-18
186	0x2cebd934	6.703216e-12
187	0x2096c8ed	2.554395e-19
188	0xb398a20a	-7.107526e-08
189	0x247cb5d7	5.4797814e-17
190	0xb0b06002	-1.2832972e-09
191	0x341e7905	1.4758923e-07
192	0x26d3a8f9	1.4686866e-15
193	0x2fccdd9c	3.7264847e-10
194	0xb95ad4ec	-0.0002086942
195	0x22011909	1.7496014e-18
196	0x26868d70	9.336455e-16
197	0xafcd71c8	-3.737013e-10
198	0xa8008912	-7.13515e-15
199	0x258d9b49	2.4564826e-16
200	0xaad23e21	-3.7346604e-13
201	0xa7e5b39e	-6.375501e-15
202	0x248f05e0	6.202632e-17
203	0xa9ab8dfd	-7.6185565e-14
204	0xa9f4c499	-1.0869881e-13
205	0xabcc2687	-1.4505765e-12
206	0x31c198f8	5.63443e-09
207	0x2b461f15	7.0386866e-13
208	0xa42b3c4a	-3.713078e-17
209	0x2501f998	1.1273532e-16
210	0x24ddfa6e	9.6267716e-17
211	0x28ad665d	1.9251251e-14
212	0xaf1dcbef	-1.4351519e-10
213	0xa61f6403	-5.529975e-16
214	0xbb82dddb	-0.0039937324
215	0xb3127622	-3.4100715e-08
216	0xb8a05c1b	-7.6465505e-05
217	0xb68e53d2	-4.2416877e-06
218	0xad8de9ad	-1.6133617e-11
219	0xa134807e	-6.115643e-19
220	0xb133d0a2	-2.6166522e-09
221	0x24bf80dc	8.305134e-17
222	0xa168dbb3	-7.8895427e-19
223	0x24289dbf	3.656281e-17
224	0xa62c9911	-5.988193e-16
225	0x23c436b2	2.1273527e-17
226	0x2c0191d0	1.8412945e-12
227	0x26ebf897	1.6373781e-15
228	0xb1ef4cb6	-6.9645365e-09
229	0xb4ce7326	-3.8454272e-07
230	0xac996021	-4.359194e-12
231	0x357bbb11	9.3777004e-07
232	0x2d5f4be5	1.2692934e-11
233	0x3de7da06	0.113208815
234	0xa72b5da9	-2.378179e-15
235	0x2c028732	1.854916e-12
236	0x2d191ebd	8.703868e-12
237	0xb380e403	-6.0019396e-08
238	0x2ea9d364	7.722781e-11
239	0x2527f33d	1.4567353e-16
240	0xaed3a9e1	-9.625346e-11
241	0x2f959c9b	2.7214217e-10
242	0x39acd944	0.00032968272
243	0x24e891a9	1.0086072e-16
244	0xa2109179	-1.9592652e-18
245	0xa8c472af	-2.1810107e-14
246	0x24abf375	7.457186e-17
247	0x2eaa96b8	7.757478e-11
248	0xb00da96c	-5.1536264e-10
249	0x335d52d2	5.1530897e-08
250	0x3e7de47a	0.24794188
251	0x32a9b461	1.9756216e-08
252	0x2c3d33f8	2.6887364e-12
253	0x25e10832	3.9036832e-16
254	0xb1d7b58b	-6.2779626e-09
255	0x25a919f3	2.933441e-16
