DeepSignalingFlow/Micha/analysis_nci/fold_4_pan/block_conv_up_weight.npy (npy, 74176 bytes, 1 tensors)

array f4 [18512]
0	0xb2a329f7	-1.899478e-08
1	0xad37cf53	-1.0448381e-11
2	0x35d2c196	1.570256e-06
3	0x25845bd1	2.2960567e-16
4	0xaab7b8ee	-3.263565e-13
5	0xa682c115	-9.072897e-16
6	0xbc8bf279	-0.017083393
7	0x34dafbf0	4.0788973e-07
8	0xbf354e6b	-0.7082278
9	0x2d39c8fa	1.0560658e-11
10	0xa6148df7	-5.1540213e-16
11	0xa50202db	-1.127667e-16
12	0x32d2e3a2	2.4550733e-08
13	0xba0b1398	-0.0005305349
14	0x340ed359	1.3301668e-07
15	0xc003a3fa	-2.0568833
16	0x32b8796c	2.1475635e-08
17	0x20cd94bf	3.4826783e-19
18	0xabf39099	-1.7306322e-12
19	0xb82acdcf	-4.0722833e-05
20	0xb115cf48	-2.180018e-09
21	0x3555ec0a	7.9692165e-07
22	0xbd46ffd5	-0.048583824
23	0xaa048d4d	-1.1772979e-13
24	0x3b1f907c	0.0024347594
25	0xb41033fc	-1.3429957e-07
26	0xb97b4dec	-0.00023966254
27	0xb1ec0018	-6.8685146e-09
28	0xacf0a0e0	-6.839071e-12
29	0xa50fb3c5	-1.2464181e-16
30	0x3e9ba465	0.3039886
31	0xbbce3dea	-0.006294002
32	0x238fe02c	1.5599032e-17
33	0x2680d6ba	8.939986e-16
34	0xad431e8a	-1.1091248e-11
35	0x2c54381e	3.0158163e-12
36	0xb05ea1e9	-8.099322e-10
37	0x28f559fa	2.7239485e-14
38	0x300d2694	5.1350324e-10
39	0x297add0f	5.570289e-14
40	0xa9db59a7	-9.741106e-14
41	0xa7df6d24	-6.2013264e-15
42	0xa1a2f1c5	-1.1041543e-18
43	0xac058e28	-1.897935e-12
44	0x2bd48a39	1.510187e-12
45	0xab298582	-6.022614e-13
46	0xac7f4c53	-3.6280048e-12
47	0x32e12d4f	2.6214051e-08
48	0x2c1abde6	2.199013e-12
49	0xb69c2b42	-4.654198e-06
50	0xb8bf14f6	-9.111494e-05
51	0xa7c4a0bc	-5.4575197e-15
52	0xac28be6c	-2.3979941e-12
53	0xab6f19ae	-8.4945495e-13
54	0xa9667f57	-5.118071e-14
55	0x329fbd6e	1.8596179e-08
56	0xb0687310	-8.456462e-10
57	0x2bb2086c	1.2649998e-12
58	0xa71445aa	-2.057689e-15
59	0x3ac1bad1	0.0014780407
60	0xb281df32	-1.5119074e-08
61	0x2181c053	8.792288e-19
62	0x230d0e29	7.646624e-18
63	0x3a0a5e13	0.00052783004
64	0x2a208507	1.4257008e-13
65	0xa9c78d9c	-8.8619406e-14
66	0xa5138f01	-1.2798669e-16
67	0x29acc8b2	7.6731495e-14
68	0xabce53a6	-1.4660397e-12
69	0x26e2a552	1.572671e-15
70	0xa730e07a	-2.4546596e-15
71	0xa80dd0e7	-7.872371e-15
72	0x2e8ba4ea	6.350283e-11
73	0xb2629be6	-1.3190379e-08
74	0xaffd63f2	-4.6091447e-10
75	0xa2fab9e6	-6.7959463e-18
76	0x36460d29	2.951196e-06
77	0x2590c97d	2.5116552e-16
78	0x3bfff500	0.0078111887
79	0x250ceb09	1.2222697e-16
80	0x3e9a67e8	0.301574
81	0xb1b71c25	-5.3292006e-09
82	0xb0a3ea8a	-1.1926471e-09
83	0xa71a7eb3	-2.1440477e-15
84	0x28388b94	1.0244318e-14
85	0xae543c15	-4.8256583e-11
86	0x35aafa84	1.2738897e-06
87	0x32e11c6c	2.6206372e-08
88	0x2c70a6d8	3.4198668e-12
89	0xaae22936	-4.017426e-13
90	0x3207442f	7.873537e-09
91	0xbdda2b45	-0.10652784
92	0x34a27170	3.0257388e-07
93	0xaa450e82	-1.7502148e-13
94	0x33edf826	1.10813104e-07
95	0xa9ce668b	-9.166026e-14
96	0x2b534080	7.505177e-13
97	0x27a5bd34	4.6001834e-15
98	0x2d4fde11	1.1815896e-11
99	0x31199613	2.2349738e-09
100	0xacd5ae8a	-6.073202e-12
101	0xa49d74e9	-6.828595e-17
102	0xa6afe8d8	-1.2206177e-15
103	0xaf50acea	-1.8978921e-10
104	0xb792ef1f	-1.7515906e-05
105	0x2ac48f7a	3.491615e-13
106	0xb51dea87	-5.882834e-07
107	0xa6016190	-4.488809e-16
108	0xacda632b	-6.2069425e-12
109	0x27a681b2	4.621487e-15
110	0xaea8665e	-7.6579396e-11
111	0xabdd70ae	-1.5734269e-12
112	0xac9890a9	-4.3361603e-12
113	0x2cdfa243	6.356056e-12
114	0xa7321df6	-2.4718704e-15
115	0xa6f097e1	-1.6694512e-15
116	0xb411080b	-1.3507103e-07
117	0x320f847a	8.353817e-09
118	0x22f592d8	6.656286e-18
119	0xb7299761	-1.0108431e-05
120	0xb19a6d73	-4.494433e-09
121	0xa7212198	-2.236145e-15
122	0x35ec5d7a	1.7610575e-06
123	0xb7a040e5	-1.9103705e-05
124	0x2d658290	1.3046134e-11
125	0xa9080911	-3.020593e-14
126	0x33c82eb2	9.3217196e-08
127	0xa5efd98d	-4.160731e-16
128	0x365af680	3.2628013e-06
129	0x2d01e3e2	7.383401e-12
130	0xaf129bf5	-1.333403e-10
131	0xa629310a	-5.8700114e-16
132	0x24a7e870	7.281847e-17
133	0x25004447	1.1125364e-16
134	0xbbc4f959	-0.00601117
135	0x3100c2d6	1.8737203e-09
136	0xb7fdc549	-3.0251818e-05
137	0xb4e223f7	-4.2121948e-07
138	0xab4df9d1	-7.317732e-13
139	0xb15015af	-3.028031e-09
140	0xaef77bd4	-1.1254256e-10
141	0xa95216b7	-4.664907e-14
142	0x2d6e23a6	1.3536649e-11
143	0xa9800377	-5.684943e-14
144	0xa7299019	-2.3531577e-15
145	0xad8ec949	-1.623292e-11
146	0xa509ce13	-1.1952676e-16
147	0xaeed2573	-1.07841645e-10
148	0x250c67d4	1.2178243e-16
149	0x263860a8	6.396882e-16
150	0xa6b034bd	-1.2226748e-15
151	0xaf1a5e6f	-1.4039768e-10
152	0xb48e6da1	-2.6529327e-07
153	0xb8036fb1	-3.1336855e-05
154	0xb0686f51	-8.45593e-10
155	0x2cb76c20	5.213177e-12
156	0xac76ce7d	-3.5073327e-12
157	0x2b557aab	7.584304e-13
158	0xa8ba1864	-2.0660726e-14
159	0xa448007e	-4.3368504e-17
160	0xa520377a	-1.3896584e-16
161	0xabbe566a	-1.3524297e-12
162	0x2803bd6c	7.313035e-15
163	0xa495a644	-6.4900114e-17
164	0x330c154c	3.261566e-08
165	0xa8aeb70e	-1.9397268e-14
166	0x2c22c05d	2.3128368e-12
167	0x36d64408	6.385617e-06
168	0x30b72eb3	1.3328275e-09
169	0x313577f5	2.6407154e-09
170	0xb544d13d	-7.332017e-07
171	0x25503f75	1.8062624e-16
172	0xb09fb291	-1.1619524e-09
173	0x3201fc82	7.566202e-09
174	0xa77690b7	-3.4217808e-15
175	0xa6039d1d	-4.5662683e-16
176	0x359a10c8	1.1478778e-06
177	0x2aed701f	4.2177457e-13
178	0xb007f3f0	-4.945937e-10
179	0xb1d590dc	-6.2155845e-09
180	0xae943555	-6.7397345e-11
181	0xa4f55c4d	-1.06408177e-16
182	0xac30d6bb	-2.5130304e-12
183	0xad06d99e	-7.665339e-12
184	0x31758b44	3.5731356e-09
185	0x2701592a	1.7950682e-15
186	0x2e84209d	6.008458e-11
187	0x2bd3db8b	1.5053387e-12
188	0x2969e9d1	5.1939196e-14
189	0x27214d31	2.2385084e-15
190	0xaa8dc689	-2.5184393e-13
191	0xa635712f	-6.295038e-16
192	0xab8427db	-9.390226e-13
193	0x2418716c	3.3055818e-17
194	0xa7ad2326	-4.8055254e-15
195	0x31f0cb10	7.008005e-09
196	0x2f4ee399	1.881645e-10
197	0x2c1648bf	2.1356664e-12
198	0x3d189307	0.03724959
199	0x2fb2fa08	3.255567e-10
200	0x255e105f	1.9260977e-16
201	0xa5750a1d	-2.1253789e-16
202	0x2a956252	2.653594e-13
203	0x3319684a	3.571794e-08
204	0xb5c797cc	-1.4870834e-06
205	0x2fe04506	4.0794407e-10
206	0xb298228f	-1.7710844e-08
207	0xa6916dd0	-1.0091161e-15
208	0x328aab6e	1.6143272e-08
209	0x2dbf9471	2.1780107e-11
210	0x3f2f4e91	0.6847926
211	0x29193b0d	3.4024043e-14
212	0x2cc959e5	5.722744e-12
213	0x2d48b31d	1.1408455e-11
214	0xa9e4619e	-1.0142168e-13
215	0x305d886e	8.059321e-10
216	0x30b4a3ee	1.3143315e-09
217	0x32a8353d	1.9581984e-08
218	0x25b03f31	3.0573953e-16
219	0x2c123951	2.0779665e-12
220	0xa3ee6474	-2.5846555e-17
221	0x2672d21b	8.424536e-16
222	0xae0f4c32	-3.258211e-11
223	0x2b27d1c6	5.962144e-13
224	0x30464c69	7.2140566e-10
225	0x2c2f1de4	2.4885588e-12
226	0xac8da294	-4.025511e-12
227	0x29cf4d5e	9.206068e-14
228	0xafb809cd	-3.347637e-10
229	0xac3665a4	-2.5920177e-12
230	0xc008d488	-2.1379719
231	0xa7668efb	-3.1996422e-15
232	0x2789dc32	3.8263875e-15
233	0x2801e7e7	7.211224e-15
234	0xa8f15e10	-2.6797168e-14
235	0xa3deddb5	-2.4163185e-17
236	0x21b509f1	1.2267669e-18
237	0x2ef38ddf	1.1075562e-10
238	0x366a4849	3.4910793e-06
239	0xa92d5265	-3.8485183e-14
240	0xa886eb9c	-1.4979168e-14
241	0x2b91d3da	1.036167e-12
242	0xa8ba01d1	-2.0650936e-14
243	0xb1adfdc7	-5.063814e-09
244	0xa9874a49	-6.008091e-14
245	0xb31564ff	-3.478362e-08
246	0xa6f1ffa8	-1.679203e-15
247	0x312d02ca	2.5176399e-09
248	0xb4ac16ce	-3.205409e-07
249	0x2adda1f9	3.9369877e-13
250	0xa382b024	-1.4169227e-17
251	0xab2a2ba5	-6.04567e-13
252	0x2a44f618	1.7493678e-13
253	0xa79260d4	-4.062812e-15
254	0xbe81a80b	-0.2532352
255	0xbee96ea9	-0.4559224
