DeepSignalingFlow/Micha/analysis_nci/fold_4_pan/first_conv_up_weight.npy (npy, 74176 bytes, 1 tensors)

array f4 [18512]
1.13731656e-10 1.5918226e-13 8.5239575e-14 1.0273102e-08 6.419366e-15 -1.0199918e-13 5.7673673e-15 -2.17173e-08
-1.6593059e-09 0.01566299 1.2094735e-11 0.47621974 -0.62192893 0.049306896 -1.7116255 0.7436238
1.1132922 -9.595456e-10 -5.293354e-14 0.019700706 -0.11995353 1.3964723e-15 -2.9960017e-11 -0.23415264
0.23874217 -0.0022318938 -0.099806964 -0.14526658 -0.048708074 -0.70112073 0.083810285 -2.3035207e-05
-3.8041293e-14 6.937161e-11 -6.5580946e-07 -0.039968155 -0.45616123 -1.4360383 -0.004636184 0.47465184
-0.042823605 -0.6560124 -0.16718605 0.4482276 -2.0918226 0.73343927 1.5438637 -0.558142
-0.16676871 1.227154 -0.40000686 -0.054228462 -0.19043818 -0.22121029 0.27679178 -0.43773553
1.3758055 -1.7901405 0.3094797 0.6541572 0.0121506555 0.15475427 0.00046470438 -7.9879437e-16
3.4677679e-09 -5.071338e-06 -2.4647776e-15 -8.2116686e-14 6.30269e-07 -5.3023396e-17 -4.0390725e-14 5.6054e-17
0.20279728 4.5240586e-12 -1.7190359e-16 -1.0312059e-13 5.750774e-17 2.6997748e-06 -0.09988772 -1.751314e-13
-0.026899809 -7.592335e-14 -0.47772387 7.908917e-12 1.9302195e-14 1.5512683 1.7679472e-08 0.5749154
1.3813255 -0.5284293 2.7323244e-10 -8.6564454e-16 -0.040804774 3.5153665e-11 -7.8100796e-13 0.031008689
1.5353694 -0.22774449 1.499457 4.9119562e-06 3.250452e-18 3.1758633e-17 3.7618565e-07 4.3054183e-06
-2.5086758e-13 -0.5065696 -0.9934164 -1.5477525 -0.93089414 1.1299709 0.12253625 1.4477047
4.1528814e-17 -1.0031779e-11 -9.456109e-17 1.9821618e-07 -7.98454e-15 1.5001802e-16 1.7640448e-07 4.700034e-05
-4.449927e-15 -2.4617698e-15 3.1249226e-12 1.3607886e-15 5.40969e-08 3.5031764e-08 -8.4065896e-08 8.252092e-15
5.828601e-17 -3.1410825e-09 5.6611396e-15 6.582444e-10 -1.7555929e-16 -2.1766693e-15 3.2097346e-11 3.0017365e-08
3.6547043e-10 -2.0269207e-12 1.6470032e-14 -1.3268223e-18 -7.1049685e-16 0.0009018459 1.036001 -0.7682811
0.33094653 -0.000117449694 -0.08712239 0.05168565 -0.18554948 0.5476994 2.9916157e-05 0.012493741
0.3571868 -0.6944072 0.5197673 -2.9512696e-06 -0.019121911 -2.471682e-06 9.629899e-15 0.5839166
-3.604132 -1.2539302 -1.4224501 -0.7128589 2.6579344 -2.9486593e-15 -0.0890077 -6.376271e-06
-0.54192626 -1.7608345 0.80491525 -0.93849 -0.2394824 -0.8860538 -0.6511327 2.0868907
-0.30908233 1.2870446 8.8445804e-17 0.00028902342 -9.6199355e-14 -5.174822e-16 -0.5914513 1.3497567
-0.81614935 2.5305316e-14 -3.101038e-13 3.7458958e-10 -1.5302682e-09 -6.691796e-08 3.3439683e-17 3.3758707e-10
-7.147527e-05 0.0007486132 1.0174915e-11 7.164237e-06 -0.0003088775 2.9594172e-12 -0.007873226 -3.1465256e-17
-6.0011884e-11 1.8163007e-08 5.058654e-10 -6.745118e-17 6.0576437e-09 -1.1032401e-17 1.3257475e-05 7.0948094e-16
4.697344e-10 -1.1144744e-08 -7.887495e-09 0.003889468 -0.5583474 -0.05542309 -0.66664106 0.9555565
0.013940182 -3.3318872e-06 4.595866e-17 5.9646897e-12 2.8205545e-15 9.940497e-15 1.6017316e-16 -5.420028e-12
2.5463073e-12 -1.2659564 2.5262597 0.18090908 -0.78813314 0.51694435 -1.9045383 2.454481e-10
1.15584956e-14 -0.10923581 2.1305138e-17 -0.054110855 -0.25183618 -1.6859316 -0.8314509 1.8340251
-0.08712632 -1.820257 2.3288324 -1.1001816 0.25246292 -4.750247e-15 7.476114e-12 0.81730324
-0.14168681 1.359445 -0.24726517 -1.0511156 -1.0145607 7.080532e-16 1.729533 -2.4895818
00000000: 3b19 fa2e 2a39 332a 45f1 bf29 957d 3032
00000010: 3348 e727 86ae e5a9 93ca cf27 d98c bab2
00000020: a30d e4b0 ac4f 803c d8c5 542d 13d3 f33e
00000030: bc36 1fbf 07f6 493d 8b16 dbbf 215e 3e3f
00000040: 5c80 8e3f 02e1 83b0 3764 6ea9 6063 a13c
00000050: 32aa f5bd bc40 c926 fbc3 03ae b6c5 6fbe
00000060: d478 743e f744 12bb 9867 ccbd c3c0 14be
00000070: 1e82 47bd a67c 33bf baa4 ab3d bb3b c1b7
00000080: a052 2ba9 bf8c 982e e20a 30b5 a6b5 23bd
00000090: f78d e9be 1ad0 b7bf 21eb 97bb 9105 f33e
000000a0: ce67 2fbd 6ef0 27bf d232 2bbe 177e e53e
000000b0: 6ce0 05c0 adc2 3b3f 539d c53f 65e2 0ebf
000000c0: 6bc5 2abe 6213 9d3f b3cd ccbe aa1e 5ebd
000000d0: 3a02 43be f384 62be a7b7 8d3e df1e e0be
000000e0: 651a b03f 5323 e5bf 2074 9e3e d976 273f
000000f0: 8b13 473c e777 1e3e 91a3 f339 9f3c 66a6
00000100: 9e4d 6e31 762a aab6 1f9b 31a7 0ce9 b8a9
00000110: c22f 2935 fa86 74a4 56e7 35a9 7140 8124
00000120: 17aa 4f3e 192d 9f2c fc30 46a5 f934 e8a9
00000130: 949a 8424 c72d 3536 ef91 ccbd 302e 45aa
00000140: fd5c dcbc d5f6 aaa9 3998 f4be 9822 0b2d
00000150: d5db ad28 f68f c63f 92dd 9732 a82d 133f
00000160: 46cf b03f 2547 07bf 0c36 962f 4b81 79a6
00000170: e822 27bd 829b 1a2e 8ed5 5bab ef05 fe3c
00000180: fc86 c43f da35 69be 35ee bf3f 62d1 a436
00000190: 4dd7 6f22 fa75 1224 90f6 c934 4377 9036
000001a0: d439 8daa 8cae 01bf 8a50 7ebf c11c c6bf
000001b0: 144f 6ebf e3a2 903f 49f4 fa3d 634e b93f
000001c0: 9284 3f24 1e7b 30ad 040b daa4 40d5 5434
000001d0: 31d6 0fa8 81f5 2c25 b269 3d34 3b22 4538
000001e0: 5553 a0a7 a363 31a7 9ae5 5b2c 3d1c c426
000001f0: 2c58 6833 d575 1633 b787 b4b3 0fa8 1428
00000200: fd65 8624 82da 57b1 ccf6 cb27 d5ef 3430
00000210: f567 4aa5 76d8 1ca7 662a 0d2e 71ec 0033
00000220: 64eb c82f c2a1 0eac 4f59 9428 eecd c3a1
00000230: 6ac9 4ca6 db69 6c3a ae9b 843f 12ae 44bf
00000240: d371 a93e 534f f6b8 396d b2bd 55b4 533d
00000250: af00 3ebe 0736 0c3f 75f4 fa37 8cb2 4c3c
00000260: 30e1 b63e acc4 31bf 780f 053f 6d0e 46b6
00000270: 8ea5 9cbc 2cdf 25b6 127a 2d28 8f7b 153f
00000280: 19aa 66c0 c980 a0bf d812 b6bf ec7d 36bf
00000290: 991b 2a40 2a79 54a7 ab49 b6bd c0f3 d5b6
000002a0: aebb 0abf 0663 e1bf ed0e 4e3f e140 70bf
000002b0: e03a 75be 6cd4 62bf a2b0 26bf 9e8f 0540
000002c0: 0a40 9ebe e1bd a43f 30f1 cb24 1188 9739
000002d0: 279f d8a9 7227 15a6 5a69 17bf d4c4 ac3f
000002e0: 2aef 50bf 16ee e328 ab92 aeaa ccee cd2f
000002f0: 8751 d2b0 8ab4 8fb3 9c36 1a24 2897 b92f
00000300: fee4 95b8 953e 443a beff 322d 5464 f036
00000310: d6f0 a1b9 1f40 502c b4fe 00bc 9e1b 11a4
00000320: b0f7 83ae e004 9c32 1d0d 0b30 2688 9ba4
00000330: 9923 d031 0a83 4ba3 6c6c 5e37 747e 4c26
00000340: 9f1e 0130 1a77 3fb2 9281 07b2 72e6 7e3b
00000350: dbef 0ebf 5203 63bd fda8 2abf 5a9f 743f
00000360: 5c65 643c 6399 5fb6 69f2 5324 26dd d12c
00000370: 0c3e 4b27 7312 3328 c6aa 3825 46b3 beac
00000380: 322e 332c dc0a a2bf 3dae 2140 3b40 393e
00000390: 18c3 49bf 7756 043f e9c7 f3bf c0ef 862f
000003a0: 2738 5028 06b7 dfbd 5681 c423 58a3 5dbd
000003b0: acf0 80be 9bcc d7bf f7d9 54bf 56c1 ea3f
000003c0: 496f b2bd 2efe e8bf 970b 1540 c0d2 8cbf
000003d0: d242 813e 4c25 aba7 6d85 032d c93a 513f
000003e0: 5916 11be 4b02 ae3f 1533 7dbe f58a 86bf
000003f0: 20dd 81bf 1b15 4c26 5661 dd3f 4f55 1fc0
