DeepSignalingFlow/Micha/analysis_nci/fold_4_pan/first_conv_down_weight.npy (npy, 74176 bytes, 1 tensors)

array f4 [18512]
000000 f8 4e 21 26 08 26 1a a3 78 b7 80 ad d5 97 26 26
       5.596512e-16 -8.35641e-18 -1.4633392e-11 5.779859e-16
000010 60 94 48 b7 1a 21 40 30 63 f4 a1 a4 d0 0b 08 28
       -1.1955475e-05 6.9896233e-10 -7.023663e-17 7.552078e-15
000020 ee 49 64 3f e8 2a 23 3f 7e 01 9e be 10 5d a2 be
       0.8917531 0.63737345 -0.30860513 -0.31711626
000030 62 d3 3e 3e 3d cc d4 bd fb 9b cc bd fe 44 09 3f
       0.18635324 -0.10390518 -0.099906884 0.536209
000040 f4 41 00 3f a4 a7 2f be 43 7a 3c bf 92 40 55 3f
       0.50100636 -0.17153794 -0.73624057 0.8330165
000050 38 78 39 3d 96 3a 24 be c1 5b c3 be a2 a0 d3 29
       0.045280665 -0.16037974 -0.3815594 9.398148e-14
000060 3e 5e 35 33 ab 8a 59 b7 82 a6 f6 bc 1f 9a 63 aa
       4.222806e-08 -1.2966494e-05 -0.030108694 -2.0215122e-13
000070 3c a0 a5 23 8f c7 d7 25 ba 86 04 aa 3f 76 b6 2c
       1.7957198e-17 3.743178e-16 -1.1770698e-13 5.185879e-12
000080 0e 55 85 25 bf 53 45 a9 d0 98 8f a5 0f 6f 22 30
       2.3129458e-16 -4.3815425e-14 -2.4910095e-16 5.909308e-10
000090 36 09 4e 2c 7a 17 09 b2 ac 35 1c 2b 86 95 4b 2f
       2.9279474e-12 -7.9797875e-09 5.549682e-13 1.8515864e-10
0000a0 84 e9 f9 b1 37 ac e4 35 b5 8b fd 28 5f d4 09 ac
       -7.2734014e-09 1.7037445e-06 2.814923e-14 -1.958676e-12
0000b0 64 c7 cb 27 e2 fe 8f ad 1b de 0c 30 93 24 32 31
       5.656e-15 -1.6370409e-11 5.1247334e-10 2.59232e-09
0000c0 2c 3e 08 b1 bb 43 b8 23 7d 98 98 a5 a8 af a6 a4
       -1.9825945e-09 1.9978005e-17 -2.6471127e-16 -7.22886e-17
0000d0 48 d2 09 38 1c a8 a6 2b 97 0d 3b a9 e2 ff c5 31
       3.2859185e-05 1.1841669e-12 -4.153413e-14 5.762545e-09
0000e0 25 4e cd ad d7 c9 6b 25 20 19 97 29 45 96 36 2a
       -2.3340505e-11 2.0451387e-16 6.7101056e-14 1.6216982e-13
0000f0 9d 5b 69 ac ab 23 38 2f 66 cc d8 ad 9f 67 20 2a
       -3.3162147e-12 1.6747374e-10 -2.4647128e-11 1.4246806e-13
000100 ac a8 ce 33 ac 0d 2a 2c cb 0f c0 2b fc a2 b3 ac
       9.623304e-08 2.4166042e-12 1.3646804e-12 -5.105581e-12
000110 40 c3 27 a5 1f 39 20 af d5 7f 0e ac 6b 2d b4 23
       -1.4551094e-16 -1.4572209e-10 -2.0250375e-12 1.9534874e-17
000120 9e 28 88 af d1 d1 4f b2 dd f9 dc ae 3a ad 89 2f
       -2.4767116e-10 -1.20966925e-08 -1.00488264e-10 2.504324e-10
000130 0e c0 a4 26 da 9b 13 2b 4c a2 74 a7 51 09 eb 3d
       1.1431843e-15 5.244118e-13 -3.3949784e-15 0.11476386
000140 7f cf e1 be 3e 86 54 27 c5 f5 14 2e 21 59 81 ae
       -0.4410362 2.9493683e-15 3.386959e-11 -5.882073e-11
000150 fd 88 52 a0 b5 f0 ad ad 8a 03 39 aa e0 c3 db b6
       -1.7833018e-19 -1.9774718e-11 -1.6432529e-13 -6.5495115e-06
000160 02 d2 23 a8 76 92 4d aa be b4 c5 a9 3f fb 78 bc
       -9.093856e-15 -1.8258471e-13 -8.779911e-14 -0.0151966205
000170 6a a1 4b b2 96 0d ab 27 90 17 f4 a7 1d 79 16 24
       -1.18528565e-08 4.7476764e-15 -6.774915e-15 3.2628652e-17
000180 d4 0a 58 a5 79 b9 e1 a6 3d 79 3f b0 79 35 3c ae
       -1.8738682e-16 -1.5662784e-15 -6.9657685e-10 -4.2793744e-11
000190 24 73 43 a7 5c 73 4a b1 a0 76 0b 2f e6 bc 5a 34
       -2.7124104e-15 -2.9460443e-09 1.268412e-10 2.0371553e-07
0001a0 f6 ea 09 36 ba 43 e2 ad 57 af 9a 30 e1 b3 9b b0
       2.0551356e-06 -2.5723302e-11 1.1254809e-09 -1.1328859e-09
0001b0 c5 17 56 35 74 51 90 24 a0 32 67 b0 75 24 27 ae
       7.97558e-07 6.258803e-17 -8.4109253e-10 -3.8003784e-11
0001c0 25 18 10 36 9d 4d 15 2c 80 64 ec a8 b2 49 a2 2f
       2.1471726e-06 2.1217258e-12 -2.6244848e-14 2.9519992e-10
0001d0 c2 3d 06 25 ca d9 b7 2d b0 56 f1 a4 b9 2f 80 25
       1.1643572e-16 2.0901409e-11 -1.04663944e-16 2.2236799e-16
0001e0 7b 8c 65 a9 da df 0a 25 32 db f2 ad 62 f1 ac a7
       -5.0970062e-14 1.2045436e-16 -2.7609557e-11 -4.8001298e-15
0001f0 25 43 e4 3c 99 98 71 ae e6 be 57 2b ef ab 49 a5
       0.027864048 -5.493259e-11 7.664827e-13 -1.7492224e-16
000200 fe 8a 00 aa 61 f5 9f a5 b0 0e b9 30 4a f2 bc 2e
       -1.1416906e-13 -2.7748378e-16 1.3464696e-09 8.5922894e-11
000210 47 4e 07 29 61 c4 d6 30 b0 c8 0a a5 99 2c f1 29
       3.0043916e-14 1.5626364e-09 -1.2037588e-16 1.07102864e-13
000220 cb d4 ba b3 cd a7 61 33 5a 9d de a4 72 71 cf 28
       -8.700007e-08 5.253951e-08 -9.654372e-17 2.3030816e-14
000230 ce 3d 8b b3 be 42 ed af be 6a 30 2a 7e 79 5b 3a
       -6.483934e-08 -4.3157472e-10 1.5668974e-13 0.0008372291
000240 28 e7 4c a6 3e 0b c0 2d fc b7 1c 26 d0 44 b1 a3
       -7.1089993e-16 2.1832865e-11 5.437272e-16 -1.9219522e-17
000250 d4 e6 bc 33 58 a3 5b 27 e1 b4 44 af 9c 5a e4 af
       8.7964196e-08 3.0480904e-15 -1.7890357e-10 -4.153734e-10
000260 85 4b 95 35 24 79 cc aa f0 3c 23 b0 5d 3f 8f 2f
       1.1123344e-06 -3.6321738e-13 -5.938565e-10 2.605657e-10
000270 64 13 fc 32 5d 0e 62 a6 b4 90 92 ab 97 41 a8 ae
       2.9345479e-08 -7.8428967e-16 -1.0414087e-12 -7.6514066e-11
000280 4b bc c2 b3 00 12 58 ad 13 cf 2d 2a a4 90 4f a4
       -9.068079e-08 -1.2282175e-11 1.543733e-13 -4.5008485e-17
000290 dd b3 85 2d 7f 97 86 bc 53 7b c9 3d 88 62 8a bd
       1.5200225e-11 -0.01642966 0.09837975 -0.067570746
0002a0 a0 d6 9e bb 54 53 ba bb f3 c1 ea be 40 21 61 3d
       -0.0048473626 -0.005686203 -0.45851097 0.05496335
0002b0 52 a5 a6 3d 13 93 27 bd 8b c4 40 bd 1d 47 cd bc
       0.08137001 -0.040911745 -0.047062438 -0.025058324
0002c0 32 c5 ed bd ba 78 c1 3d 28 ec 6e bc e5 ff d9 3b
       -0.11609878 0.09446855 -0.014582671 0.0066528195
0002d0 b8 5a fe bd d5 15 2a be 47 bb df 3d 21 fa b6 bc
       -0.12419647 -0.16609891 0.10924392 -0.022336068
0002e0 c3 5c 6b bd 52 b9 3a a5 80 3e a9 25 03 a8 b1 24
       -0.05746151 -1.6195717e-16 2.9359178e-16 7.704614e-17
0002f0 e1 97 2e 29 06 3b 16 25 17 f3 43 ad 0c 0d 4f aa
       3.8767495e-14 1.3030424e-16 -1.11384435e-11 -1.838982e-13
000300 a7 c3 ac af 8b 17 d0 2b 49 d5 1f 2b 50 6b 98 a9
       -3.1425637e-10 1.4785823e-12 5.678414e-13 -6.768772e-14
000310 f5 10 31 a5 29 79 54 2a 62 e4 17 a5 3e 30 cc 2c
       -1.5358048e-16 1.8871418e-13 -1.3174541e-16 5.8033847e-12
000320 b8 85 ea a3 75 20 d8 a9 e6 97 0c b7 fc 48 f4 28
       -2.5426963e-17 -9.597957e-14 -8.380017e-06 2.7121094e-14
000330 8d 12 3a 2d a1 de c3 27 fb 43 b2 2a ef e8 2d ac
       1.0576995e-11 5.4364747e-15 3.1666323e-13 -2.4714083e-12
000340 0b 21 51 26 69 ca 66 33 59 19 3c 33 3f 4c 5e 30
       7.2556223e-16 5.373514e-08 4.3795215e-08 8.087148e-10
000350 6c 99 16 a9 fb 4e 0c ae 2e 9e 7c 28 13 c3 5c 27
       -3.3439763e-14 -3.1902463e-11 1.402311e-14 3.0636883e-15
000360 8c 64 d7 24 f8 fd 13 b1 9c 8c bc b8 8d ae 0e 3d
       9.341172e-17 -2.153568e-09 -8.990729e-05 0.034834433
000370 59 c7 b9 2b a5 58 3c 27 6d e6 45 2b b8 77 07 33
       1.3200371e-12 2.6138295e-15 7.030824e-13 3.154102e-08
000380 58 0e 50 ad 58 51 0a c0 56 82 f8 3f bd 69 62 3f
       -1.1826616e-11 -2.1612148 1.9414775 0.88442594
000390 f5 37 f9 3f 75 9b ce be 39 cd 6e bf af db 10 bf
       1.9470202 -0.4035298 -0.93281895 -0.5658521
0003a0 07 48 b9 bf 52 f1 bb 3f 60 81 4e bf 51 6e ac 3f
       -1.4475106 1.468302 -0.8066616 1.3471166
0003b0 62 1a be be ca 92 db be db 06 50 3f e6 d7 94 3e
       -0.37129503 -0.4288543 0.8126046 0.29070967
0003c0 01 2b bf be 92 5d d5 3e 62 0f e6 3f dd ef 23 c0
       -0.37337497 0.4167295 1.7973444 -2.561515
0003d0 41 1d 07 bf 63 a3 d0 be 66 40 bf 3f cc 1d dd 3e
       -0.5277901 -0.40749654 1.4941528 0.43186796
0003e0 48 59 c2 3f 78 62 d0 be 76 a1 e9 be c4 f5 5e bf
       1.5183496 -0.40700126 -0.45630997 -0.8709376
0003f0 e0 dd c3 3d 93 53 96 bf c2 82 c8 bf d5 f4 34 3f
       0.09563804 -1.1744255 -1.5664904 0.70686084
