DeepSignalingFlow/Micha/analysis_nci/fold_4_pan/last_conv_down_weight.npy (npy, 74176 bytes, 1 tensors)

array f4 [18512]
00000000: f711 9bb5 a199 ae26 6868 eead b30c 7724
00000010: b1cd 3026 00f7 3b2e 44bf 8532 7860 da26
00000020: cc6d b62b 1507 ccb5 f1de 832f 4008 3cba
00000030: 0ade a2aa 7a6b 232e f632 33af 8113 ee27
00000040: 63e1 7e2b 04e8 fc2f 3119 d83a a179 3c32
00000050: ef76 a026 2c8c b223 ccc7 2a28 784f 8828
00000060: d719 0225 187e a2b6 971d b4bf 2cf1 6534
00000070: 2315 4f28 3888 0baa 735e 05af a872 8524
00000080: 1b08 fc2c bf7a 9db3 d463 262a b0c3 a7ac
00000090: 5b33 f32e f178 abac 37d0 ea29 5907 b821
000000a0: 0ad1 cb2b f4ec d930 b0bd 61b1 f5b2 adb6
000000b0: 0b81 2fa4 a37f 3827 53b6 e5b3 3a03 27ab
000000c0: 9781 de2b fa4d 6f2e be54 8ea5 2abf a927
000000d0: c28b 8835 546e 3b2f c48f f226 9fbb 67a8
000000e0: 3b09 0127 b8a4 eb2b 020a 732c 679e 672f
000000f0: 4eee e227 e0db 60b3 a0f9 9337 446d a528
00000100: efb1 9eaf ecba b33e 7c2d bfa5 4709 6728
00000110: 8008 e2a9 6b41 ceab b853 6da6 5055 8539
00000120: 4f39 21ad 72ce 8c29 3c30 3daf 486a b3a7
00000130: 82bd 0a2d 1346 ec27 110c ada8 12c2 17ad
00000140: 2c02 42a7 d495 813e b429 e52c 8db0 4faf
00000150: d047 75af 77f1 2fa1 8280 8130 69e8 97b7
00000160: d586 8cb1 f1a9 06aa 432b 5a23 c45b d82d
00000170: ddd0 3428 7e11 b224 2643 05b0 2666 3429
00000180: 392f d234 abe9 252e 0a2a d627 24ef 1b28
00000190: dcdb 92a5 f2e9 b92d 4686 b3b5 cd4e 76b9
000001a0: 7cc4 9e26 8b17 f223 ae7a 4132 f49f 7c22
000001b0: 7f4f 43a8 dbee 7028 2d87 90a6 eb7a 8d30
000001c0: 6d37 90b0 e49d 8e31 ba86 12b6 af2e 1baf
000001d0: 69d7 1dac 25f9 763d fa28 91ab aef1 c425
000001e0: 3352 27a8 9984 54a7 ee05 7826 9621 f12e
000001f0: 6007 6c24 18a6 eb30 2ae3 bf26 d31c 352f
00000200: e5ce a0ad 399e c729 7a53 e6a9 9d54 0426
00000210: a7a3 ce26 2385 8c2a 7af0 9c2b 0a3c b0a5
00000220: d0e5 85a8 2f22 3329 b99d 5c24 7b80 20a8
00000230: c48f 49a7 33b8 17b1 71f7 c5b4 bab2 472d
00000240: 82cc 91a6 8ef7 682c 060a 40a5 0bff 87a4
00000250: 7aa2 daa4 8149 592a b6c5 d528 16d8 84aa
00000260: 4511 1a2c dd33 fa26 8041 6ab4 9a3b b228
00000270: 53a7 51a6 9fb4 66a8 9a02 1db2 9dc3 a0a7
00000280: 89a5 472c ad31 01af 58e9 972d 8294 88b6
00000290: 00fe 7330 f898 6b28 9545 0e33 ac88 f733
000002a0: 9d5d f129 52cb 23a8 1f7a 73a7 8b51 9a24
000002b0: 9413 bc38 8848 9cb5 2c5f 4ebd e3c8 0024
000002c0: eca3 c523 346b c5a7 dc86 9f39 fe5b b8a5
000002d0: 6611 58a5 7f22 07b3 123c 6f35 37c5 9e2b
000002e0: 013e 162e b315 8c25 379c d1ab d576 872b
000002f0: 08ac d7ba 8554 922e 48d1 873e 6ca0 782e
00000300: 00e8 802b 4313 ea32 f104 c8ac eb98 0a32
00000310: cac2 b426 bd51 28ae fe36 e528 add4 ef33
00000320: 5671 5629 9d07 00ae 63a3 12bd 8f93 cab1
00000330: 2c09 44b2 ce22 d7a8 4f46 0f36 57f7 8e28
00000340: 12b3 eaa4 891d 5f21 b0bc 15a5 39be 9325
00000350: cb9b 8bb3 198c 2729 72cb 8fa8 4899 b728
00000360: 7a70 5326 d39f 082c 7718 80a9 226b c3b4
00000370: 3d42 a328 270c 3d28 b7e3 db24 929a 55af
00000380: d5b7 cfa3 760c 3930 f791 9caa ddb7 36ae
00000390: 9bf9 5529 a27a fe2b 90a9 5d2f fda7 ad31
000003a0: e5a8 8faf 000a 9230 9518 6ba6 b9c7 922b
000003b0: 284b d92d 1748 30b3 11fe b5ab 1d08 41a6
000003c0: ba97 b137 6afe 06a7 c1bf 2037 fecc b4a8
000003d0: 3de6 a82d 1007 09a5 756b 02bd e08f 772c
000003e0: 7961 afa4 ff90 e129 b7dc 5925 f615 8632
000003f0: 7ea4 deb9 8920 e927 4099 c33b 8326 03a7
-1.1553628e-06 1.2115317e-15 -2.7103833e-11 5.3570344e-17 6.134103e-16 4.2738257e-11 1.5570215e-08 1.5152937e-15
1.2962353e-12 -1.5201246e-06 2.398717e-10 -0.000717286 -2.893105e-13 3.7157367e-11 -1.629806e-10 6.6079416e-15
9.0551714e-13 4.600339e-10 0.0016487 1.09706955e-08 1.1134467e-15 1.9358164e-17 9.48022e-15 1.5133497e-14
1.1284457e-16 -4.8426555e-06 -1.407153 2.1415025e-07 1.1495392e-14 -1.239294e-13 -1.2129835e-10 5.787379e-17
7.1631707e-12 -7.3332096e-08 1.4778397e-13 -4.768151e-12 1.1059483e-10 -4.8735395e-12 1.0427807e-13 1.247027e-18
1.4482038e-12 1.5856174e-09 -3.2849634e-09 -5.176635e-06 -3.805638e-17 2.5604322e-15 -1.0696808e-07 -5.9334796e-13
1.5810017e-12 5.4411566e-11 -2.4690497e-16 4.7114183e-15 1.0173464e-06 1.7046747e-10 1.6831091e-15 -1.286376e-14
1.790735e-15 1.6743473e-12 3.4537932e-12 2.1065603e-10 6.298597e-15 -5.235404e-08 1.7640006e-05 1.8366066e-14
-2.8866462e-10 0.35103548 -3.316404e-16 1.2825088e-14 -1.00378907e-13 -1.4655337e-12 -8.2339353e-16 0.000254313
-9.1645155e-12 6.2530615e-14 -1.7206586e-10 -4.979771e-15 7.886471e-12 6.5579133e-15 -1.9212091e-14 -8.6264485e-12
-2.6924086e-15 0.25309622 6.5132014e-12 -1.8889264e-10 -2.2308133e-10 -5.961188e-19 9.422509e-10 -1.8108827e-05
-4.089865e-09 -1.1960551e-13 1.1826965e-17 2.4597109e-11 1.0037297e-14 7.722483e-17 -4.848054e-10 4.005663e-14
3.9149907e-07 3.7724195e-11 5.944251e-15 8.656084e-15 -2.5475945e-16 2.1135958e-11 -1.3375618e-06 -0.00023489744
1.101671e-15 2.6247663e-17 1.1261973e-08 3.4237047e-18 -1.08419125e-14 1.337447e-14 -1.0028647e-15 1.0294036e-09
-1.0493132e-09 4.150694e-09 -2.1834117e-06 -1.4113753e-10 -2.2430619e-12 0.060296196 -1.0314243e-12 3.4164349e-16
-9.288186e-15 -2.9492791e-15 8.605032e-16 1.0965377e-10 5.118059e-17 1.7145707e-09 1.331486e-15 1.6472095e-10
-1.8281774e-11 8.8648225e-14 -1.0228533e-13 4.591137e-16 1.433848e-15 2.4961378e-13 1.1151212e-12 -3.0571817e-16
-1.4865632e-14 3.9775634e-14 4.7838492e-17 -8.909644e-15 -2.797229e-15 -2.2078097e-09 -3.6874147e-07 1.1351526e-11
-1.0116828e-15 3.3106603e-12 -1.6656741e-16 -5.897898e-17 -9.4817675e-17 1.9298973e-13 2.3733494e-14 -2.359785e-13
2.1894303e-12 1.7361292e-15 -2.1816777e-07 1.9787818e-14 -7.273821e-16 -1.2806731e-14 -9.139194e-09 -4.4621005e-15
2.8371491e-12 -1.175013e-10 1.7270338e-11 -4.0704044e-06 8.876384e-10 1.307829e-14 3.3125236e-08 1.1526694e-07
1.0718789e-13 -9.092406e-15 -3.3789226e-15 6.692499e-17 8.968185e-05 -1.1644015e-06 -0.05038373 2.7925733e-17
2.1428206e-17 -5.4794714e-15 0.0003042732 -3.1981248e-16 -1.8740908e-16 -3.146351e-08 8.912185e-07 1.1281313e-12
3.4161122e-11 2.4300833e-16 -1.4893702e-12 9.625309e-13 -0.0016454468 6.654325e-11 0.26526856 5.6531155e-11
9.15934e-13 2.7249945e-08 -5.6848905e-12 8.067427e-09 1.2542807e-15 -3.8271376e-11 2.5447956e-14 1.116799e-07
4.761585e-14 -2.9110592e-11 -0.03580035 -5.8957492e-09 -1.1410787e-08 -2.388489e-14 2.1349585e-06 1.5872434e-14
-1.0178468e-16 7.559443e-19 -1.298762e-16 2.5629335e-16 -6.5010305e-08 3.7202964e-14 -1.596442e-14 2.0383556e-14
7.3357765e-16 1.9415483e-12 -5.688586e-14 -3.639953e-07 1.8125362e-14 1.0494243e-14 9.5361874e-17 -1.9427152e-10
-2.2520841e-17 6.7320316e-10 -2.781245e-13 -4.1545312e-11 4.7512e-14 1.8081823e-12 2.0160074e-10 5.0540607e-09
-2.6131555e-10 1.062574e-09 -8.156532e-16 1.0429358e-12 2.470342e-11 -4.104376e-08 -1.2931341e-12 -6.697132e-16
2.1170697e-05 -1.8734154e-15 9.581389e-06 -2.0072916e-14 1.9201635e-11 -1.1885249e-16 -0.03184076 3.5180678e-12
-7.605928e-17 1.001716e-13 1.8896531e-16 1.560964e-08 -0.00042465696 6.4705766e-15 0.0059691966 -1.820078e-15
