DeepSignalingFlow/Micha/analysis_nci/fold_5_pan/block_conv_down_weight.npy (npy, 74176 bytes, 1 tensors)

array f4 [18512]
4.5464718e-10 -1.8309587e-05 0.00048764463 2.2049544e-09 1.0950742e-10 -1.5072458e-05 -7.695252e-11 8.573915e-07
-8.5090767e-07 3.805358e-06 1.198992e-10 -4.757366e-17 1.1020436e-16 2.369372e-16 1.2055206e-14 -3.6076204e-07
1.5423638e-14 4.638731e-13 2.3881206e-08 -5.5182516e-14 4.3234652e-14 -6.359643e-18 -2.2398928e-17 -7.002195e-08
5.472314e-13 -6.728816e-13 -2.6665336e-16 -4.203528e-13 2.3881552e-12 -9.061491e-18 7.025102e-17 1.5618225e-12
7.3213914e-07 1.8451946e-07 -7.504715e-14 -2.6782616e-09 -1.3989537e-06 1.5546095e-15 -3.932781e-15 4.991773e-09
-2.2352532e-08 5.6277408e-08 9.7630854e-14 -4.9985806e-07 -2.3891887e-14 -1.2167786e-12 5.357779e-15 7.850352e-12
-8.402919e-17 2.1391139e-11 1.162854e-17 3.5847345e-15 2.9510037e-13 6.2792295e-13 -1.5663525e-16 6.3080216e-16
-6.632817e-10 -1.0061648e-11 1.8438505e-15 -4.938938e-08 -0.0010462858 -5.1259253e-12 -1.0395806e-12 -4.4343568e-10
1.9084816e-13 3.6317615e-13 4.877525e-12 3.2272405e-16 -9.952148e-14 -9.683394e-10 -3.1064932e-11 -6.031079e-12
-1.1779627e-12 9.5405305e-17 6.7851204e-13 3.268477e-15 -0.7692607 -4.8560437e-15 3.4142186e-16 -4.9855363e-11
-2.825278e-13 -3.235391e-12 -2.0113127e-06 -8.88659e-15 -1.0148205e-12 -3.8372352e-13 -0.00046125965 -4.165505e-13
-1.0095495e-14 -3.0180836e-13 -1.870361e-09 2.118114e-15 -4.1153054e-09 -6.1969416e-07 -1.1665168e-08 5.9582023e-16
-2.3634174e-12 3.1687688e-16 -2.3905807e-13 2.9767985e-12 2.1330231e-15 -1.4602334e-12 -2.5913534e-09 1.1577288e-14
-3.925924e-06 9.392665e-11 -1.2200186e-16 9.136034e-14 -0.006739123 0.9250503 5.4456413e-09 3.9975045e-09
4.0646624e-05 3.1676518e-14 -5.980794e-15 1.1290154e-12 1.8545296e-09 1.3577358e-06 -2.5503906e-15 2.0677105e-07
3.284805e-08 2.036437e-18 -6.245027e-07 -1.1397711e-16 -3.5266454e-15 -3.9105985e-06 3.9958792e-08 1.0200049e-11
1.1306375e-12 3.0901546e-09 1.5290103e-09 2.6829263e-16 2.957856e-11 -1.236588e-15 6.6311856e-07 -3.7349748e-16
1.2573393e-11 9.3714455e-12 2.9178538e-17 7.3395104e-13 3.843258e-16 -2.6495457e-12 -1.4041903e-15 3.918016e-09
4.664391e-17 7.282574e-20 -1.0179069e-09 -3.8943615e-15 4.3177454e-16 4.424299e-17 -4.2204466e-08 2.2158119e-07
1.180465e-12 1.0266761e-17 -6.168192e-12 -2.35431e-09 4.4773935e-10 3.994259e-05 -9.5366135e-15 1.7036143e-10
4.2840807e-06 0.00019017798 4.113059e-09 -6.8419417e-15 -2.2804436e-14 2.1192801e-07 0.22086908 2.5540682e-11
-0.08655435 1.2319734e-17 2.0750159e-13 -2.9116444e-15 -1.2466082e-08 -1.7036836e-15 -2.6173574e-10 -3.5683492e-09
-6.5506873e-07 -4.0347375e-05 -1.167928e-12 1.862802e-14 -1.8183624e-05 -1.914512e-15 -1.821044e-10 1.6129981e-12
-4.805104e-13 -0.033529535 4.5365408e-15 -3.8584582e-16 -1.0051691e-12 -1.0232442e-06 -1.934142e-13 1.8261387e-09
1.426739e-17 2.4857102e-14 -4.690071e-11 -2.7491732e-13 0.022774776 -1.2414242e-11 4.040954e-11 5.2470498e-12
-5.016032e-18 -1.8447203e-12 2.5461787e-17 2.6610008e-13 -2.356595e-10 -8.114731e-13 -1.3805363e-12 -1.9364323e-11
1.3183235e-15 1.435896e-17 0.00018612461 1.0570844e-07 1.9644448e-11 6.330567e-08 -2.5755762e-06 1.530818e-05
-0.21511082 1.6025998e-09 4.6172413e-09 8.5957954e-14 -2.6503504e-09 -8.988421e-11 9.943112e-13 2.5705123e-15
5.649053e-18 -1.876519e-12 6.1660294e-06 3.545041e-10 1.1190036e-16 -3.1470393e-10 -5.762831e-12 -2.1186487e-13
1.163805e-18 5.814957e-07 1.3494041e-12 1.4278716e-13 -0.00072656147 -5.6812402e-18 3.4999213e-17 5.987524e-13
3.725942e-17 7.977263e-09 -1.1344771e-12 -2.692584e-13 0.00012294996 5.7649295e-13 7.403443e-13 -2.3037318e-08
4.2856072e-13 0.00014648741 1.5683446e-10 2.1794395e-09 1.5934764e-09 -1.0896454e-12 4.3723316e-15 8.596149e-12
00000000: e7f1 f92f 8a97 99b7 8eaa ff39 f885 1731
00000010: 32cf f02e b7df 7cb7 6b38 a9ae 7f27 6635
00000020: ee69 64b5 8d5f 7f36 a0d4 032f 1065 5ba4
00000030: 2c1d fe24 c295 8825 d32a 5928 c2ae c1b4
00000040: 7dec 8a28 9491 022b 5423 cd32 1c85 78a9
00000050: 29b6 4229 21a1 eaa2 f997 cea3 f95e 96b3
00000060: 2e08 1a2b 3b66 3dab 17b7 99a5 39a3 ecaa
00000070: 2e0d 282c ae27 27a3 e2fc a124 96ce db2b
00000080: 3888 4435 5320 4634 bdfd a8a9 7a0c 38b1
00000090: afc3 bbb5 f80a e026 81b1 8da7 1a84 ab31
000000a0: bd01 c0b2 aab5 7133 5bd8 db29 fc2d 06b5
000000b0: f132 d7a8 123f abab ca08 c127 d81a 0a2d
000000c0: 14c2 c1a4 9028 bc2d 3a82 5623 5727 8127
000000d0: 7220 a62a 9ebe 302b 9196 34a5 fcd0 3526
000000e0: 4d52 36b0 a201 31ad 0add 0427 3320 54b3
000000f0: 8723 89ba 3b5a b4ac d74e 92ab 06c8 f3af
00000100: 3de0 562a 3373 cc2a d79c ab2c aa09 ba25
00000110: 3a1a e0a9 6a16 85b0 01a0 08ae 2133 d4ac
00000120: 94c8 a5ab 5afd db24 f2fb 3e2b c284 6b27
00000130: 45ee 44bf 19f5 aea7 f9d0 c425 2644 5bae
00000140: 8c0c 9faa 9fab 63ac 17fa 06b6 2a16 20a8
00000150: c3d2 8eab 6304 d8aa 39d5 f1b9 417f eaaa
00000160: 41dd 35a8 2be7 a9aa bd87 00b1 4fa0 1827
00000170: 9c66 8db1 0f59 26b5 f467 48b2 c6bb 2b26
00000180: 8b4f 26ac c6aa b625 e693 86aa 3c79 512c
00000190: 55b3 1927 7482 cdab 9213 32b1 d18e 5028
000001a0: 6ebb 83b6 018c ce2e 98a8 0ca5 a6b9 cd29
000001b0: dcd3 dcbb 19d0 6c3f 5e1c bb31 6c5a 8931
000001c0: fb7b 2a38 8aa8 0e29 177b d7a7 11e5 9e2b
000001d0: 76e2 fe30 723b b635 67c6 37a7 cb04 5e34
000001e0: d014 0d33 3543 1622 80a3 27b5 1b68 03a5
000001f0: 201f 7ea7 c937 83b6 289f 2b33 f070 332d
00000200: 821f 9f2b 935a 5431 4425 d230 01a9 9a25
00000210: 7f16 022e 0b36 b2a6 2901 3235 804e d7a5
00000220: 8731 5d2d 3ddd 242d f08f 0624 bf96 4e2b
00000230: 7a8c dd25 f971 3aac 7a5d caa6 3c9f 8631
00000240: 691b 5724 75f4 ab1f 6ae6 8bb0 254f 8ca7
00000250: ade6 f825 e708 4c24 4d44 35b3 c6eb 6d34
00000260: bc22 a62b 6863 3d23 2206 d9ac 76c9 21b1
00000270: b625 f62f 0888 2738 decb 2ba8 7b50 3b2f
00000280: f9bf 8f36 836a 4739 d952 8d31 c681 f6a7
00000290: 7367 cda8 548e 6334 812b 623e 81a8 e02d
000002a0: 6843 b1bd 4d42 6323 43a0 692a 5cce 51a7
000002b0: 692a 56b2 d586 f5a6 08e4 8faf 1037 75b1
000002c0: fbd7 2fb5 aa3a 29b8 0a5f a4ab 4ac9 a728
000002d0: 0989 98b7 83f4 09a7 d539 48af 6202 e32b
000002e0: 6c40 07ab 4456 09bd 3472 a327 cb6c dea5
000002f0: 0977 8dab 6756 89b5 d9c3 59aa 8bfb fa30
00000300: ec97 8323 93e4 df28 8145 4eae c3c3 9aaa
00000310: 2b92 ba3c c764 5aad 19b9 312e 399d b82c
00000320: 150f b9a2 87cf 01ac f2d7 ea23 10cd 952a
00000330: 208e 81af cd68 64ab 104b c2ab 9454 aaad
00000340: 8dfd bd26 2370 8423 722a 4339 d401 e333
00000350: 5dcb ac2d a9f2 8733 10d8 2cb6 116a 8037
00000360: 0346 5cbe 7842 dc30 afa5 9e31 638f c129
00000370: 7521 36b1 50a8 c5ae d6ef 8b2b 9539 3927
00000380: cc69 d022 5c0c 04ac cae5 ce36 04e4 c22f
00000390: 2803 0125 a402 adaf f8c2 caac e489 6eaa
000003a0: 4fbf ab21 1518 1c35 68e9 bd2b 99c3 202a
000003b0: b776 3eba cc99 d1a2 c767 2124 a888 282b
000003c0: 29d4 2b24 600c 0932 d8a9 9fab 3a94 97aa
000003d0: 21ec 0039 b244 222b 6e63 502b 99e3 c5b2
000003e0: 1c42 f12a 6a9a 1939 fa70 2c2f 1bc5 1531
000003f0: 7701 db30 9d5a 99ab a487 9d27 9d39 172d
