DeepSignalingFlow/Micha/analysis_nci/fold_5_pan/first_conv_down_weight.npy (npy, 74176 bytes, 1 tensors)

array f4 [18512]
000000 41 59 85 3a 53 9c 82 23 b0 29 a2 34 a9 24 99 b1
       0.0010173694 1.4160834e-17 3.0205183e-07 -4.457054e-09
000010 b3 52 85 28 e0 76 97 a2 08 a0 d1 2d eb d2 3c 2d
       1.4801831e-14 -4.1054496e-18 2.3831617e-11 1.0733396e-11
000020 4a d7 94 3e 4d ac 3d bd 26 f7 0e bf bd 8f 6d 3e
       0.29070503 -0.046306897 -0.5584587 0.23199363
000030 ea 24 d7 3e a4 22 7c bf fc b3 87 be 67 66 92 3e
       0.4202035 -0.9849036 -0.26504505 0.28593752
000040 b4 06 df bd d5 95 a1 bf a7 a8 63 be 06 6a bb bf
       -0.108899504 -1.262385 -0.22232305 -1.4641731
000050 4f 22 0d 3d 5a f8 20 bd 50 80 84 3f 41 e8 14 24
       0.034456547 -0.039299347 1.0351658 3.228911e-17
000060 b5 d8 ee ab 7a 7f 81 ae aa 09 48 33 0a 64 06 a6
       -1.6971065e-12 -5.888885e-11 4.6574918e-08 -4.662617e-16
000070 dc 8b 3f ae 68 62 3f 2f 77 88 fc 27 55 5d ac 35
       -4.3552592e-11 1.740631e-10 7.0092006e-15 1.2842162e-06
000080 8f 51 33 ad fe 20 f1 29 72 03 2c 32 48 d3 14 26
       -1.0193082e-11 1.0708273e-13 1.0012501e-08 5.1634154e-16
000090 c4 d2 1e 30 6c 5f c6 30 77 ad ec b7 68 3e 29 2d
       5.777958e-10 1.4433517e-09 -2.8214168e-05 9.620395e-12
0000a0 ce 05 e0 ae 66 1a 56 25 92 aa 04 31 48 dd 8a 2d
       -1.0187372e-10 1.8570485e-16 1.9305486e-09 1.5787052e-11
0000b0 4e 25 23 ac d5 d4 60 2c f4 cf 3c 3a e5 ac 1e ab
       -2.3184401e-12 3.195046e-12 0.0007202618 -5.6372815e-13
0000c0 44 56 36 ac ad d2 04 25 d3 18 05 22 7a e9 54 a7
       -2.5911643e-12 1.1520555e-16 1.8038003e-18 -2.9547478e-15
0000d0 68 03 61 30 17 3c a9 2d fe 0a ae b1 4d 80 de 2b
       8.1859364e-10 1.923976e-11 -5.065316e-09 1.5809659e-12
0000e0 4d 48 ff 39 14 74 ca aa 5e 41 89 b1 37 c2 52 27
       0.00048691258 -3.5962954e-13 -3.994656e-09 2.9248638e-15
0000f0 0d ee a8 31 7b b9 6d 28 b2 4d 46 2b 9c 67 9e a8
       4.9165068e-09 1.31963625e-14 7.0451555e-13 -1.7586457e-14
000100 28 b0 63 26 28 93 ae 27 3f d7 f7 30 ef 80 73 2b
       7.899518e-16 4.845425e-15 1.8032792e-09 8.6509874e-13
000110 7b ae 4f 2c 70 a4 87 25 a1 9f c9 a7 ac 83 6f ad
       2.9513325e-12 2.3530194e-16 -5.5961777e-15 -1.3614814e-11
000120 80 39 6e a4 5b 67 d3 bb 61 0f aa 30 7e ce 71 a7
       -5.1656728e-17 -0.00645153 1.2373499e-09 -3.3557408e-15
000130 83 f8 ef 2a 7b 15 8e 36 89 49 54 a9 1f 73 04 c0
       4.2627368e-13 4.2344304e-06 -4.7137238e-14 -2.0695264
000140 cb c1 da bd 13 f8 0e 27 c3 8f a7 bc 58 9e d2 b0
       -0.10681494 1.984094e-15 -0.020454293 -1.5324515e-09
000150 35 4d 4f a8 46 fa 96 aa 72 40 52 29 98 15 98 2c
       -1.150755e-14 -2.6819015e-13 4.6685264e-14 4.3224972e-12
000160 56 9d 01 b1 67 2d 02 ad 91 ef c5 aa 2a b8 69 a6
       -1.8861406e-09 -7.399726e-12 -3.5160462e-13 -8.1087703e-16
000170 8c ba 72 bd 06 6e 7e 24 b0 48 94 26 0f 29 8e a5
       -0.059259936 5.5170664e-17 1.0289265e-15 -2.4660896e-16
000180 e5 86 0b a6 67 e5 28 35 96 53 64 a9 59 ff e2 b2
       -4.840813e-16 6.29187e-07 -5.069867e-14 -2.6425981e-08
000190 46 4a 56 af f3 3e 88 ad e3 b6 94 a8 4a 0c ab 28
       -1.9489574e-10 -1.5489365e-11 -1.6510615e-14 1.8990143e-14
0001a0 41 ac e2 2c 1d bf 84 2f 59 f8 75 a7 46 83 bf 27
       6.4424304e-12 2.4146454e-10 -3.413521e-15 5.3155476e-15
0001b0 e8 c6 2b 30 d4 03 e9 2a 20 29 93 a8 42 ec a1 a6
       6.24921e-10 4.139177e-13 -1.6338114e-14 -1.1235657e-15
0001c0 da 2a 05 2d ae 7a 3a 36 94 cd 7c 2c 32 01 10 36
       7.56969e-12 2.7787569e-06 3.5925473e-12 2.1458368e-06
0001d0 f3 c8 a3 28 8d d4 f0 a5 48 2c 80 ae 8b c3 72 ba
       1.8183783e-14 -4.1777393e-16 -5.828632e-11 -0.00092607056
0001e0 1d 1e 8f b0 26 a3 b1 22 59 5f b4 31 7c 14 96 a4
       -1.0413178e-09 4.8148686e-18 5.2495293e-09 -6.508683e-17
0001f0 64 f5 8b 32 96 63 0d 2c 03 71 86 33 b7 cb 41 ab
       1.629332e-08 2.0092586e-12 6.260418e-08 -6.8850085e-13
000200 16 dc 99 a8 c5 b3 41 ad 84 d0 86 aa f7 e0 d1 ad
       -1.708186e-14 -1.1010697e-11 -2.3947868e-13 -2.3860454e-11
000210 a1 ad 94 ac 29 ee 73 22 b0 6d 5d 27 45 81 e3 24
       -4.2256897e-12 3.3058722e-18 3.0729373e-15 9.866455e-17
000220 b3 54 3f 27 4d db 8b 2f 43 45 48 a2 8a f3 45 25
       2.655249e-15 2.5439775e-10 -2.7141721e-18 1.716954e-16
000230 9d 2b 80 24 a7 42 d3 a7 b3 42 b0 ad 7e 00 eb a4
       5.5585035e-17 -5.863653e-15 -2.0038504e-11 -1.0191584e-16
000240 21 ae 95 23 b2 4a 56 23 38 1f 86 ae 29 51 60 25
       1.6228359e-17 1.1616781e-17 -6.09916e-11 1.9456401e-16
000250 41 0e 13 b5 00 07 12 b4 df f4 73 24 cf 92 95 2e
       -5.478251e-07 -1.3599856e-07 5.289964e-17 6.801814e-11
000260 df 35 8d 25 aa f6 e8 b1 c8 57 39 2c c5 07 28 a8
       2.4496105e-16 -6.780131e-09 2.633881e-12 -9.327558e-15
000270 6e 21 65 b1 70 ac 6c 26 76 02 85 aa 7b f4 bd b1
       -3.3342888e-09 8.2112644e-16 -2.3627254e-13 -5.528418e-09
000280 b5 8f 37 aa ce 09 04 ac 84 c0 40 2f e9 8a 1b b4
       -1.6303523e-13 -1.876377e-12 1.7530694e-10 -1.4486035e-07
000290 8b c6 03 29 2b 2d 5b bb 79 8e 8a bd dc 26 8d 3d
       2.9260052e-14 -0.003344367 -0.06765456 0.068921775
0002a0 13 41 45 be 7b ba 86 3c 07 7b 0c 3e ce 2f 01 3d
       -0.19263105 0.016446343 0.13718806 0.03153973
0002b0 4f 5e b3 bd 23 02 a5 bc 10 db 83 3e 2a b4 a4 bd
       -0.08758222 -0.02014262 0.2575307 -0.08042176
0002c0 e0 7b 0e 3e 30 82 b6 3e 05 e5 15 3f 4b ab 0f 3b
       0.13914442 0.356462 0.5855258 0.0021922167
0002d0 4f 6e 02 3d 4c 0e 2a bd 4e 9d 52 3d db aa 35 3e
       0.03184348 -0.04151754 0.05141955 0.17740957
0002e0 c5 74 d0 bd 2c 95 26 b2 77 a2 52 2b cb 39 75 a8
       -0.10178522 -9.6963895e-09 7.483245e-13 -1.3612764e-14
0002f0 40 38 d1 31 1b 93 f5 28 08 92 0b a5 a6 07 cf b0
       6.0890955e-09 2.7264261e-14 -1.2105805e-16 -1.5063406e-09
000300 9a 21 ab 37 c5 ee fb 29 e0 62 47 bf c9 27 d9 22
       2.0400435e-05 1.1188059e-13 -0.77885246 5.886009e-18
000310 0c 25 09 a5 09 bd 31 a3 7b 9a 90 a8 1e 4e 80 a3
       -1.1895408e-16 -9.635219e-18 -1.6054207e-14 -1.3910872e-17
000320 b0 9b 11 b3 77 f7 3c 39 57 aa e5 25 40 07 9e 2a
       -3.390204e-08 0.00018021265 3.9840594e-16 2.807147e-13
000330 67 05 92 a9 3b e0 03 a8 ea 75 16 ae 5a 02 56 b3
       -6.4846396e-14 -7.320583e-15 -3.421078e-11 -4.9827896e-08
000340 0e 6c fa a6 81 62 0c 32 12 58 c7 2d 54 bb 72 ae
       -1.7376523e-15 8.17147e-09 2.2662792e-11 -5.519081e-11
000350 60 13 0c 26 89 7b df 32 14 93 9f 29 27 f3 82 28
       4.8598515e-16 2.6016794e-08 7.0865324e-14 1.453835e-14
000360 6c cd 91 b1 0a f8 9b 26 9d 19 37 27 24 07 00 ab
       -4.243409e-09 1.0822517e-15 2.5410237e-15 -4.5484645e-13
000370 8e ee e1 28 cd 27 1a 36 22 8f cd 33 eb 44 3c aa
       2.5083475e-14 2.2970955e-06 9.572092e-08 -1.6721665e-13
000380 87 f8 2a 32 eb 44 0d 40 08 e1 aa be dd 67 cd 3e
       9.951811e-09 2.2073314 -0.3337481 0.40118304
000390 e3 37 00 be 99 22 3a 3f f3 b4 3a bf c5 63 3f bf
       -0.12521319 0.7270904 -0.72932357 -0.7476161
0003a0 0e b4 f6 3e 60 87 34 40 6e 0b 0d 40 8a bd 9a bf
       0.48184246 2.8207626 2.2038226 -1.2089093
0003b0 30 ae 59 3f 29 fa 72 3f ba 9e 6b 3f 52 0b 26 bf
       0.85031414 0.94912964 0.9203907 -0.64861023
0003c0 88 b9 36 be 7e 82 df bf 0e 45 02 3f cf 6f 66 3f
       -0.17844212 -1.7461698 0.5088662 0.90014356
0003d0 4e 72 08 40 3b 58 f2 3f f0 d5 0b bf 8e b1 28 40
       2.1319766 1.8933176 -0.5462332 2.635837
0003e0 8a 7e 5d c0 87 e8 ba 3f f1 89 1f be 18 d6 8e 3f
       -3.4608483 1.4602212 -0.15579964 1.1159086
0003f0 ec 22 59 3f 7e 10 40 c0 aa 2b 6a bf e1 39 04 bf
       0.8481891 -3.0010066 -0.91472876 -0.51650816
