DeepSignalingFlow/Micha/analysis_nci/fold_1_pan/last_conv_up_weight.npy (npy, 74176 bytes, 1 tensors)

array f4 [18512]
-2.911793e-12 1.1449329e-10 -1.9695358e-15 -8.897092e-06 3.3018341e-09 1.1935144e-15 3.5194227e-13 -3.607041e-08
1.8654555e-16 -3.090776e-15 -2.487095e-15 3.6195263e-12 -1.7517903e-05 0.16389817 4.5254525e-16 5.986138e-15
6.462467e-05 -7.423454e-14 6.782826e-12 8.517075e-09 9.289571e-16 1.8568095e-15 5.2109796e-11 -1.4878808e-12
-6.897526e-17 -5.215094e-15 2.218912e-14 1.8474298e-16 -1.7114646e-08 4.154883e-08 -1.3293098e-13 -1.1847518e-15
8.773194e-15 -0.00049846934 1.8297997e-14 -0.06417868 -1.3397479e-09 -3.870899e-12 2.9156216e-14 -0.0006426
7.756012e-10 -4.9991306e-17 4.0959772e-14 -3.703459e-09 -0.0036370312 2.5221752e-12 4.9343156e-14 1.7546119e-12
-6.800004e-14 -5.8057205e-16 8.9337876e-10 1.1484807e-16 4.3648866e-11 -2.0780218e-08 -1.0453427e-05 3.8770725e-07
1.8539848e-11 -1.256077e-19 1.9193931e-10 -1.1009079e-09 -1.0009187e-09 -3.124407e-11 1.7179273e-08 1.4797365e-13
-2.1338079e-07 -8.2921143e-13 1.6339056e-15 -2.505894e-13 1.7811924e-11 3.7928956e-13 1.3049778e-06 4.6500442e-12
2.9458747e-12 -3.0744488e-13 -6.6134164e-12 -4.1790407e-09 4.490836e-13 1.0884344e-16 -6.586919e-13 -1.6003266e-14
3.1257997e-08 -6.092265e-07 -1.4066179e-14 -3.2582693e-07 -8.6344414e-17 -9.734333e-15 5.7937488e-11 5.145315e-15
-4.6384034e-09 -7.997075e-14 4.760534e-14 -6.926723e-14 -2.836811e-05 2.6382242e-17 2.318756e-12 -3.874929e-15
-0.015568716 2.45419e-09 5.986039e-13 4.9967138e-14 -1.2511561e-17 -3.9419626e-10 -2.5817846e-05 6.842627e-13
-2.838206e-15 -7.761872e-09 4.1100385e-09 -3.979986e-13 1.3078742e-13 -2.1478807e-11 -7.520705e-15 6.766935e-08
1.2658254e-16 3.4370418e-13 6.7058646e-15 1.191117e-14 -4.988114e-07 -1.5317311e-13 2.045934e-13 1.797591e-12
1.4649275e-07 -1.3241721e-15 -3.8066807e-16 1.8339026e-14 2.4166058e-09 -1.5994101e-07 -3.2142722e-14 5.1914245e-10
-6.6403274e-08 -1.7875355e-14 -3.1154895e-14 -2.8739098e-18 6.8392896e-05 -1.987816e-16 -8.459996e-06 0.8242903
-1.4329319e-15 1.3443378e-12 -4.5756317e-14 7.599915e-09 -1.4063133e-05 2.4633876e-13 -1.8797675e-15 1.0554303e-08
0.3411527 -1.2916549e-09 -3.5128462e-13 -1.6191226e-10 -7.6225176e-10 1.4475052e-11 -8.873311e-12 3.3162407e-18
1.3861845e-15 -1.0392284e-16 -3.8628866e-13 1.378729e-09 3.4202147e-14 6.5887135e-14 -3.486292e-14 1.7092178e-14
-3.5237213e-07 -5.434097e-15 1.4775603e-11 6.9419324e-09 2.3265305e-09 -3.5246464e-15 -1.4126627e-09 -1.0630517e-17
4.790209e-16 1.2722544e-11 -2.9543932e-07 -8.0071706e-11 6.9875528e-06 8.838317e-13 -1.6180107e-13 1.3148146e-16
2.4504287e-14 3.2203784e-12 1.3667092e-15 -8.467198e-18 -1.8643672e-16 -7.0940894e-16 1.236872e-11 -3.1476213e-12
-2.6344023e-07 8.027512e-18 1.1686748e-13 3.2918769e-13 0.0032127765 -1.2075533 -8.832709e-17 6.659759e-05
-4.189773e-11 2.6991331e-18 0.5428734 2.6212494e-11 -2.584564e-11 6.5010575e-12 1.1792107e-17 -4.4140754e-12
1.2872177e-05 -3.015184e-14 -6.988728e-14 1.1779159e-17 1.4199394e-10 2.875404e-17 -2.6124667e-17 -6.87628e-17
4.8066378e-09 -1.7467491e-09 3.9297897e-14 -2.129708e-12 3.670979e-11 -9.450745e-17 -1.1107911e-15 -1.2838956e-10
5.7454833e-13 -6.5601555e-13 4.9518087e-07 -6.8882326e-07 4.448741e-12 9.697228e-17 -7.511259e-08 -4.7261977e-09
-2.4519366e-07 1.997407e-15 -1.5961216e-13 8.7776924e-18 -5.185435e-07 9.313414e-16 6.8815725e-16 3.1432726e-16
-2.7628037e-06 -1.4716179e-05 -4.8388495e-14 4.038343e-12 -1.1844938e-09 5.7764887e-12 -1.2334492e-13 -2.0426107e-12
1.0555743e-14 1.25638e-14 5.9726724e-11 3.3516104e-16 1.1401779e-14 -5.2274754e-14 2.977224e-18 -4.919269e-16
2.2384922e-12 3.5215872e-11 -2.325754e-10 -3.4570396e-12 -5.83809e-06 -1.148764e-14 -1.0590667e-12 9.474867e-13
00000000: 33e6 4cac fec5 fb2e 86eb 0da7 b844 15b7
00000010: 7be6 6231 e900 ac26 3a20 c62a d6eb 1ab3
00000020: 8712 5725 c1b6 5ea7 ce36 33a7 97b3 7e2c
00000030: 69f3 92b7 ecd4 273e f26f 0226 61ac d727
00000040: 1b87 8738 4c29 a7a9 44a6 ee2c 7e52 1232
00000050: 78e0 8526 17cc 0527 6a2e 652e 8e66 d1ab
00000060: cf0b 9fa4 c1e4 bba7 a1dc c728 81fe 5425
00000070: 8103 93b2 6c73 3233 bfaa 15aa a0bd aaa6
00000080: 370b 1e28 b6ab 02ba 4fd0 a428 1d70 83bd
00000090: 3022 b8b0 f531 88ac d44e 0329 2874 28ba
000000a0: 1532 5530 518b 66a4 6777 3829 f17f 7eb1
000000b0: 425b 6ebb 787b 312c c938 5e29 8ef0 f62b
000000c0: 5b1f 99a9 a856 27a6 f191 7530 2b69 0425
000000d0: 41f8 3f2e 2f80 b2b2 2161 2fb7 1426 d034
000000e0: 0714 a32d 994a 14a0 1d0a 532f c14e 97b0
000000f0: b290 89b0 b269 09ae 9f91 9332 809a 262a
00000100: aa1d 65b4 fb66 69ab 7a78 eb26 bd11 8daa
00000110: e3ac 9c2d 6385 d52a b226 af35 e09b a32c
00000120: 294c 4f2c 7a13 adaa 5cb0 e8ac 3b97 8fb1
00000130: c4cf fc2a d4f9 fa24 c167 39ab 0525 90a8
00000140: 8840 0633 ba89 23b5 cd64 7da8 50ed aeb4
00000150: bf18 c7a4 b05b 2fa8 d0cf 7e2e 2861 b927
00000160: d45f 9fb1 0014 b4a9 3865 5629 d7f9 9ba9
00000170: 0df8 edb7 4f55 f323 ff2a 232c e99b 8ba7
00000180: ee13 7fbc 91a6 2831 f57d 282b 3008 6129
00000190: 2dcc 66a3 31b6 d8af 6793 d8b7 539a 402b
000001a0: a983 4ca7 1359 05b2 4838 8d31 a50d e0aa
000001b0: e840 132a f9ed bcad 217b 07a8 9e51 9133
000001c0: 92f0 1125 fe7c c12a af9a f127 9392 5628
000001d0: 0fe6 05b5 2575 2caa 085a 662a 0bfd fc2b
000001e0: 9f4b 1d34 54d5 bea6 b170 dba5 ea2e a528
000001f0: 6111 2631 40bc 2bb4 09c2 10a9 67b3 0e30
00000200: 9699 8eb3 c301 a1a8 264f 0ca9 9f0e 54a2
00000210: 286e 8f38 f92d 65a5 68ef 0db7 b004 533f
00000220: db81 cea6 e032 bd2b 7111 4ea9 c890 0232
00000230: b2f0 6bb7 28ad 8a2a 9773 07a7 5152 3532
00000240: 91ab ae3e 1186 b1b0 73c1 c5aa 4006 32af
00000250: b386 51b0 d7a5 7e2d d719 1cad 04b2 7422
00000260: 2ec5 c726 38a1 efa4 1076 d9aa b77d bd30
00000270: 6408 1a29 595d 9429 3602 1da9 e1f3 9928
00000280: a82d bdb4 b3c8 c3a7 b3f7 812d e285 ee31
00000290: c2e0 1f31 40fa 7da7 a627 c2b0 3219 44a3
000002a0: 8111 0a26 3fd1 5f2d df9c 9eb4 5d14 b0ae
000002b0: 9f76 ea36 c9c6 782b fc2b 36aa 7a96 1725
000002c0: 0ab7 dc28 2e9d 622c abf6 c426 3631 1ca3
000002d0: 68f2 56a5 2479 4ca6 c397 592d 817e 5dac
000002e0: f36e 8db4 db14 1423 c294 032a f250 b92a
000002f0: 728d 523b 1b91 9abf 1cab cba4 4faa 8b38
00000300: a644 38ae 2f29 4722 c0f9 0a3f 4a91 e62d
00000310: 3557 e3ad 52bc e42c a786 5923 754e 9bac
00000320: 94f5 5737 b4ca 07a9 465f 9da9 8149 5923
00000330: be1f 1c2f c79a 0424 20f5 f0a3 658e 9ea4
00000340: a227 a531 4512 f0b0 64fb 3029 69dd 15ac
00000350: 8d73 212e 5aeb d9a4 f514 a0a6 732a 0daf
00000360: 92b8 212b e7a6 38ab 92ec 0435 93e7 38b5
00000370: b286 9c2c 559a df24 954d a1b3 1364 a2b1
00000380: 29a3 83b4 a8ed 0f27 13b5 33aa 7beb 2123
00000390: 0a32 0bb5 6f38 8626 0b59 4626 8432 b525
000003a0: 9b68 39b6 82e5 76b7 23ec 59a9 2916 8e2c
000003b0: accb a2b0 fc3d cb2c c1df 0aaa 67bc 0fac
000003c0: c627 3e28 4d54 6228 2857 832e 0a35 c125
000003d0: 6d65 4d28 b06c 6ba9 2cae 5b22 ccc9 0da6
000003e0: 1785 1d2c 8ce1 1a2e 28b8 7faf 7d44 73ac
000003f0: d0e4 c3b6 64f1 4ea8 e60c 95ab ce58 852b
