DeepSignalingFlow/analysis_nci/fold_1_pan/block_conv_down_weight.npy (npy, 74176 bytes, 1 tensors)

array f4 [18512]
000000 fd 39 ba a2 f4 24 a9 a5 b3 7f 89 39 0d 9d 89 24
       -5.04768e-18 -2.9341867e-16 0.0002622582 5.9680333e-17
000010 83 11 42 2a a2 7e 87 aa f6 a4 79 a8 5b 4e f1 b2
       1.7236737e-13 -2.4068686e-13 -1.3858047e-14 -2.8091725e-08
000020 78 45 b4 aa 15 a5 94 25 d3 18 d2 3d 6e 61 37 ac
       -3.2022627e-13 2.5785771e-16 0.10258641 -2.6059948e-12
000030 b8 31 2f a5 e6 e8 a7 a3 c8 50 82 ae 2e 7a cd ae
       -1.5195676e-16 -1.8204813e-17 -5.926065e-11 -9.344024e-11
000040 20 d7 a2 33 5b 52 7c a8 1e a6 6e 3b 53 e9 95 a2
       7.582844e-08 -1.4006668e-14 0.0036414932 -4.0633573e-18
000050 82 00 44 b3 bc c4 35 ae 3e ec 29 2c 4f be b3 bd
       -4.5635268e-08 -4.132937e-11 2.4147485e-12 -0.08776533
000060 26 2d d9 a9 cc c7 29 33 59 cf 58 a6 be ab 93 a5
       -9.644568e-14 3.9530093e-08 -7.522106e-16 -2.5616812e-16
000070 22 37 86 aa be 93 6f 29 3e 55 34 a9 0b 2a d7 a5
       -2.3841438e-13 5.3196806e-14 -4.0041965e-14 -3.7325044e-16
000080 2e 5d bb 22 98 71 a4 ad dc 33 37 2c 7a 12 26 ab
       5.078511e-18 -1.8695087e-11 2.6034652e-12 -5.900069e-13
000090 f9 9c 29 2e 89 97 ee 2e 2d 3d 8a a5 db 29 20 b0
       3.856557e-11 1.0849905e-10 -2.3980638e-16 -5.826714e-10
0000a0 e5 c6 23 2a d3 c1 99 38 5b 77 97 33 a7 7a 1f a7
       1.4546314e-13 7.331711e-05 7.053196e-08 -2.2132173e-15
0000b0 94 39 46 a4 0e d1 da ad 85 3d aa 3a 3d 12 9f b7
       -4.2983177e-17 -2.487657e-11 0.0012988305 -1.896277e-05
0000c0 ac cd d6 af 33 a5 89 bb e4 48 07 2b d4 71 92 27
       -3.9072512e-10 -0.0042006015 4.806279e-13 4.0646553e-15
0000d0 10 60 95 23 9d 69 db 22 db bb e3 a2 ec f4 d0 ad
       1.6195296e-17 5.947189e-18 -6.1727373e-18 -2.375563e-11
0000e0 f8 0e 36 ad 8c ff 82 b3 79 2f 0a 32 9a 0d 60 2c
       -1.0348826e-11 -6.1000804e-08 8.043451e-09 3.1839865e-12
0000f0 1f c3 0f 2a 46 3a 12 24 f9 a9 72 ba 26 42 2c a4
       1.2768648e-13 3.1708063e-17 -0.0009256895 -3.7352585e-17
000100 91 6f 5a b8 9e 1c 73 23 45 56 2d a9 f5 95 5c 2b
       -5.2079155e-05 1.3179116e-17 -3.8488544e-14 7.836781e-13
000110 5c 2a 03 35 88 86 c1 2b 58 e8 9e a6 39 a0 ab ae
       4.8862944e-07 1.3750815e-12 -1.1026429e-15 -7.804641e-11
000120 6d 81 95 2c 8c 71 7b 30 82 3f 4d 25 9c cc a6 2a
       4.249204e-12 9.147463e-10 1.7802433e-16 2.96295e-13
000130 60 cc b2 ae 42 43 0f 2c 43 5d 4b be f5 5c 00 29
       -8.130807e-11 2.0358858e-12 -0.19859795 2.8502337e-14
000140 f1 76 42 2f 5e fe d3 2b 8e f5 12 ab 3b 72 18 39
       1.7686454e-10 1.5063053e-12 -5.2210395e-13 0.00014538404
000150 26 20 6a 27 53 09 9f bc d8 53 34 ac 5c 40 e3 39
       3.2491451e-15 -0.019413626 -2.5626081e-12 0.00043344765
000160 d2 d1 79 ad 7c 3e 8a aa c5 6a 55 ac 55 f9 6b 29
       -1.4200601e-11 -2.4557082e-13 -3.032839e-12 5.2396743e-14
000170 db 67 20 a4 81 69 ed ab 41 55 f8 b5 2a f6 b8 aa
       -3.478244e-17 -1.6869146e-12 -1.8502252e-06 -3.2855776e-13
000180 4b cd 67 a7 04 a1 ce 31 7d 0c 76 24 d1 cf bf b7
       -3.216898e-15 6.0136944e-09 5.3353325e-17 -2.2865746e-05
000190 a3 6f 04 2e 0e 93 ee a9 6b 5e e0 a5 84 15 19 aa
       3.011248e-11 -1.0594833e-13 -3.8921786e-16 -1.3596595e-13
0001a0 ba 5d 22 2b f0 2e 35 b0 88 38 dd 2b 64 c3 81 37
       5.7684033e-13 -6.591412e-10 1.5718685e-12 1.5468984e-05
0001b0 a3 89 3a a9 90 a9 8a ae cb a5 b8 ab 5b 57 24 32
       -4.1419677e-14 -6.305634e-11 -1.3120003e-12 9.565919e-09
0001c0 1c ee 92 a8 e5 5f 02 2b 5e d6 75 b7 31 b1 cb 2d
       -1.631252e-14 4.631836e-13 -1.4653049e-05 2.3157117e-11
0001d0 cb b3 0b 29 c4 e5 00 ad 24 78 4a a4 45 3c ba 3a
       3.1020146e-14 -7.326976e-12 -4.390353e-17 0.0014208636
0001e0 33 e3 67 aa 54 ba 7d ac 2f 3e 4c 25 e6 00 75 ad
       -2.0595747e-13 -3.6056895e-12 1.7715248e-16 -1.3926837e-11
0001f0 ff 26 a7 af 80 bc e4 ab 94 90 83 a6 4f 2f 51 ab
       -3.0404831e-10 -1.6252694e-12 -9.129139e-16 -7.431737e-13
000200 d2 37 0b 36 d5 2b 89 23 59 e2 22 3a c2 f3 f2 35
       2.0745106e-06 1.4872133e-17 0.0006213538 1.8101348e-06
000210 40 d5 97 2c 50 36 94 ab 53 fa 9c 28 9a 2c e1 2d
       4.3153536e-12 -1.0531107e-12 1.742804e-14 2.5599346e-11
000220 42 ec 02 2b ae 31 80 a9 64 5a 2f 32 7f 91 01 26
       4.651315e-13 -5.69296e-14 1.0206893e-08 4.495305e-16
000230 b3 f5 ed b0 ff 09 69 37 f5 29 8e a8 99 a0 9e 2e
       -1.7313851e-09 1.389021e-05 -1.5783363e-14 7.213536e-11
000240 b0 2a 75 2a 33 48 13 b1 a4 4e 70 a5 59 81 53 2a
       2.1775181e-13 -2.1432356e-09 -2.0843326e-16 1.8785441e-13
000250 1d 72 15 31 6c 66 bd b1 25 a1 ea ad d7 bf c5 3b
       2.174722e-09 -5.512268e-09 -2.6674283e-11 0.006034832
000260 d4 59 38 3a 03 a3 04 b2 c0 69 b8 2d de 04 0a 2b
       0.00070324284 -7.720476e-09 2.096534e-11 4.9034203e-13
000270 f4 fb ad a3 8d 68 14 24 9b 92 7b 2d 5f 29 24 29
       -1.8863404e-17 3.2180942e-17 1.4300251e-11 3.64512e-14
000280 ab 63 08 2f f0 d1 6a b0 a8 59 d3 24 18 57 26 25
       1.2404537e-10 -8.5427043e-10 9.165855e-17 1.4427713e-16
000290 4a ff 24 a4 07 0d 7c 27 0c cb 5e af 38 47 34 aa
       -3.577807e-17 3.4979087e-15 -2.0262919e-10 -1.601192e-13
0002a0 9b a8 6a 35 6f f2 f1 29 07 8e 84 37 bc 44 81 ab
       8.7417146e-07 1.07446055e-13 1.5801763e-05 -9.185079e-13
0002b0 f9 9e 58 a7 c5 d7 17 b1 99 b8 35 31 58 a7 7a 39
       -3.00622e-15 -2.2096043e-09 2.6443898e-09 0.00023904198
0002c0 a5 0e 1d 3f 60 fa 3a b0 e0 1e b3 b4 3d 82 97 b1
       0.6135047 -6.802221e-10 -3.3363813e-07 -4.4094848e-09
0002d0 ef cf 95 31 b0 21 5d aa 8e 73 44 26 85 b5 d5 ba
       4.36011e-09 -1.9640431e-13 6.8157766e-16 -0.0016304707
0002e0 3c 20 a9 2b a9 0c 2a 2d ff 8a 84 26 3b 7f 8f aa
       1.2017119e-12 9.666192e-12 9.197015e-16 -2.5490187e-13
0002f0 e7 31 a2 3d 20 4a e1 aa 4b d3 05 be 86 62 52 25
       0.07919674 -4.0019463e-13 -0.13068883 1.8247978e-16
000300 ba 12 04 af 46 fb b0 2a 7d eb 23 ad 19 ec 8c 29
       -1.2011983e-10 3.1438236e-13 -9.317766e-12 6.2582054e-14
000310 bb 87 fb 25 92 8e a0 37 6c 9b a6 3b 98 1f 8c b0
       4.3633534e-16 1.9139876e-05 0.0050844457 -1.019532e-09
000320 ca 21 8a 26 89 1b d1 27 6c b9 13 a3 38 e0 a5 a5
       9.584832e-16 5.8039007e-15 -8.0081506e-18 -2.8774874e-16
000330 b0 43 2e b0 fb f1 78 b7 e2 4e 55 a6 63 38 e1 a6
       -6.339702e-10 -1.4838292e-05 -7.4006126e-16 -1.5627795e-15
000340 1d 72 7b a5 b0 54 c4 b1 b2 c9 e1 ac 40 8c c6 a9
       -2.1809443e-16 -5.7139786e-09 -6.4172773e-12 -8.817296e-14
000350 a6 d3 17 27 a2 06 47 2a a4 19 a7 b7 f8 b4 59 28
       2.1070194e-15 1.7677052e-13 -1.9919891e-05 1.2085161e-14
000360 03 3c c7 27 19 be 8d 34 a3 1d 16 2b a6 41 a0 aa
       5.529866e-15 2.640161e-07 5.3331834e-13 -2.8467262e-13
000370 2d ce d8 28 62 9d 4a 2c 37 a2 22 2e a2 5d a5 3a
       2.4070232e-14 2.8793292e-12 3.697861e-11 0.0012616406
000380 0b 73 9e 28 69 07 5b a4 0d ef a6 23 d2 cd ad 33
       1.7591416e-14 -4.7494332e-17 1.8098998e-17 8.093379e-08
000390 ea ea f4 a5 1b f6 00 ac 66 b4 0f 29 d7 41 fe 25
       -4.2486437e-16 -1.832651e-12 3.190885e-14 4.410659e-16
0003a0 c7 b6 dd 2d 45 e9 a7 a5 c4 a7 b9 2b 8a da e3 a4
       2.520596e-11 -2.9127952e-16 1.3191605e-12 -9.881578e-17
0003b0 3d de 86 28 ad 67 3f a9 c6 44 a9 b4 7a 8c f4 28
       1.4973369e-14 -4.2500444e-14 -3.1528742e-07 2.7150364e-14
0003c0 b1 62 33 2b 1c 7f 22 b1 a4 fa 62 b4 16 6c f2 21
       6.3730537e-13 -2.3646356e-09 -2.1139073e-07 1.6427168e-18
0003d0 e5 a0 ee bd d0 2f f7 2e a5 e1 6a 3e f5 4b 88 a5
       -0.11651782 1.1240753e-10 0.22937639 -2.364371e-16
0003e0 ad 3d 9e 39 31 c7 51 31 60 b9 1c 33 27 6a b4 a7
       0.0003018206 3.052673e-09 3.6490178e-08 -5.0075127e-15
0003f0 42 a7 ce 2d c0 2e f9 27 dd 3a 7e 29 c4 45 4e 2a
       2.3493766e-11 6.916207e-15 5.6450385e-14 1.832068e-13
