DeepSignalingFlow/analysis_nci/fold_1_pan/block_conv_up_weight.npy (npy, 74176 bytes, 1 tensors)

array f4 [18512]
-3.1288333e-16 4.151328e-15 8.608886e-12 3.4899534e-17 -1.0210397e-15 3.2187956e-05 0.0023745683 4.327586e-10
3.5524793e-06 2.6246522e-10 -1.6842638e-07 2.2665508e-16 -1.4734423e-16 -7.4458355e-15 1.5517959e-16 -1.1202966
-9.732607e-18 -1.4668311e-17 -1.4929535e-15 4.6409372e-14 -0.31739902 -1.6365274e-15 3.2296404e-14 4.5625105e-17
2.4768221e-17 3.5318322e-13 -2.1640419e-10 2.5794525e-13 4.0420174e-13 -1.0678742e-14 -1.2328423e-14 -8.0209034e-08
8.6160346e-10 -0.016751206 1.9945026e-15 1.2004266e-13 -8.663604e-15 1.5566984e-15 2.788704e-12 1.6325902e-17
-5.724401e-08 1.4648722e-17 6.959974e-14 -2.817025e-16 -2.65347e-16 -0.3512663 3.0547247e-12 3.2890805e-11
-1.3476074e-11 -5.0946014e-06 -9.721809e-15 9.511038e-18 -1.33417925e-05 1.6965334e-11 6.838789e-09 -7.512258e-12
8.579669e-14 2.0632089e-10 0.0023052013 3.5798493e-11 -1.4362462e-09 4.2819146e-16 2.2577087e-08 4.297097e-14
2.0467345e-13 -1.0458714e-12 -2.509999e-18 -9.451808e-12 -2.8364336e-16 3.8026454e-16 -0.0685318 -0.467473
-2.2801144e-15 3.6869067e-13 1.4313405e-15 -8.006847e-14 -3.3686903e-10 -2.1150978e-15 2.173737e-09 1.0174039e-05
-0.00010876583 -2.254408e-14 4.620636e-11 -1.0247806e-10 -2.7517837e-07 -2.683646e-12 -3.5271464e-17 4.0230002e-16
1.5715591e-10 2.244982e-16 1.3068244e-10 4.8303608e-11 -1.4966205e-16 3.9632592e-17 2.8404086e-13 3.2365532e-09
-1.7444508e-10 -8.733287e-18 -3.2186837e-13 1.4454197e-14 1.5821643e-12 -9.887175e-14 2.9600202e-16 -8.93156e-15
-0.00800901 -8.4437725e-06 0.00018642325 -4.8427885e-15 -3.603918e-16 1.9188894e-17 -1.3134934e-12 -1.5622704e-14
1.9534352e-14 -3.611157e-05 7.295703e-18 -2.2063506e-12 2.5441163e-14 1.1270464e-16 1.429662e-05 1.4690726e-16
-5.9767365e-11 -9.7545e-09 6.2606453e-10 1.2860468e-15 2.3282316e-10 1.088805e-14 -1.0299854e-15 1.2482916e-17
-3.137898e-11 -4.049063e-08 -0.0023805795 -3.4436433e-14 -4.166446e-11 1.9151668e-16 -1.0467721e-13 -8.0827965e-16
3.6006711e-16 3.8477382e-16 -8.7306265e-12 1.0234611 -1.1369725e-10 -3.3825136e-15 4.379556e-13 2.5623273e-17
1.2391432e-17 -7.327633e-13 4.9189704e-14 -5.8005692e-12 -8.118963e-12 2.8773516e-14 1.2406744e-14 -2.1370478e-15
7.0389486e-16 6.9850823e-09 -2.457787e-08 -2.0261558e-08 -3.5545052e-06 -2.6966212e-14 -1.1329611e-12 -2.5330533e-09
-2.7853855e-09 -1.3210283e-11 -5.6119734e-16 7.49179e-15 5.921252e-10 7.007326e-16 -4.5409175e-17 1.6180195e-08
1.1755427e-15 5.384216e-18 1.3410144e-09 2.162097e-11 -1.6355235e-08 2.264074e-08 4.4549413e-11 1.5669027e-10
-0.0064169015 1.7098086e-17 -8.0177e-14 2.5313754e-16 -6.452349e-17 -6.2254763e-12 -8.756709e-07 7.040041e-12
4.2819546e-16 -7.799447e-13 -4.3122638e-16 -1.7400057e-11 1.8893792e-06 2.8922424e-14 2.2977006e-10 -3.9525356e-14
0.0011722302 1.1418045e-10 1.744585e-16 5.3058886e-13 1.9777705e-15 -2.7174992e-06 -2.6342856e-19 4.3925535e-16
-6.158517e-14 7.9495363e-14 4.0234565e-17 -6.3605636e-17 -1.1568785e-16 1.2232695e-07 3.2067442e-13 -3.4730944e-11
-5.669202e-16 -1.2777949e-12 -5.1878953e-08 -1.4707288e-13 -2.524131e-12 -7.070227e-08 -2.096072e-06 2.163496e-11
-7.6626075e-12 1.2239766e-15 4.5528717e-10 -4.7138048e-14 -1.1148238e-15 -4.5856152e-11 2.3055117e-12 3.1080552e-10
5.8478014e-07 -3.5390502e-10 -2.0808903e-14 -2.2834059e-12 2.0014892e-09 5.2233007e-10 0.01025463 -0.004304975
-9.536389e-13 -6.118262e-14 6.8189213e-19 -1.2376306e-09 -1.1566992e-16 2.6473758e-06 1.3633248e-14 -8.793866e-18
2.6980173e-18 -2.39092e-07 4.8635255e-15 -2.499876e-15 -3.3198607e-11 -7.089772e-14 1.048704e-15 -2.4023711e-14
-2.2991223e-13 5.218532e-14 7.598457e-09 3.9153014e-11 4.2897483e-08 -0.01631493 0.7960303 -0.42474005
00000000: 6e5d b4a5 3e91 9527 fa72 172d 19f2 2024
00000010: b725 93a6 8e01 0738 a59e 1b3b 5ce9 ed2f
00000020: 2167 6e36 b24a 902f b1d8 34b4 63a8 8225
00000030: 57e0 29a5 db21 06a8 eee8 3225 e165 8fbf
00000040: f088 33a3 924a 87a3 4328 d7a6 5d02 5129
00000050: 2082 a2be 34d9 eba6 3873 1129 9e68 5224
00000060: 4f72 e423 11d3 c62a 5df0 6daf d435 912a
00000070: 9c8b e32a 015f 40a8 d116 5ea8 623f acb3
00000080: f4d5 6c30 d339 89bc 14b8 0f27 f127 072a
00000090: d211 1ca8 0958 e026 d33c 442c 7294 9623
000000a0: 74dc 75b3 511c 8723 85b9 9c29 f463 a2a5
000000b0: 4ef6 98a5 2dd9 b3be 07f5 562c c1a7 102e
000000c0: d812 6dad 4bf2 aab6 ee21 2fa8 9b72 2f23
000000d0: 90d6 5fb7 893a 952d a0fa ea31 3428 04ad
000000e0: 6d32 c129 2bda 622f dc12 173b 8571 1d2e
000000f0: 6c65 c5b0 e8d5 f625 8aef c132 2886 4129
00000100: 1b71 662a 7d31 93ab 8a34 39a2 2947 26ad
00000110: 5f82 a3a5 2435 db25 665a 8cbd 9f58 efbe
00000120: b04c 24a7 ed8d cf2a 2547 ce26 554c b4a9
00000130: 1a32 b9af ab68 18a7 c960 1531 2ab1 2a37
00000140: 3619 e4b8 1c0f cba8 bd37 4b2e 055a e1ae
00000150: 3abc 93b4 45d8 3cac 32a9 22a4 01e9 e725
00000160: 75cb 2c2f 166a 8125 d6af 0f2f 0771 542e
00000170: 718c 2ca5 e8c5 3624 9ae6 9f2a 0c6a 5e31
00000180: edcd 3faf c819 21a3 1f32 b5aa 1c31 8228
00000190: 7aab de2b afa3 dea9 30a2 aa25 8de5 20a8
000001a0: 3938 03bc baa9 0db7 9c7a 4339 d77a aea7
000001b0: 71c0 cfa5 7ffc b023 96db b8ab 81b7 8ca8
000001c0: 26f3 af28 8176 17b8 fc94 0623 1442 1bac
000001d0: 5427 e528 8af0 0125 84db 6f37 5f5f 2925
000001e0: 096e 83ae bf94 27b2 6017 2c30 c156 b926
000001f0: e5fd 7f2f 4524 4428 c16f 94a6 e744 6623
00000200: 9701 0aae ebe7 2db3 7f03 1cbb 8116 1ba9
00000210: 033e 37ae bfcd 5c25 4eb6 eba9 83f8 68a6
00000220: 8790 cf25 98ce dd25 3f97 19ad c600 833f
00000230: dd05 faae 5dbc 73a7 0e8c f62a 3e55 ec23
00000240: e294 6423 2941 4eab de87 5d29 e216 ccac
00000250: 8fd4 0ead 9b95 0129 0280 5f28 93fd 19a7
00000260: 46e2 4a26 6f01 f031 4f1f d3b2 a30b aeb2
00000270: ef89 6eb6 dae3 f2a8 3a73 9fab f211 2eb1
00000280: 0569 3fb1 d365 68ad 0ec1 21a6 c8f5 0628
00000290: 1bc3 2230 f1f8 4926 b169 51a4 a0fc 8a32
000002a0: df69 a926 7ba4 c622 c04e b830 192e be2d
000002b0: 8b7d 8cb2 847b c232 2eee 432e 6448 2c2f
000002c0: df44 d2bb b7b3 9d23 e58a b4a9 82ec 9125
000002d0: f2c7 94a4 1b0a dbac a50f 6bb5 0db3 f72c
000002e0: 7fd6 f625 f088 5bab c895 f8a5 720d 99ad
000002f0: 9396 fd35 4941 0229 86a2 7c2f a201 32a9
00000300: 85a5 993a e115 fb2e 1023 4925 f558 152b
00000310: 6d83 0e27 485e 36b6 3380 9ba0 a636 fd25
00000320: 6fad 8aa9 f501 b329 978c 3924 24aa 92a4
00000330: 0761 05a5 fa58 0334 0e86 b42a 91bf 18ae
00000340: 5467 23a6 6ad5 b3ab 83d1 5eb3 df96 25aa
00000350: b49e 31ac fcd4 97b3 3eaa 0cb6 994d be2d
00000360: 51cd 06ad c464 b026 f94b fa2f 784a 54a9
00000370: bda9 a0a6 70ad 49ae 683c 222c fddd aa2f
00000380: c9f9 1c35 b48f c2af 106e bba8 2fae 20ac
00000390: 928a 0931 b693 0f30 0903 283c bf10 8dbb
000003a0: 7636 86ab 61c5 89a9 5042 4921 4119 aab0
000003b0: bc5b 05a5 92a9 3136 4298 7528 dc37 22a3
000003c0: 1b14 4722 8e5c 80b4 1b3a af27 9322 34a7
000003d0: 4f02 12ae c1a5 9fa9 5922 9726 e862 d8a8
000003e0: d86d 81aa 9405 6b29 5e8a 0232 6032 2c2e
000003f0: 483e 3833 e3a6 85bc a4c8 4b3f 8777 d9be
