DeepSignalingFlow/analysis_nci/fold_1_pan/first_conv_down_weight.npy (npy, 74176 bytes, 1 tensors)

array f4 [18512]
00000000: e379 deb0 924a 07a7 87e5 a723 793d 92a6
00000010: 2cd5 1f34 0a5f d725 d963 d8ae 3b47 4ab1
00000020: 1472 143e b544 2c3e c8d4 00be 1ff1 64be
00000030: 60be 98bd 6ecb f4bc 7368 5b3e da82 3d3f
00000040: 4794 f53d 41b8 7c3e c132 ecbd fd97 0e3e
00000050: 91f4 a8bd 6cf5 5b3e 85e4 f2b9 45bf 8b2a
00000060: 6b63 d138 443b 21b1 f14d f2ad ec6f 3a3f
00000070: 8343 bb33 cc35 07a8 7649 69aa 88ce 3c2f
00000080: deb3 2828 9704 00ab abbb 292d bf87 7727
00000090: 3206 142c 66f2 a523 5de7 e5b0 85c3 4d2b
000000a0: ad20 e9ad b584 193a 077b 59b5 5772 9fa9
000000b0: 08e8 1bae d1b5 0e30 c533 acb1 d7dd 53ae
000000c0: 6288 30ae d5b6 2eaf 06de de2b b65f 622a
000000d0: 4ba4 ef2f 8404 9caf 0299 cd29 29a8 f7a9
000000e0: 799f c82d 8e20 9337 aa56 91a9 4480 0d30
000000f0: 6b17 dd30 c8bd 80a8 d649 58b3 1b04 8127
00000100: fcf7 00ae f123 7d24 d3aa e9bd 0193 d2a3
00000110: 9612 b92a 297e 9ab5 d72f a424 6848 9227
00000120: 4ffd 0628 b0af de28 d07d f3a7 af74 c02e
00000130: da6f cfb2 afc9 c1b0 b3f3 f1a6 c86b 693d
00000140: 3c08 8d3e 3f84 e9a5 aaf9 1aa8 a8b8 222c
00000150: 7df5 a1a2 7aea f3a4 9481 9e26 1a0e 222b
00000160: 60f9 b23a ddaf 93af ca26 3129 2cc7 a02b
00000170: 381a 0525 32f8 9aac a7b5 faae 723e 3920
00000180: 4bfd 2b25 26fb 592b 2562 9fa7 5c43 89af
00000190: 1695 1935 22c6 f2ab f35b 072e 5ff3 89ae
000001a0: 9900 fcb2 a837 e234 2f40 ec27 e8ea 63ac
000001b0: 58ec ebb0 176e 562c f76c a3a9 89e3 bfb6
000001c0: 9ee0 35a9 6007 8ea7 92c4 ada9 55d8 9826
000001d0: fb90 2d33 d833 00a7 4718 fdaf 68f8 4624
000001e0: 30e0 8ba5 b6dd 7ea6 73cc e22d 843e be33
000001f0: ac38 f138 2a5f fa28 2d47 1a2c 4d61 c324
00000200: da64 15ac 09d1 adaf c572 892c cfd2 88ae
00000210: c61e 7733 1a15 3a2d 9f9a c6af a0ed 8c29
00000220: bd96 a738 67c0 07a6 3adf 29a9 48cd 81a5
00000230: 2af2 79ae be36 05a4 145c 5734 dad9 72b5
00000240: e869 24ae 52a5 e3a8 c735 36ab 8136 37a3
00000250: d33d 0838 85cd 0a26 ae72 432c 427f caab
00000260: a9a4 e837 462b b82a 7e16 4da2 d8bb 9eaf
00000270: 149c 7db0 9e3c 4d30 7ec5 d230 04ed f7ac
00000280: c332 5226 acc7 18ab f4b1 3aac bf86 d4a4
00000290: a69e a7aa cd76 47bd 0411 1b3c 63ee b3ba
000002a0: ecff 7bbb 9b33 f3bb 8683 043c d2c4 b9bc
000002b0: d38c 8c3b 5ba1 21bc 2e33 9f3b a378 d6bb
000002c0: d31d cdbc febd 7c3d 15fd a83b a80e 9e3d
000002d0: 8f4e 86bb 8495 49bd 8c8b e33b 3b55 7e3c
000002e0: 5921 ae3c f360 4926 6355 182b 4e9e 9226
000002f0: 343e 4524 3d5f 0126 7035 71af bf0d 84b6
00000300: 9509 992e b9b1 a228 218a 9432 f968 04ab
00000310: f187 8626 1cb0 3139 82ef 8aab 50b0 3423
00000320: 0553 1734 f1ed 2da9 f219 bfa6 b8aa 20ad
00000330: ed98 34b2 8ead d8a9 4630 b9b2 af00 6faa
00000340: 83cd 5724 beb6 1fac 47da e5ac da4f 2831
00000350: e39d a42c 119a 8e29 610f 2aa9 2137 0027
00000360: 3773 a1b2 3d89 c523 85de e5a9 ef24 e7a7
00000370: 0061 d727 bbae b4ab e565 80a5 9187 8c26
00000380: ff25 1027 0436 043e b809 c3be 91ac 853f
00000390: 4df4 0abf cd01 da3e e980 fa3e 30c5 e83e
000003a0: 0b0b 69be f3dd ad3f 4d66 d4bc fd2d 803e
000003b0: 5a50 e2bc 1e02 653c 647d a73c 67ee 963f
000003c0: 2c7f d83f 9a4b d43e 8c54 ce3f a6ca bd3f
000003d0: 78e7 373f b322 8ebe d32e 81bf 4987 30bd
000003e0: ce04 5abf 423d bbbf 12ca 81bf 5147 67be
000003f0: ac13 943e 0b3a 00c0 9193 63bf 9fef 1a3e
-1.6187268e-09 -1.8775438e-15 1.8203385e-17 -1.0147447e-15 1.488558e-07 3.7360956e-16 -9.840279e-11 -2.9435359e-09
0.14496642 0.16823085 -0.1258117 -0.22357605 -0.07458186 -0.02988216 0.21426563 0.7402779
0.11991172 0.24679662 -0.11533118 0.13925166 -0.08249772 0.2148034 -0.00046328097 2.482408e-13
9.984415e-05 -2.3462272e-09 -2.7546828e-11 0.7282703 8.7201464e-08 -7.505671e-15 -2.0720044e-13 1.7171875e-10
9.364876e-15 -4.5481105e-13 9.6482084e-12 3.4351724e-15 2.1035504e-12 1.7991996e-17 -1.67277e-09 7.310197e-13
-2.6503544e-11 0.00058562617 -8.101783e-07 -7.080853e-14 -3.5449005e-11 5.1917676e-10 -5.0117444e-09 -4.817288e-11
-4.01389e-11 -1.5890163e-10 1.5835673e-12 2.0106039e-13 4.3590584e-10 -2.8379443e-10 9.1303714e-14 -1.09981746e-13
2.2808188e-11 1.7538925e-05 -6.4543274e-14 5.147778e-10 1.6086522e-09 -1.429316e-14 -5.0358572e-08 3.5809144e-15
-2.9324085e-11 5.4891073e-17 -0.11409535 -2.2830504e-17 3.2875498e-13 -1.1510612e-06 7.1204706e-17 4.0601643e-15
7.493422e-15 2.4723143e-14 -6.7582455e-15 8.751876e-11 -2.4148836e-08 -1.409992e-09 -1.6788789e-15 0.056987554
0.27545345 -4.050867e-16 -8.6028546e-15 2.312409e-12 -4.389906e-18 -1.0578167e-16 1.0998575e-15 5.757353e-13
0.0013654642 -2.6864103e-10 3.933554e-14 1.1423965e-12 1.1544794e-16 -4.4044985e-12 -1.1400952e-10 1.5690771e-19
1.4917705e-16 7.7442425e-13 -4.4237774e-15 -2.4968017e-10 5.721389e-07 -1.7250127e-12 3.0777113e-11 -6.27327e-11
-2.9336933e-08 4.2136276e-07 6.5572746e-15 -3.238904e-12 -1.7165673e-09 3.0472341e-12 -7.2575565e-14 -5.718732e-06
-4.0384898e-14 -3.9420913e-15 -7.716843e-14 1.0605756e-15 4.041156e-08 -1.7791673e-15 -4.6037682e-10 4.3144814e-17
-2.4264572e-16 -8.8424427e-16 2.5784019e-11 8.858936e-08 0.000115023315 2.7796846e-14 2.1924227e-12 8.4732603e-17
-2.1230157e-12 -3.1617045e-10 3.906516e-12 -6.222011e-11 5.7537157e-08 1.0577561e-11 -3.6125855e-10 6.25847e-14
7.991258e-05 -4.709829e-16 -3.7719156e-14 -2.2517037e-16 -5.683113e-11 -2.8886146e-17 2.0056933e-07 -9.046904e-07
-3.7383346e-11 -2.5273759e-14 -6.473402e-13 -9.9319915e-18 3.2482505e-05 4.81569e-16 2.7774827e-12 -1.4388284e-12
2.7733231e-05 3.2714993e-13 -2.7794588e-18 -2.8873504e-10 -9.2262664e-10 7.466471e-10 1.5335642e-09 -7.0464762e-12
7.292718e-16 -5.427835e-13 -2.6530974e-12 -9.216861e-17 -2.9775244e-13 -0.04869728 0.009464506 -0.0013727661
-0.0038452102 -0.0074219233 0.008087998 -0.022676859 0.0042892485 -0.00986513 0.004858396 -0.0065451427
-0.025038635 0.06170463 0.005157123 0.07717639 -0.0040987204 -0.049214855 0.0069441255 0.01552325
0.021256136 6.9867274e-16 5.4119746e-13 1.0173694e-15 4.2770254e-17 4.488494e-16 -2.1937807e-10 -3.935507e-06
6.9593366e-11 1.8062688e-14 1.7292281e-08 -4.70415e-13 9.334965e-16 0.00016945641 -9.871967e-13 9.795155e-18
1.4093173e-07 -3.8620098e-14 -1.326032e-15 -9.132854e-12 -1.051215e-08 -9.622434e-14 -2.1558787e-08 -2.1227701e-13
4.679477e-17 -2.2696701e-12 -6.532805e-12 2.4492608e-09 4.6786893e-12 6.332793e-14 -3.7760922e-14 1.7793454e-15
-1.879526e-08 2.1416905e-17 -1.0208244e-13 -6.4155423e-15 5.9779655e-15 -1.2838267e-12 -2.2273507e-16 9.751197e-16
2.0004612e-15 0.1291123 -0.38093352 1.0443288 -0.54279023 0.425795 0.48926476 0.45462942
-0.22758119 1.3583359 -0.025927687 0.25035086 -0.027626205 0.013977556 0.020445533 1.1791505
1.691381 0.4146393 1.6119552 1.4827468 0.7183757 -0.27760848 -1.0092415 -0.043097768
-0.8516358 -1.4628069 -1.0139792 -0.22585799 0.28921258 -2.0035427 -0.88897043 0.1513047
