DeepSignalingFlow/analysis_nci/fold_1_pan/first_conv_up_weight.npy (npy, 74176 bytes, 1 tensors)

array f4 [18512]
00000000: 5bbb d8a4 6ccc 6a29 5d7b d4a4 58fb 0b32
00000010: 3227 ac3e 7b7c eeb2 ec7c 17ae bde1 de2b
00000020: c608 b62e a831 8b3f d980 da23 4ef0 0440
00000030: e685 c63e 4832 3b3f 573b cebf 46a7 233f
00000040: 66c6 28be 724f f831 1f6a a425 45e2 e23e
00000050: 92c2 24c0 096e 4925 e8b2 b437 b237 6a3e
00000060: 96a1 64be 4b03 663e d5e6 53be 9fe7 083e
00000070: 0b49 05be 93d8 99bd a675 6abe 19fa 77b7
00000080: c53f 9627 6fb4 e9a2 113a 7ea2 cc89 16bf
00000090: c22c 463f 7842 933f b4e8 62bc 802c 37bf
000000a0: dd99 95be 808c 1f3f 8d52 1b3f 7070 6d3d
000000b0: 3a79 59be d273 b4bf 6a21 6b3f 5002 b9bf
000000c0: 9120 91bf db42 3cbf ccec bbbd d25d b0be
000000d0: af66 063f 320e 16c0 f794 31bf 84e3 8dbd
000000e0: ae2c f53b 86f2 6bbe 8396 d13f 4b63 81bf
000000f0: fd36 17be 6304 bd3f bb4a 1aac 4e6d cbad
00000100: 83ba 70aa 51a4 562b 85c6 b731 1b05 88b4
00000110: 8c4f 0828 e283 a824 289c 34a9 323a a934
00000120: 50c1 d33f 4083 aa2d d6a7 beb4 6eed d82c
00000130: 60e2 9a3a e327 1936 19a1 cebb f1f0 df28
00000140: 6099 1735 48c8 0730 b777 ac3f 885b 0aa5
00000150: 2bfd a5a3 31f1 01c0 27a2 1a2b b2ca 953e
00000160: 0d8e 10be 402e 4bbf 70ee 7f22 98a1 cfaa
00000170: 8cc7 983d 5af2 8db1 87f2 0830 01d4 483d
00000180: 9d0a 86bf b9b6 1cbd 59cc f63d 6d84 1aad
00000190: 6910 0924 cb38 a4a8 0f52 4730 ca43 1527
000001a0: e01d 9538 fece 1fbf 3e3f bdbf 1fd3 adbe
000001b0: a387 5f3e e521 093f e47e 3ebe 9dac 523f
000001c0: 730c 4cab 3df1 0bb5 09d1 44af 3a22 e5a2
000001d0: dadc 88b0 291c ae2d 657f cfa9 fc0c bda4
000001e0: 342a e0a9 8f37 fbae f9a7 3731 0a19 55ac
000001f0: 131b 83a5 255b 3b27 907f 70a7 6a81 b12a
00000200: 8bf6 4527 14e8 7533 fcd6 c3b7 518c 0733
00000210: 02ce 2026 bbef 29a3 ada7 f5ad 87bc 07a2
00000220: 7899 3e27 e09e 9827 5f5d 032c 5985 a62a
00000230: d707 91aa 9504 3628 e194 0a3f a837 f93c
00000240: 53c7 783e 0db5 75a8 8fe6 f3bc 0106 4fbf
00000250: 1cc7 7a3f 8b9d 28be c224 e3a6 2ae9 6a3d
00000260: 970f b63f de6f c4bf 94e7 513e 4eed fda5
00000270: 6aac cabd 4875 1ca4 e171 dfa6 a570 533f
00000280: 5bce 1540 c5b2 9dbe 180e 1140 007b d53f
00000290: f063 a63e 8c9e f926 f2ee 34be b50a d8a2
000002a0: d9b9 c1bf 01e8 f7bf c8a3 70bf df95 513f
000002b0: 1fef 5ebf b709 043f cb0c 11c0 0dbe b03f
000002c0: 2e77 a93f 5a6a 643f 3319 5e2c 4166 083d
000002d0: 2c61 baad 844b 38ac 4891 c0bf 09ec a43e
000002e0: c825 2c3f 64b5 0a2f 8ae4 1729 3baa 832a
000002f0: d964 76ba 72db 3ca5 6732 8ca9 a83b 53b2
00000300: 2695 b7a8 eda3 6738 b383 e62c 6b01 3123
00000310: 09eb 1725 165d 4cb3 f63d 442e c1cc d3b1
00000320: b045 2fb4 ddd3 882a 58c5 e735 2c39 80a6
00000330: 6ddd d4a7 d08f eb29 adf4 14a2 fc74 aca7
00000340: 3810 c528 130b 872b 3ce9 c123 4183 8cbd
00000350: 6460 9c3e 1cb2 283f b864 8e3f 33ed 9bbd
00000360: 1ba8 22bf 1f9c 09aa 9f81 dca3 5096 3c2a
00000370: 7821 48ad 4226 16ae 0700 dea6 9aed ab2a
00000380: bf24 c1b1 42cc aa3f 5620 193f af6e 56be
00000390: acc0 a43d 8134 98be b45a d7bf a033 60a9
000003a0: f7cc c1bb 7c2c 80bf c349 a827 d331 423f
000003b0: 96fd 26be ca0f 44bf ce19 2c3f 9ad6 96bf
000003c0: de16 fcbf ffc8 aa3f 345a 44bf acf3 4c3f
000003d0: a6f7 a33d 9ff7 3bac 1336 47a8 33d2 cf3f
000003e0: 0627 773d 27f4 953f 4e05 673f 4434 0e3f
000003f0: bb5f 453f 1173 cca4 fc48 e43d df61 a33d
-9.399246e-17 5.2135745e-14 -9.214933e-17 8.148014e-09 0.33623654 -2.7763454e-08 -3.4444378e-11 1.5836704e-12
8.27796e-11 1.0874529 2.3690176e-17 2.077167 0.3877403 0.731236 -1.6111859 0.63927114
-0.16481933 7.226782e-09 2.8521375e-16 0.44313255 -2.5743756 1.7471252e-16 2.1540982e-05 0.22872809
-0.22327265 0.22462194 -0.20693524 0.13369606 -0.13016145 -0.075120114 -0.22896442 -1.4780578e-05
4.1702502e-15 -6.334582e-18 -3.445416e-18 -0.5880401 0.77412045 1.150466 -0.013849426 -0.71552277
-0.2921895 0.6232376 0.6067284 0.057968557 -0.2123765 -1.4097846 0.9184786 -1.4453831
-1.1338063 -0.73539513 -0.09176025 -0.3444658 0.5250043 -2.3446164 -0.6936793 -0.06928161
0.007482133 -0.23041734 1.6374058 -1.0108427 -0.1476707 1.4766964 -2.19262e-12 -2.3126969e-11
-2.1380991e-13 7.625611e-13 5.34857e-09 -2.533569e-07 7.5667655e-15 7.3081804e-17 -4.0103473e-14 3.1521046e-07
1.6543369 1.9385049e-11 -3.5512375e-07 6.1654492e-12 0.0011816733 2.2821994e-06 -0.0063058254 2.4862465e-14
5.6475074e-07 4.939733e-10 1.3474034 -1.2000604e-16 -1.7996557e-17 -2.0303462 5.493682e-13 0.29256207
-0.14116688 -0.79367447 3.4685172e-18 -3.6882715e-13 0.074599355 -4.1311923e-09 4.9821164e-10 0.049030308
-1.0471989 -0.038260195 0.12050695 -8.783291e-12 2.972104e-17 -1.8232288e-14 7.251239e-10 2.0714652e-15
7.110438e-05 -0.6242522 -1.4784925 -0.33950135 0.21829085 0.53567344 -0.18603092 0.82294637
-7.2492636e-13 -5.2132583e-07 -1.790036e-10 -6.2106813e-18 -9.958072e-10 1.9794015e-11 -9.214746e-14 -8.198768e-17
-9.9549194e-14 -1.1424028e-10 2.6725486e-09 -3.028302e-12 -2.2743224e-16 2.6000873e-15 -3.3375843e-15 3.1531315e-13
2.7472893e-15 5.725458e-08 -2.3345921e-05 3.1559754e-08 5.5790344e-16 -9.212273e-18 -2.7927738e-11 -1.8395717e-18
2.6450992e-15 4.2360728e-15 1.866805e-12 2.9580052e-13 -2.5762614e-13 1.0104023e-14 0.5413342 0.030422047
0.24294786 -1.3639491e-14 -0.029773025 -0.80868536 0.97960067 -0.16466348 -1.5761252e-15 0.05735127
1.4223508 -1.5346639 0.20498496 -4.4049308e-16 -0.098961666 -3.392645e-17 -1.55046e-15 0.82593757
2.34072 -0.30800453 2.2664852 1.6678162 0.3249812 1.732082e-15 -0.17669275 -5.8558254e-18
-1.5134841 -1.9367677 -0.9399991 0.8186931 -0.8708362 0.51577324 -2.2664058 1.3807999
1.3239496 0.8922478 3.1562086e-12 0.033300642 -2.1188905e-11 -2.6189892e-12 -1.5044336 0.3221133
0.6724515 1.261547e-10 3.372696e-14 2.3388396e-13 -0.0009399183 -1.6380752e-16 -6.2259924e-14 -1.2295381e-08
-2.0381764e-14 5.522736e-05 6.5516147e-12 9.5954895e-18 1.3176795e-16 -4.7582112e-08 4.4620273e-11 -6.164186e-09
-1.6323497e-07 2.4305463e-13 1.7268276e-06 -8.897281e-16 -5.908189e-15 1.0461044e-13 -2.018727e-18 -4.7866425e-15
2.1878427e-14 9.595401e-13 2.102388e-17 -0.06860972 0.3054229 0.65896773 1.1124487 -0.076136015
-0.6353776 -1.222221e-13 -2.3907344e-17 1.6749904e-13 -1.1376115e-11 -3.414003e-11 -1.5404352e-15 3.054057e-13
-5.621217e-09 1.3343585 0.59814966 -0.2094066 0.08044562 -0.29727557 -1.6824555 -4.978277e-14
-0.0059143263 -1.0013576 4.670934e-15 0.75857276 -0.16307673 -0.7658659 0.67226875 -1.1784241
-1.9694479 1.3342589 -0.7670014 0.80059314 0.080062196 -2.6711756e-12 -1.10584446e-14 1.6236023
0.06033995 1.1715134 0.9024247 0.555485 0.770992 -8.866583e-17 0.11146733 0.07977652
