DeepSignalingFlow/analysis_nci/fold_1_pan/last_conv_down_weight.npy (npy, 74176 bytes, 1 tensors)

array f4 [18512]
000000 18 7d 8c a4 5b 1a 85 2b fe fe 9d af df 7b 5d 31
       -6.092724e-17 9.457533e-13 -2.8739316e-10 3.2230145e-09
000010 1c d0 e6 a5 86 3d 3b 2c b3 b0 85 29 96 f1 af 37
       -4.003966e-16 2.660845e-12 5.937039e-14 2.0974123e-05
000020 19 a8 16 32 3d c1 76 28 e1 d6 3f 22 ac 12 95 aa
       8.76937e-09 1.3697645e-14 2.5999083e-18 -2.6480673e-13
000030 51 4a 3f bc 8a 47 b3 b7 b3 fa bc a8 f9 2a fd aa
       -0.011675433 -2.1371776e-05 -2.0980916e-14 -4.4971646e-13
000040 a2 d2 86 be 60 40 aa b8 e9 fd ca 21 02 2a 8f 38
       -0.26332575 -8.1182225e-05 1.3755262e-18 6.826596e-05
000050 e7 dc e0 af 7b 69 4c ac 35 26 eb 36 9e 19 55 33
       -4.0902323e-10 -2.9048697e-12 7.0079936e-06 4.9616226e-08
000060 49 40 78 a6 78 5b c1 2c 9a 73 65 28 3f 82 4e 2a
       -8.6129407e-16 5.495545e-12 1.2737121e-14 1.8341664e-13
000070 14 8b 39 a5 50 b7 f1 32 71 86 52 b8 06 1d f5 b2
       -1.6093314e-16 2.8139453e-08 -5.019311e-05 -2.8534952e-08
000080 1a 12 8e b3 11 b9 b2 ab 33 98 ea ac 17 93 7e 2b
       -6.615683e-08 -1.2699027e-12 -6.6675775e-12 9.0443056e-13
000090 07 b5 57 30 f1 63 fa 29 1e 2b c1 a8 90 99 a4 3e
       7.84738e-10 1.1119567e-13 -2.1446003e-14 0.3214841
0000a0 2a 3f e1 26 04 1a ce 36 9b 59 2b b4 d8 e3 c1 28
       1.5629632e-15 6.142307e-06 -1.5958214e-07 2.1526116e-14
0000b0 fb 01 ae 2d 77 7a e2 2e e2 56 63 b9 e8 46 b1 b0
       1.978239e-11 1.0299044e-10 -0.00021680773 -1.2898598e-09
0000c0 af e0 91 ac 43 aa ec 30 c7 c5 10 30 02 d6 39 34
       -4.1460928e-12 1.7219651e-09 5.2667953e-10 1.7307323e-07
0000d0 c7 bc 56 28 e5 f1 a0 ac bd d8 dd 30 7c 23 0f a4
       1.1920321e-14 -4.574329e-12 1.6141467e-09 -3.103824e-17
0000e0 cc a8 39 b0 42 7d 4d a8 2f 38 6b 25 3b 2a d2 a1
       -6.754248e-10 -1.1406947e-14 2.0402037e-16 -1.4241332e-18
0000f0 dc 6f 33 2b 7c 08 00 23 76 be 8a 24 b8 e8 0d 2d
       6.374881e-13 6.9406905e-18 6.017061e-17 8.066596e-12
000100 9b fc ae b4 a1 ea b4 ab 32 04 5a a6 53 0d a1 26
       -3.259382e-07 -1.2854892e-12 -7.563963e-16 1.1175231e-15
000110 14 74 ed ad e9 dc 4f ba ba 64 30 b1 40 f8 08 ba
       -2.699533e-11 -0.00079293415 -2.5668627e-09 -0.00052249804
000120 6e 91 5c a5 3b 47 da 23 5a 25 97 35 55 8a a8 29
       -1.9131232e-16 2.3665775e-17 1.1261247e-06 7.4846955e-14
000130 e7 97 03 25 ad 57 74 af f1 29 12 bd 59 49 c9 2e
       1.1413905e-16 -2.222282e-10 -0.03568453 9.153451e-11
000140 64 ce 66 31 fd e7 c3 28 0b 23 b1 2c 70 2c ba 2b
       3.3586725e-09 2.1749958e-14 5.034533e-12 1.3228429e-12
000150 0a 2a 3e 2a 54 8f 3f a9 6a ea 03 35 72 3a e4 a2
       1.6889975e-13 -4.2534837e-14 4.914242e-07 -6.1861405e-18
000160 77 99 67 b1 19 a6 21 29 5f 27 48 a5 ac cd df 2e
       -3.3702159e-09 3.5893248e-14 -1.7360574e-16 1.01774006e-10
000170 49 44 b8 aa 93 9f 5f a7 f3 07 98 a2 18 d7 8b a7
       -3.2732348e-13 -3.1033972e-15 -4.12081e-18 -3.8813455e-15
000180 f9 e9 59 aa d7 e4 7e ac 63 dc 32 30 1c 0d 7c b2
       -1.9354647e-13 -3.6222603e-12 6.506921e-10 -1.4671311e-08
000190 d5 67 87 33 f4 68 a7 34 1c b4 38 34 0a 1e f2 26
       6.305314e-08 3.1182537e-07 1.7201859e-07 1.6800265e-15
0001a0 b6 17 9f a6 18 b1 19 27 d6 f5 eb 2f 15 2d 82 b0
       -1.1039268e-15 2.1329018e-15 4.2920928e-10 -9.471558e-10
0001b0 a1 b5 d0 a6 ff 36 39 b0 68 2e 04 34 3e c5 08 3f
       -1.448213e-15 -6.738076e-10 1.231034e-07 0.5342597
0001c0 8b ec 23 27 e6 89 f4 b1 74 54 92 26 2c 9d 04 a4
       2.2749024e-15 -7.117012e-09 1.0153676e-15 -2.8756067e-17
0001d0 93 a3 53 bb f9 20 b5 35 ab e2 69 ad 1e 87 f3 35
       -0.0032293543 1.3495147e-06 -1.3294847e-11 1.8144235e-06
0001e0 7b b8 fd aa 81 f4 be aa cd c8 d6 2b 37 73 75 30
       -4.5069837e-13 -3.3920439e-13 1.5261348e-12 8.929421e-10
0001f0 f7 d4 af 33 e3 29 c4 bf 68 b8 3a a7 8a 64 b3 af
       8.1878106e-08 -1.5325283 -2.5912652e-15 -3.2631348e-10
000200 1a 92 32 ab dc ba c0 26 de 33 59 2f a3 bd 28 36
       -6.344106e-13 1.3373325e-15 1.9754462e-10 2.5144334e-06
000210 2e b3 45 b1 df 37 d6 bb 34 22 8c a7 f6 e8 17 28
       -2.8769125e-09 -0.006537422 -3.889489e-15 8.432699e-15
000220 b5 0e fd 3b e9 ac ff 35 91 5c 1b ac f5 3e 46 aa
       0.0077227005 1.9049304e-06 -2.207821e-12 -1.7607775e-13
000230 4e af 7c 29 8e 3a 20 aa f7 f4 0b ab 3a 1f 25 3e
       5.6107293e-14 -1.423117e-13 -4.9722677e-13 0.16125193
000240 97 6b 6c ac ae 2f dc b8 48 18 28 b9 23 63 b7 2e
       -3.3597341e-12 -0.000104992985 -0.00016030774 8.339487e-11
000250 a6 80 4e 25 b8 8c 92 35 46 b1 d7 ac 4e 66 07 32
       1.791124e-16 1.0918802e-06 -6.130349e-12 7.881296e-09
000260 50 9e 6c 28 a9 58 f8 a7 05 34 f3 29 64 fb ae a8
       1.313496e-14 -6.8929953e-15 1.0800392e-13 -1.9426904e-14
000270 1b 0e dd 2a 8c 05 7b 2d 29 e9 a1 2c b7 31 df 2e
       3.9267274e-13 1.426893e-11 4.601781e-12 1.0149697e-10
000280 bc c3 0a 3a 62 86 63 27 b5 77 15 29 4e c0 2f b3
       0.0005293449 3.1575427e-15 3.3188475e-14 -4.0920263e-08
000290 ee be 3d 2b 19 ea cb b1 97 ed b6 a4 fd 5d 3b 34
       6.7411257e-13 -5.9346914e-09 -7.933241e-17 1.7449925e-07
0002a0 e4 50 6d ab 7c 18 e0 24 40 99 2d 25 42 a2 c2 a3
       -8.431157e-13 9.718599e-17 1.5057281e-16 -2.1102241e-17
0002b0 0a bf 53 2d 5b a3 a1 a6 05 10 c3 a7 01 9a 60 2a
       1.2036381e-11 -1.1215897e-15 -5.414074e-15 1.9948627e-13
0002c0 49 8a d3 32 83 e1 4b 39 79 d1 d0 22 93 c5 f6 b2
       2.4626518e-08 0.00019443598 5.66003e-18 -2.8728016e-08
0002d0 16 4d 05 29 29 6f 23 2a 4a 75 ec 37 70 46 bb 33
       2.9598794e-14 1.4515875e-13 2.818801e-05 8.7206786e-08
0002e0 7f 93 d9 22 4f 3f 3d b0 58 3b 55 2d 72 51 b2 a7
       5.8974135e-18 -6.8847766e-10 1.2120825e-11 -4.9493228e-15
0002f0 f9 80 1b ad 30 1f 38 b0 1d 44 d6 b0 eb 4e 29 2f
       -8.839368e-12 -6.698313e-10 -1.5589908e-09 1.5398498e-10
000300 72 b6 ac 2a e0 c3 90 a7 be ab 93 a3 c3 12 0b aa
       3.0679935e-13 -4.0180397e-15 -1.6010508e-17 -1.2352189e-13
000310 ef c5 58 27 06 79 97 a8 2b 35 a8 aa f8 d7 85 b5
       3.0083322e-15 -1.6816853e-14 -2.9879688e-13 -9.972127e-07
000320 29 ea 13 24 7d 37 51 af 99 2d 21 b2 d7 78 08 27
       3.2073885e-17 -1.9028153e-10 -9.381801e-09 1.8939299e-15
000330 10 ab 25 30 98 14 0f 28 b3 41 16 b3 42 90 b8 ad
       6.0269745e-10 7.94256e-15 -3.498435e-08 -2.0982441e-11
000340 8d b7 e7 28 5e 1c 51 2a 31 69 bb 27 85 b0 2f a3
       2.5725754e-14 1.8572771e-13 5.2016975e-15 -9.5241485e-18
000350 7b 20 be 21 ae f1 78 36 ee e8 8d a7 00 2a 81 b4
       1.2883498e-18 3.7095556e-06 -3.9387904e-15 -2.4058681e-07
000360 df a6 a5 ae ce aa 9b 32 a0 68 52 25 7d 3e bc 2d
       -7.5329736e-11 1.8122048e-08 1.8250045e-16 2.1400876e-11
000370 83 21 c3 26 0e f4 97 26 22 1d 9b b5 be 4c ea a8
       1.3539926e-15 1.0543881e-15 -1.1556879e-06 -2.60125e-14
000380 69 cb 07 21 cf 26 80 36 a5 fb 08 b4 2e 0c eb 29
       4.600899e-19 3.819215e-06 -1.2757535e-07 1.0438209e-13
000390 d9 fa 62 35 b1 72 22 ad 97 9d e6 3a 29 af 9a a3
       8.455659e-07 -9.2341005e-12 0.0017594573 -1.6770897e-17
0003a0 14 98 e3 30 a2 80 cc 2e 0d 85 19 26 42 52 e0 b0
       1.6559647e-09 9.299696e-11 5.3262856e-16 -1.6321524e-09
0003b0 ed 9e 16 29 5d 57 bb 28 35 d3 20 27 0f ba 75 26
       3.3444537e-14 2.0799058e-14 2.2318956e-15 8.5253607e-16
0003c0 6f c0 9f a8 75 82 43 2a e6 8b 9a ab 4e 69 6a b0
       -1.7736001e-14 1.736474e-13 -1.0981188e-12 -8.527835e-10
0003d0 a9 43 38 b5 d4 a9 89 bf ff a5 05 af ec fa 07 21
       -6.86438e-07 -1.0754952 -1.2155253e-10 4.607187e-19
0003e0 1a 6d 66 a3 8a 85 95 37 e1 cf 83 29 60 ca d1 a8
       -1.2491428e-17 1.7824368e-05 5.85363e-14 -2.3291427e-14
0003f0 4a 48 73 25 84 4f a0 2d 9e 8f 81 ac cb a6 da ae
       2.1101383e-16 1.8225206e-11 -3.6823452e-12 -9.9431206e-11
