DeepSignalingFlow/analysis_nci/fold_2_pan/block_conv_down_weight.npy (npy, 74176 bytes, 1 tensors)

array f4 [18512]
3.091558e-13 -2.841937e-17 -1.817373e-13 -6.390681e-06 1.1847596e-13 -5.213421e-06 4.002852e-17 6.69366e-13
1.2756642e-18 -1.6067638e-17 6.91799e-09 2.0617753e-10 -2.1235447e-09 -2.8672154e-12 -1.818236e-15 3.627626e-06
1.5889495e-09 -0.04632253 5.991105e-14 0.00028112755 3.8068996e-16 1.2553266e-14 1.9368895e-07 7.561252e-10
1.2178965e-09 -0.0025536227 -1.7525227e-15 -3.6560386e-18 9.474646e-15 -1.0526591e-10 -1.2749045e-14 2.30719e-07
-4.227469e-05 -4.4542567e-06 1.5549988e-07 -1.2115337e-10 5.3604577e-15 -3.6156071e-09 1.680916e-10 1.448413e-07
2.2254047e-08 4.4731555e-13 -1.6356827e-16 -6.8323954e-17 7.407391e-13 -0.41431394 -6.0437195e-08 4.625051e-14
2.4960983e-11 -3.15287e-13 1.1419124e-10 -2.1566688e-11 -5.3195905e-08 -1.8488257e-16 -5.999672e-11 -3.8717062e-17
2.6897638e-07 1.3049078e-10 -1.7656609e-17 2.0622441e-10 -6.1068216e-14 -1.7596417e-14 -1.9177938e-10 -5.4653073e-14
-4.0064865e-18 -1.4870905e-10 -2.6544967e-08 1.5513943e-16 -2.969408e-14 -3.095315e-14 -2.8698282e-09 2.0789132e-17
-9.62273e-18 -8.3855576e-15 1.4446769e-14 -4.152149e-12 1.0152136e-15 3.231004e-13 -1.1188956e-13 -8.01423e-10
6.648048e-12 1.143486e-14 1.8470993e-13 2.0196846e-09 -1.0171523e-13 -3.307626e-16 9.269829e-09 -2.8746339e-05
-2.9188125e-14 -1.6796441e-11 -0.00030981854 2.344588e-11 -1.3345483e-15 1.2007384e-06 1.4161483e-16 -3.1444814e-17
1.3471059e-17 -6.487491e-11 -9.134041e-10 2.38323e-17 -5.1265276e-09 -7.0853052e-09 1.39877875e-11 0.047838397
9.924858e-05 -4.0890606e-09 -4.91113e-14 -2.704664e-06 -2.5248363e-17 6.4770524e-12 2.9995233e-17 0.0012547395
1.28979535e-11 -2.1137826e-15 7.294647e-10 4.477221e-11 -7.729477e-16 3.2300147e-08 -9.127482e-08 4.461623e-12
-8.605474e-14 -1.5285583e-10 9.43944e-07 -6.202899e-08 5.1209907e-16 -9.947851e-17 2.675638e-07 1.6136288e-09
7.423592e-09 -3.2551336e-16 4.330781e-14 5.8181785e-14 -2.2549815e-17 -1.4489998e-19 -1.7968986e-16 4.5273058e-10
-7.3095244e-17 -8.889278e-12 3.97013e-15 1.5840249e-09 -5.2020137e-12 1.6542366e-10 -1.8282974e-10 -0.00014533916
-1.3568986e-15 -5.1491186e-11 -2.2593766e-13 -1.0126289e-14 -2.4165594e-17 7.682602e-13 1.004884e-14 -6.918136e-11
4.499207e-08 -0.004177 -7.717727e-11 2.3727753e-14 1.258566e-09 -1.7582857e-10 -9.395595e-15 3.6293313e-13
6.357643e-11 -1.0879928e-06 -1.9561517e-11 -2.7048081e-17 -0.15307383 1.1545616e-10 -4.6829476e-12 -7.9926484e-16
-1.6908072e-11 9.846375e-16 -9.92923e-07 7.66214e-15 -2.465817e-08 4.41324e-13 -1.9944197e-18 -1.28057885e-11
1.4027989e-12 -1.789281e-15 1.422035e-17 -2.3484052e-09 6.2603553e-06 -7.824993e-15 4.7313667e-13 7.50234e-11
4.149704e-11 6.5895697e-18 3.559341e-12 3.7676114e-14 -7.1281475e-17 -5.303127e-06 9.108023e-15 -1.8884107e-16
-3.796669e-06 1.1634118e-16 -1.1010516e-14 -7.7826295e-10 -2.2866331e-10 3.0593857e-17 -1.0097004e-15 -4.255588e-08
-9.457085e-15 -3.6641137e-16 1.8298729e-10 -2.5841766e-16 6.7429236e-09 6.1907343e-15 -3.9897247e-19 3.830274e-15
-8.046783e-12 2.1564699e-10 -8.1793215e-14 2.700331e-05 4.7050114e-10 1.2275607e-14 1.2892722e-15 -5.3290074e-15
-5.5245036e-18 -5.033212e-15 1.3589909e-11 1.0200255e-14 0.14111096 1.1500506e-12 -2.7188748e-14 3.0374106e-15
5.9472666e-12 8.605407e-10 3.6534132e-17 1.1866684e-12 -5.819996e-14 1.2734549e-08 6.343102e-10 -3.6671955e-12
-1.04099795e-08 -3.8848965e-16 -4.6797698e-18 -4.2166167e-17 5.099038e-15 -2.4432043e-10 -1.9505222e-14 -2.940434e-14
3.6431267e-13 -7.376177e-12 -1.966719e-18 1.448392e-14 1.3741466e-16 2.7964705e-07 -8.460413e-10 -5.3760676e-09
5.804807e-13 -0.30477336 -3.669248e-15 -1.3852503e-14 -3.8440498e-18 2.3001734e-09 -3.3247187e-09 -5.358789e-08
00000000: 0c0a ae2a ac0f 03a4 369e 4caa 886f d6b6
00000010: 5f64 052a f2ee aeb6 5699 3824 e768 3c2b
00000020: 3b41 bc21 a332 94a3 49b3 ed31 d1b1 622f
00000030: cbed 11b1 29c3 49ac 8904 03a7 2472 7336
00000040: 3162 da30 b1bc 3dbd 5ee8 8629 4d64 9339
00000050: ec73 db25 b923 6228 d0f8 4f34 95d7 4f30
00000060: ec62 a730 ae5a 27bb ad90 fca6 4fe2 86a2
00000070: 18ae 2a28 707b e7ae 98aa 65a8 8ebb 7734
00000080: 1a50 31b8 c675 95b6 7bf7 2634 a435 05af
00000090: 7f21 c127 6f76 78b1 94d1 382f ac85 1b34
000000a0: 2b29 bf32 f7d0 fb2a d594 3ca5 588b 9da4
000000b0: e17f 502b f520 d4be b3c9 81b3 354b 5029
000000c0: 238f db2d a57d b1aa f41b fb2e ddb3 bdad
000000d0: 8479 64b3 b427 55a5 27ef 83ae 0a8d 32a4
000000e0: d567 9034 e479 0f2f 7dda a2a3 03bf 622f
000000f0: 6e83 89a9 937e 9ea8 19dd 52af b422 76a9
00000100: 32d0 93a2 e081 23af 0005 e4b2 14dd 3225
00000110: f2ba 05a9 8d66 0ba9 8d36 45b1 f3be bf23
00000120: 0f82 31a3 8f0f 17a8 fb1f 8228 3c17 92ac
00000130: c54e 9226 ade3 b52a f1f3 fba9 214b 5cb0
00000140: 4be8 e92c fcfd 4d28 03f7 4f2a abca 0a31
00000150: d70a e5a9 f2ab bea5 2441 1f32 4b24 f1b7
00000160: 9e73 03a9 39be 93ad 246f a2b9 6e3b ce2d
00000170: 2454 c0a6 0f29 a135 5245 2325 7c03 11a4
00000180: 477f 7823 54a9 8eae 1913 7bb0 6dd0 db23
00000190: 6a25 b0b1 0173 f3b1 6513 762d 32f2 433d
000001a0: ad23 d038 c27f 8cb1 792d 5da9 c681 35b6
000001b0: 03e0 e8a3 1ae4 e32c 1f54 0a24 1276 a43a
000001c0: 38e7 622d 6850 18a7 8483 4830 07e9 442e
000001d0: 79c9 5ea6 63ba 0a33 dd02 c4b3 bafa 9c2c
000001e0: 2ec7 c1a9 1711 28af 5663 7d35 cc34 85b3
000001f0: 3e9a 1326 bf61 e5a4 b0a5 8f34 84c6 dd30
00000200: 9b12 ff31 4ba5 bba5 810a 4329 8403 8329
00000210: 3ffc cfa3 5511 2ba0 162b 4fa5 2ae4 f82f
00000220: d18b a8a4 c061 1cad fc09 8f27 ecb4 d930
00000230: 9307 b7ac 9fe2 352f ff05 49af 2f66 18b9
00000240: b98c c3a6 ec75 62ae 1962 7eaa 446b 36a8
00000250: 65e3 dea3 fb3e 582b 1806 3528 a521 98ae
00000260: 4e3d 4133 37df 88bb f1b6 a9ae 79b8 d528
00000270: dbf9 ac30 5853 41af 8941 29a8 2d50 cc2a
00000280: 59ce 8b2e 2607 92b5 9f10 acad 7a79 f9a3
00000290: 63bf 1cbe 0ae4 fd2e 3ec4 a4ac 565f 66a6
000002a0: 98b9 94ad b6e6 8d26 9344 85b5 6207 0a28
000002b0: e4cf d3b2 7e71 f82a 8629 13a2 2548 61ad
000002c0: 286d c52b 69ee 00a7 da28 8323 9561 21b1
000002d0: 0b10 d236 69f6 0ca8 172d 052b 6bfa a42e
000002e0: 8381 362e ba1c f322 6377 7a2c 9aad 2929
000002f0: 285d a4a4 84f1 b1b6 5813 2428 0cb8 59a5
00000300: 47ca 7eb6 db21 0625 0b59 46a8 63ed 55b0
00000310: 006b 7baf da16 0d24 5f83 91a6 afc6 36b3
00000320: 1b5d 2aa8 c638 d3a5 5832 492f b7f7 94a5
00000330: 62af e731 720b df27 0483 eba0 0b00 8a27
00000340: 7d8f 0dad 3b1b 6d2f 942e b8a9 2b85 e237
00000350: 9354 0130 3f23 5d28 c0cd b926 6bff bfa7
00000360: 76d1 cba2 3057 b5a7 8213 6f2d 60c0 3728
00000370: 647f 103e f1da a12b fce4 f4a8 56de 5a27
00000380: 3740 d12c 2b8b 6c30 e47b 2824 3c02 a72b
00000390: fe0d 83a9 24c7 5a32 9d5b 2e30 2907 81ac
000003a0: 93d7 32b2 f4f2 dfa5 2da7 aca2 0675 42a4
000003b0: 53b6 b727 0b51 86af fbaf afa8 e56c 04a9
000003c0: fd16 cd2a 59c3 01ad 461e 11a2 a575 8228
000003d0: a66d 1e25 6622 9634 dd8e 68b0 64b8 b8b1
000003e0: 0b64 232b 410b 9cbe d732 84a7 658b 79a8
000003f0: 06d2 8da2 1411 1e31 1279 64b1 8228 66b3
