DeepSignalingFlow/analysis_nci/fold_2_pan/first_conv_up_weight.npy (npy, 74176 bytes, 1 tensors)

array f4 [18512]
000000 ff 7b 51 ab 32 a8 71 2b 6e b4 b6 a8 4d 36 03 2c
       -7.4423795e-13 8.585382e-13 -2.0284308e-14 1.8646363e-12
000010 65 a4 68 a4 b2 bd 96 ab 74 8a 83 af e9 e3 28 a9
       -5.044623e-17 -1.0710792e-12 -2.3927138e-10 -3.7501174e-14
000020 88 9b 0b 2d cd 77 96 3e 9c fb 4b 26 7a 04 52 3f
       7.93577e-12 0.29388276 7.077077e-16 0.8203808
000030 be c6 86 3f c4 5a 91 3e d3 d3 1a 3f 9a c2 00 bf
       1.0529401 0.2838956 0.6047947 -0.5029694
000040 af db 7e bf d7 39 b5 2a f3 78 8f a7 13 56 ca bd
       -0.9955396 3.2192193e-13 -3.9821607e-15 -0.098796986
000050 93 09 e8 bf 39 c3 a1 b3 7e e5 83 2b de 47 1f be
       -1.8127922 -7.5326575e-08 9.371807e-13 -0.15554759
000060 ba 1f 07 bf b7 d7 ed 3e 8f 92 3a 3f 11 10 68 3f
       -0.52782786 0.4645364 0.7287988 0.90649515
000070 b2 47 b7 3f e7 11 a6 3d 2c 15 ff bf 1d ba f9 b4
       1.4318755 0.08108883 -1.9928336 -4.651528e-07
000080 84 fc 9d 31 3a f0 48 a0 01 e0 23 30 10 7c 29 3d
       4.598009e-09 -1.7020143e-19 5.9617383e-10 0.04137808
000090 12 48 83 be 29 19 50 bf f9 68 ce bd 7c 9d 8b 3e
       -0.25640923 -0.8128839 -0.10078616 0.2726859
0000a0 62 b9 cc be ed 8f 12 bf e5 5f 6e bf 34 87 48 bf
       -0.39985186 -0.57250863 -0.93115073 -0.78331304
0000b0 80 cb f1 be 8c 73 6d 3f 8d 9c 02 3f d0 55 3d bd
       -0.4722557 0.92754436 0.5102013 -0.046224415
0000c0 0d 21 c5 be a0 aa b0 bd 51 c5 70 be 2e 92 32 3f
       -0.38501778 -0.08626294 -0.2351277 0.697543
0000d0 85 12 c2 bf a3 34 93 bd b7 1f c8 be 9e 40 b1 be
       -1.5161902 -0.07187774 -0.39086697 -0.34619612
0000e0 88 86 81 3f c2 82 22 bf 8c f5 45 bd 1e 92 12 3e
       1.0119181 -0.6348077 -0.048329875 0.14313552
0000f0 e3 9e 4a 40 2a 20 dc be c7 61 8b 24 f0 ac 07 b5
       3.1659477 -0.4299329 6.044728e-17 -5.0543076e-07
000100 7c 03 91 a3 d8 63 16 b5 75 f9 f3 ad 96 11 8c 25
       -1.5722407e-17 -5.6024646e-07 -2.7736683e-11 2.4298045e-16
000110 2a e1 7b 33 7d 11 42 a6 e4 e6 ad 23 b2 f5 27 be
       5.8645277e-08 -6.733097e-16 1.8854484e-17 -0.16402319
000120 67 cb 62 3f b4 fe 84 a5 5e 6a 22 b2 54 4d a2 b9
       0.8859162 -2.3070943e-16 -9.453826e-09 -0.00030956662
000130 4d 5c f5 a6 2d a7 37 a3 c3 22 70 3f 17 22 88 29
       -1.7025308e-15 -9.955851e-18 0.9380304 6.045527e-14
000140 c1 07 94 a7 37 33 45 29 bd d0 af bf 7d c6 60 ad
       -4.108666e-15 4.378721e-14 -1.3735577 -1.2776999e-11
000150 5f 4d 48 24 42 19 90 bd 72 c3 91 b6 11 c3 9a be
       4.3433623e-17 -0.070360675 -4.3440896e-06 -0.3022695
000160 6f 5c e7 bf 37 67 46 3f d9 fa f2 b9 5f c9 61 26
       -1.8075083 0.77501243 -0.00046344733 7.8335465e-16
000170 04 ca f2 3d a7 04 de a7 37 df 9b 24 b5 15 b5 3d
       0.11854938 -6.162242e-15 6.7598675e-17 0.08842031
000180 3b a6 dc 3e 53 74 9c bd ed 2a 95 be e8 b6 82 ae
       0.43095574 -0.076393746 -0.29134312 -5.944206e-11
000190 78 b6 ee b1 27 ce 68 a7 d3 95 73 27 bc be 01 34
       -6.947456e-09 -3.2308223e-15 3.3804244e-15 1.208345e-07
0001a0 72 02 43 b4 74 f3 11 be 06 4a ee be 71 c3 d8 bf
       -1.816168e-07 -0.14253026 -0.4654085 -1.6934644
0001b0 c0 53 11 40 80 a7 1a 40 3b a8 04 c0 6a c8 4b 3f
       2.2707367 2.4164734 -2.072768 0.7960268
0001c0 14 9a 9b a7 44 e8 9b a7 c6 37 74 26 25 5d 39 33
       -4.3188194e-15 -4.3272965e-15 8.4730093e-16 4.3158384e-08
0001d0 2e ea a9 31 76 34 6d a8 83 c3 48 23 96 8c 29 aa
       4.9451705e-09 -1.31675185e-14 1.0883423e-17 -1.5058991e-13
0001e0 73 ab 88 ab 2c 88 94 28 41 48 a0 ab 6f 5c 1a 2a
       -9.710968e-13 1.6490356e-14 -1.1388738e-12 1.3710017e-13
0001f0 e8 a0 38 27 fd 40 11 aa 6b 2c 30 a9 4e f7 4e 32
       2.5622357e-15 -1.2901134e-13 -3.9118377e-14 1.2047009e-08
000200 28 61 da 2c 48 2b be 2f c4 0c 37 2f 07 78 73 a4
       6.206719e-12 3.4591552e-10 1.6648288e-10 -5.2793893e-17
000210 f3 79 dc ad 3e 12 42 31 69 35 dc 23 fd 02 08 29
       -2.506526e-11 2.8241085e-09 2.3875068e-17 3.0200658e-14
000220 3b 0c 82 a7 ec 03 a7 ab a7 c0 de 28 6e 85 b5 32
       -3.609551e-15 -1.1867152e-12 2.47305e-14 2.113185e-08
000230 ec 6c b6 2f f7 93 12 31 e7 09 3f be 7b 86 91 bc
       3.3183e-10 2.1329905e-09 -0.18656121 -0.01776432
000240 f3 91 ed 3e 60 ec 4d af 52 26 1a bf 98 44 2c 3f
       0.46400413 -1.8728619e-10 -0.6021472 0.67292166
000250 8d d0 d5 bf da f0 4e bb f3 26 b3 a4 9d 1d e4 3d
       -1.670427 -0.0031576664 -7.769486e-17 0.11138461
000260 93 92 ac 3e 84 0e f6 be 93 f3 7a bf 4f 0c 89 3d
       0.33705577 -0.4805795 -0.98027915 0.06691801
000270 7d ce 21 bd 46 f1 72 a3 92 12 30 ab 17 06 25 3d
       -0.039503563 -1.3169938e-17 -6.255353e-13 0.04028901
000280 d4 29 62 bf 76 fd 4a 3e f8 f3 5b 3f 27 2d 9c be
       -0.88345075 0.1982325 0.8591914 -0.30503199
000290 ba ff 27 40 99 c7 8e b2 1d 83 1a bf b8 a3 34 2c
       2.6249833 -1.6621742e-08 -0.60356313 2.567042e-12
0002a0 29 a4 13 bf 53 38 fa 3e 28 38 5f 40 79 29 cd bf
       -0.57672364 0.48871097 3.4878025 -1.6028281
0002b0 3e 12 8e 3d 14 36 4a bf 9e 22 c1 3e 74 b2 d4 bf
       0.06937073 -0.78988767 0.37721723 -1.661696
0002c0 a1 20 54 bf 8f bc 2b 3f 50 5c c2 ba 4d 42 63 a5
       -0.8286229 0.6708459 -0.0014828537 -1.9711575e-16
0002d0 61 59 98 28 3c 77 98 3e 75 7e 42 3f a3 2c 40 be
       1.6914152e-14 0.2977847 0.7597421 -0.18767028
0002e0 d4 ea 12 bf 5c 6b 0c ab 8a 1f 8e 29 0f ca 33 a8
       -0.5738957 -4.988698e-13 6.311538e-14 -9.9803105e-15
0002f0 0d 09 ab 29 54 39 29 2b 14 1b 6f 2b 57 fd f0 35
       7.5954955e-14 6.012042e-13 8.4947435e-13 1.7955125e-06
000300 7f 72 e1 25 eb dc 42 27 80 35 34 b7 03 e4 20 2e
       3.9108864e-16 2.7042668e-15 -1.07412925e-05 3.6582303e-11
000310 28 f9 36 39 77 98 ac ac 81 ce 33 b4 5b 5e 57 26
       0.0001744969 -4.905461e-12 -1.67458e-07 7.4720985e-16
000320 96 af d8 ab 0e f5 e7 30 66 7f 59 33 1b 2e 63 ab
       -1.5396458e-12 1.6877111e-09 5.0640118e-08 -8.0710585e-13
000330 ee d9 db b9 ee 45 f9 2e 03 24 05 ba fa 23 11 27
       -0.00041933305 1.1335631e-10 -0.00050789135 2.0142295e-15
000340 ab e4 16 27 61 a0 00 a5 d5 15 bf 3a c8 c9 af 3d
       2.0940643e-15 -1.1156569e-16 0.001457865 0.085834086
000350 59 4f 95 bf 13 0e 93 bf f0 09 af bf 2d 1f 71 3f
       -1.166484 -1.148867 -1.3674908 0.94188195
000360 37 e7 69 3b db 17 52 ac 40 51 90 2f 39 ed 0a ac
       0.0035690793 -2.9856037e-12 2.625118e-10 -1.9742665e-12
000370 3c e7 84 26 60 c3 c6 33 ca e1 87 2f ed 57 03 28
       9.222016e-16 9.255632e-08 2.471679e-10 7.291027e-15
000380 b5 b6 c5 26 d0 32 0b bf cf 12 14 c0 b7 23 8d 3c
       1.3719144e-15 -0.5437441 -2.313648 0.017228944
000390 a4 d8 46 c0 47 c3 c4 be 98 d7 c3 3f 02 f7 fc a9
       -3.1069727 -0.38430235 1.5300169 -1.1233897e-13
0003a0 2b 91 24 a9 10 45 b0 3f d2 27 7e 2f 43 cf 85 bf
       -3.654123e-14 1.3771076 2.3115312e-10 -1.0453876
0003b0 30 e7 c2 be f7 6d cc be d0 30 57 bf ea 3c 89 bf
       -0.38067007 -0.39927647 -0.84058857 -1.0721714
0003c0 4a 55 25 c0 60 f5 05 c0 e3 e2 15 bf 86 e2 bc 3e
       -2.5833306 -2.0931015 -0.58549327 0.36891574
0003d0 50 1d 90 3e ee 5e d4 2a 56 59 0f b4 73 55 8e 3e
       0.28147364 3.7724636e-13 -1.3350413e-07 0.27799568
0003e0 11 dd cf be 81 db 16 be 5c 8f af be 84 f8 b1 3f
       -0.40598348 -0.14732172 -0.34289062 1.3903966
0003f0 d2 36 4e 3f 87 71 23 33 88 f3 62 bf 52 35 6c bf
       0.805524 3.8054647e-08 -0.8865285 -0.9226886
