DeepSignalingFlow/analysis_nci/fold_2_pan/first_conv_down_weight.npy (npy, 74176 bytes, 1 tensors)

array f4 [18512]
000000 a8 a7 79 3e c9 39 92 29 d9 78 67 28 59 fb 3c 2b
       0.24380362 6.4937266e-14 1.2849281e-14 6.713983e-13
000010 6a d9 59 2d 6d d7 fa 2f 6f 53 ae ad 0d e1 8a 31
       1.23832975e-11 4.5627804e-10 -1.9818562e-11 4.041914e-09
000020 56 1b f3 bc fc 5f 8a 3d c0 51 23 be 6b d8 72 be
       -0.02967612 0.06756589 -0.15949154 -0.2371537
000030 2f 85 81 bf 61 dc 5f 3e 20 ef 85 be 55 54 a8 be
       -1.011877 0.21861412 -0.26159 -0.3287684
000040 b6 43 00 bf cb 9e 72 be 88 48 5e 3e f7 50 78 3b
       -0.5010332 -0.23693387 0.21707356 0.0037890056
000050 ab 61 09 be c3 e5 0a 3e ee 54 cf 3e e5 e3 8d 2a
       -0.13416164 0.1356421 0.40494484 2.5204765e-13
000060 ce 6f 24 2c 2c b2 f9 2d a1 00 8d 27 c9 2c 8b a5
       2.3367866e-12 2.8387147e-11 3.9136043e-15 -2.4143004e-16
000070 25 20 71 23 9d 8b be a6 99 f7 2f 2c 9d 6a 4d 24
       1.3071443e-17 -1.3221741e-15 2.500644e-12 4.4542594e-17
000080 2b dc 48 39 2d 3b 28 ab b5 cc 1c 2e 54 74 fa b5
       0.00019155505 -5.976771e-13 3.565211e-11 -1.8660307e-06
000090 4f fb a5 26 4d ff 84 a4 a7 3c a9 26 6e 1e 3a a6
       1.1517292e-15 -5.767837e-17 1.1743171e-15 -6.4572953e-16
0000a0 20 25 8f a7 88 c5 4b 38 f4 10 bb aa 7c 55 40 2a
       -3.9730724e-15 4.8582937e-05 -3.3229636e-13 1.7082684e-13
0000b0 8a 33 ae af c0 5f b6 2d 14 a1 4f ab d0 8c b5 28
       -3.1687036e-10 2.0733526e-11 -7.3764714e-13 2.0156104e-14
0000c0 a7 a7 3b 2b 51 56 9a 29 4b 60 cb a6 9e 1c 80 2c
       6.666841e-13 6.8539473e-14 -1.4112055e-15 3.641156e-12
0000d0 59 3a 90 33 95 69 44 af c8 03 89 b2 c8 86 80 2c
       6.716136e-08 -1.7863606e-10 -1.5950619e-08 3.6529425e-12
0000e0 0b f3 58 a9 a1 10 db 2f 36 39 83 a9 b0 15 aa 2b
       -4.817244e-14 3.9847683e-10 -5.827493e-14 1.2085246e-12
0000f0 e7 3a 05 2c 3d 23 b1 a5 86 68 80 3f a2 ac 05 b6
       1.8933134e-12 -3.0728484e-16 1.0031898 -1.991903e-06
000100 a8 eb b5 24 d4 01 9e 35 66 32 0c 2e 3d e6 6d 26
       7.8895455e-17 1.1772449e-06 3.1877077e-11 8.2537924e-16
000110 ca 5e a6 25 13 2d 66 25 84 ad d2 2c 10 03 5a 26
       2.886064e-16 1.9964592e-16 5.987823e-12 7.5638094e-16
000120 fb 60 ac b4 69 68 1a a8 9d 66 78 a8 b3 9a dc 2a
       -3.210806e-07 -8.571358e-15 -1.3789016e-14 3.9187195e-13
000130 b2 bf fd a6 f9 a7 c2 2e 53 e6 28 b0 0f 7a 52 bf
       -1.7607361e-15 8.8519365e-11 -6.1445354e-10 -0.82217497
000140 65 6d a7 3d 4f 10 8d b7 bf 04 07 b2 c6 f7 08 b0
       0.08175162 -1.6816104e-05 -7.859113e-09 -4.982862e-10
000150 63 53 34 28 19 48 83 25 72 bc d5 a3 9f 3c 64 a6
       1.0010089e-14 2.2773733e-16 -2.3173316e-17 -7.918555e-16
000160 58 44 a4 b4 74 e8 e8 b3 a5 95 20 ae a8 7f cd a4
       -3.0597107e-07 -1.0845625e-07 -3.65127e-11 -8.9120836e-17
000170 71 0e fb 33 db 58 a8 a4 b0 96 d9 b2 6e 70 ca aa
       1.1690725e-07 -7.300891e-17 -2.533065e-08 -3.5960422e-13
000180 18 df 92 2a 4b 2b d4 3c 3f 3c bf a5 bd 7f 3f a9
       2.6089612e-13 0.02589955 -3.3174043e-16 -4.2521315e-14
000190 69 d2 6c 2d 01 59 b2 3e 24 f2 5c 2a a1 5c 87 2b
       1.3461767e-11 0.3483353 1.9623935e-13 9.618037e-13
0001a0 ef cf 64 ad 09 86 a4 28 21 cd 2e 26 6c 37 b6 2e
       -1.300647e-11 1.8265786e-14 6.064638e-16 8.286247e-11
0001b0 eb e0 ea 23 bb b9 56 3d 0e f7 5b a5 99 c4 35 a8
       2.5465587e-17 0.05242322 -1.9078927e-16 -1.0090149e-14
0001c0 d8 02 25 ab ed 2b b3 33 ba 9d e8 a7 ff 38 06 2b
       -5.862372e-13 8.343327e-08 -6.4563943e-15 4.768546e-13
0001d0 26 f8 ff 23 70 51 95 2a 6f c9 a5 31 49 9c 6c bc
       2.775225e-17 2.6524226e-13 4.8250324e-09 -0.014441558
0001e0 6b 26 33 a9 70 9f cf 36 11 0c 8c a1 5b 6f 69 a8
       -3.9779307e-14 6.1876417e-06 -9.489963e-19 -1.2958245e-14
0001f0 ad 71 17 b1 bb b0 02 b0 c3 1a cb 24 b8 5a 35 2a
       -2.203801e-09 -4.7544874e-10 8.808255e-17 1.6107504e-13
000200 a4 30 a5 a5 d5 17 89 aa 8a c3 72 29 8a f9 d6 24
       -2.8655898e-16 -2.4352625e-13 5.3904397e-14 9.323044e-17
000210 59 54 46 28 20 3f 35 b0 6b 3a 82 23 1a 11 01 ab
       1.1009498e-14 -6.593712e-10 1.411937e-17 -4.585374e-13
000220 7d 16 d7 2a e0 e1 29 33 97 52 43 30 24 5f e2 b5
       3.8207276e-13 3.955381e-08 7.1057954e-10 -1.6866002e-06
000230 25 36 84 32 39 45 d1 ac a7 3d 2d a9 5f 25 7e b3
       1.5391445e-08 -5.9478225e-12 -3.846719e-14 -5.9172972e-08
000240 6f 58 99 a1 86 93 c2 30 fa 4f b7 25 db 09 bf 2d
       -1.0391091e-18 1.4157286e-09 3.1799634e-16 2.1718563e-11
000250 03 d7 48 a7 1e 2d c9 a7 a9 9e 1c b5 0c 7a 32 a6
       -2.7872134e-15 -5.5837623e-15 -5.834541e-07 -6.192156e-16
000260 ff 2d cb 35 19 67 65 b3 a2 16 de 27 3f c0 67 2e
       1.5138065e-06 -5.3411984e-08 6.1641916e-15 5.2694068e-11
000270 69 9c c4 aa 12 ec 2c a4 31 5d ca b8 20 8f 74 aa
       -3.4925125e-13 -3.7496514e-17 -9.649469e-05 -2.172121e-13
000280 91 5b e4 2c 7c d1 bb b0 61 3e 20 34 a5 3e 46 2e
       6.4903157e-12 -1.366558e-09 1.4923855e-07 4.5075627e-11
000290 36 8b 57 a7 ee 5a 83 3e 16 a5 94 bf 71 61 35 3d
       -2.991271e-15 0.2565531 -1.161288 0.04428238
0002a0 8d 6e a7 3e 44 d8 19 3e d9 d9 af bd e1 4a 83 bf
       0.3270153 0.15023905 -0.08586473 -1.0257226
0002b0 69 01 99 3e 94 ec 69 be 88 03 70 3e 3b f0 a7 3e
       0.29883888 -0.22844154 0.23438847 0.3280047
0002c0 1f cf d4 3c 70 83 d6 3c 4c ec 56 bc d4 65 9d 3d
       0.02597767 0.026185721 -0.013117861 0.07685438
0002d0 eb f3 f1 bc d2 0e db bd c4 38 aa bf d7 aa 03 3e
       -0.029535254 -0.10696186 -1.3298573 0.12858139
0002e0 9e 00 63 be 47 c5 92 2a 8a b5 04 a5 f3 b0 3e 28
       -0.22168204 2.6071699e-13 -1.1510683e-16 1.05854885e-14
0002f0 ae 8f 64 2a 3e 6e 2f a7 10 64 5a a8 70 fe 5e a9
       2.0300317e-13 -2.4345891e-15 -1.21231286e-14 -4.951459e-14
000300 b5 6a 5e 34 94 c8 26 ac 25 f7 ea 2b 97 1a 12 29
       2.0714181e-07 -2.3701362e-12 1.6695296e-12 3.2441575e-14
000310 e1 27 25 af f0 d2 c2 28 a2 2d 25 2f 0a 95 a8 2e
       -1.502083e-10 2.1629806e-14 1.5022875e-10 7.66623e-11
000320 d9 e4 92 29 67 05 32 b4 9e f3 3b a6 cf 0a 07 aa
       6.523401e-14 -1.6579507e-07 -6.520882e-16 -1.1994159e-13
000330 28 38 07 2b e2 de c8 b8 92 56 9d a8 02 16 bf af
       4.8039567e-13 -9.578258e-05 -1.7468045e-14 -3.4758335e-10
000340 84 c7 e3 2b e7 b2 b5 2e d2 d3 e1 a2 fe c3 d6 21
       1.6184697e-12 8.2627065e-11 -6.1210646e-18 1.4553083e-18
000350 b4 37 43 a6 09 e2 c0 aa c9 d9 75 2b 9d 6e e0 b8
       -6.772971e-16 -3.4262895e-13 8.7343723e-13 -0.00010701756
000360 c2 de c4 a7 42 e4 db ad ab c3 ec 2f a7 73 27 ac
       -5.4642443e-15 -2.4998784e-11 4.306718e-10 -2.3796327e-12
000370 39 0b 90 b1 70 c2 0c 3f a2 bd e4 a7 57 2e 4d 32
       -4.1922275e-09 0.5498419 -6.3488313e-15 1.1943107e-08
000380 58 8b 11 3a a9 91 67 bf 7c eb ac 3e 17 8e df 3f
       0.0005552075 -0.90456635 0.3377341 1.7465237
000390 59 2a 1d 3f 26 c8 b3 3e 91 8c d3 3d 9d 35 4a be
       0.6139274 0.3511364 0.10329545 -0.19747014
0003a0 70 90 0a bf f8 b4 17 be db 15 f0 3e 35 9c bb 3f
       -0.54126644 -0.14815128 0.46891674 1.4657046
0003b0 10 8d 00 bf d3 16 8e 3f 46 51 95 bd cd a8 8d bf
       -0.50215244 1.1100715 -0.07290892 -1.1067139
0003c0 e2 af 50 bf df d1 d8 3e ca b9 3f 3f 57 2f 4e 3e
       -0.81518376 0.4234762 0.74892867 0.20135246
0003d0 cb 42 4e bf a7 32 1b 3e c4 af 94 bc d3 d0 20 be
       -0.8057067 0.15156041 -0.018150218 -0.1570466
0003e0 95 96 cd bf 6e cb da 3e bf 5d ce 3e 58 63 3f bf
       -1.6061579 0.4273333 0.40305898 -0.7476096
0003f0 ec b4 64 3f 76 a2 86 3f 1f 70 f1 bf 8f 9b a4 3f
       0.89338565 1.0518329 -1.8862342 1.2859973
