DeepSignalingFlow/analysis_nci/fold_2_pan/last_conv_down_weight.npy (npy, 74176 bytes, 1 tensors)

array f4 [18512]
-4.151547e-10 -5.647842e-13 -2.808216e-09 -3.699358e-12 -1.2813219e-10 -2.1532751e-11 -2.1425215e-08 -1.5484907e-06
2.4840225e-11 5.1164617e-10 3.6666765e-14 -5.1804153e-07 5.2021295e-15 5.3004597e-11 -5.6895062e-18 -0.0027193627
4.0686902e-14 1.3024965e-15 -4.4792747e-17 0.12591903 -4.003355e-12 2.3124056e-07 -3.0383956e-10 -4.3855133e-16
1.1536703e-13 -2.323654e-14 -7.093796e-12 -2.9897085e-15 3.7331095e-16 2.1065193e-14 -0.107729934 -9.032105e-09
-4.9307516e-07 -1.575057e-07 8.223706e-18 2.7269903e-07 4.9153478e-08 -1.5187826e-14 1.7503066e-07 -2.4952792e-08
-9.539304e-16 -4.416746e-16 1.8470573e-13 -1.2226924e-11 4.702947e-12 -2.4569398e-15 -8.705311e-13 0.008083627
-2.4531697e-09 2.3494927e-14 -5.8416036e-11 -7.400722e-15 -4.9326265e-11 1.50201e-17 3.4108734e-09 -7.456154e-15
7.984979e-11 -1.7344542e-13 8.6774486e-16 -1.0136067e-14 -9.190986e-17 -8.628187e-18 -5.68042e-17 8.6908874e-14
1.0132124e-11 3.1691877e-14 1.40002685e-08 -5.316066e-10 4.452754e-15 -3.4432938e-16 -4.6886058e-11 6.193347e-08
3.3402145e-18 -2.9610962e-16 -2.9943546e-06 -5.488038e-11 -1.8389936e-17 0.3439675 -5.2148555e-12 1.3644824e-17
-3.9024366e-15 1.02170186e-16 1.2372267e-10 2.4391613e-13 1.8618746e-12 1.0160426e-11 6.469317e-15 1.4551046e-10
-5.7671754e-17 6.7917046e-15 2.5673679e-15 -3.2624282e-11 -1.843102e-18 -6.718489e-11 1.2007399e-10 -5.9042506e-14
-1.0728887e-11 1.1688205e-13 -1.3962933e-12 -1.4219213e-14 8.4032224e-15 -0.00040708535 4.1830068e-13 -2.3566799e-15
1.1067247e-09 4.1271055e-06 -0.000737413 4.4475158e-13 -9.262394e-17 -8.965104e-15 3.4516003e-14 3.7504345e-15
-1.4704048e-18 -9.830374e-12 -3.6103194e-14 7.001003e-17 -2.8396892e-17 -4.000296e-18 -2.3208423e-12 1.7489666e-11
1.3981249e-16 2.5763512e-14 2.3795448e-14 1.056007e-07 2.0884305e-13 -3.4479328e-16 -1.7536599e-11 -1.02651956e-10
1.4877272e-09 6.873e-16 1.5206924e-12 1.7290677e-14 -8.3600185e-09 1.3400225e-12 7.2495175e-05 4.3131214e-15
-1.263222e-07 -1.253018e-15 3.0358793e-10 2.4881993e-12 2.0344783e-05 7.2606423e-13 -9.77862e-15 -6.407279e-14
-4.5742706e-13 1.1993234e-15 -1.9001204e-13 8.2187005e-15 1.3913739e-14 3.9473538e-10 -6.42477e-11 -1.8863717e-09
8.032121e-11 -0.0011346833 1.9421118e-16 -5.446241e-16 -3.8602405e-17 -0.00015944648 7.84812e-06 2.5488225e-10
9.300957e-17 -3.8887235e-14 -1.3353278e-10 -0.028168144 -6.220471e-12 -1.8712247e-09 3.9249368e-10 2.082608e-11
3.9835385e-16 2.5252951e-15 -1.0991047e-15 1.2651654e-13 4.1082474e-16 0.004780614 1.8185381e-13 3.0243866e-13
-9.260775e-11 2.2763691e-10 4.721347e-12 4.198074e-08 4.1360186e-11 5.469577e-15 -0.0036615918 -5.1888667e-16
1.026371e-06 -7.965448e-09 2.3626978e-16 -0.00033945407 1.3525319e-06 2.3804823e-05 -1.9726324e-16 7.3421165e-12
1.737559e-11 5.687001e-17 -2.8514995e-09 1.1792123e-12 1.251537e-13 4.7152784e-09 -1.0552765e-13 -1.6529451e-05
-1.201767e-16 -0.000731495 -2.0691012e-15 -7.9666274e-11 8.851423e-09 1.260984e-15 -1.0168735e-06 1.3508343e-09
0.008511629 -3.5232637e-16 -3.3890792e-05 -9.749464e-12 -3.5842618e-08 1.7430202e-12 -3.2451312e-16 5.8324122e-12
6.5318584e-12 1.6578711e-16 1.5895454e-18 -5.5204393e-17 1.6722531e-07 -1.859744e-11 -1.1365116e-08 4.5862695e-08
-1.0465222e-05 -1.9080257e-13 2.2248128e-17 -4.2267695e-10 9.259833e-19 -3.4759945e-15 0.017898686 1.6565941e-12
1.1078861e-17 8.460817e-17 4.3392747e-17 8.186549e-16 -3.51917e-14 -1.1572788e-10 -6.4349546e-12 0.00013410902
2.9823745e-14 0.0038592124 8.70658e-10 6.7894065e-17 -1.0208771e-11 -1.5714657e-07 -1.4866543e-15 2.073781e-06
1.09526485e-14 -1.7029695e-17 1.6035436e-12 -2.4382114e-11 -0.49974775 -2.0625905e-12 6.9944554e-06 1.0654158e-11
00000000: d43b e4af fef8 1eab a9fa 40b1 db28 82ac
00000010: 01e2 0caf 7267 bdad 8c0a b8b2 bcd5 cfb5
00000020: 377f da2d e6a3 0c30 e721 2529 8b0f 0bb5
00000030: 2d6d bb27 df1d 692e dee7 d1a2 5637 32bb
00000040: ce3c 3729 a4b5 bb26 f191 4ea4 ebf0 003e
00000050: 04db 8cac ec4a 7834 9e09 a7af c1ce fca5
00000060: 48e4 012a d04b d1a8 3c97 f9ac 636e 57a7
00000070: f932 d725 07bd bd28 83a1 dcbd 9e2b 1bb2
00000080: de5b 04b5 d61e 29b4 5bb3 1723 7867 9234
00000090: d21c 5333 becc 88a8 10f0 3b34 c557 d6b2
000000a0: d279 89a6 ab9b fea5 cdf5 4f2a 2c19 57ad
000000b0: 6178 a52c 8a0a 31a7 6008 75ab 3071 043c
000000c0: 9e94 28b1 9d9f d328 4e75 80ae ce51 05a8
000000d0: 70f0 58ae 3589 8a23 b864 6a31 7151 06a8
000000e0: 7097 af2e 3d48 43aa 451c 7a26 5c98 36a8
000000f0: 01ee d3a4 7629 1fa3 48fb 82a4 8eb3 c329
00000100: 083f 322d 3fba 0e29 d585 7032 7d20 12b0
00000110: 686d a027 0c7e c6a5 0235 4eae 4900 8533
00000120: de76 7622 11b2 aaa5 9ff2 48b6 d15d 71ae
00000130: 029e a9a3 821c b03e 3e7b b7ac dcb3 7b23
00000140: a099 8ca7 a296 eb24 d608 082f 0550 892a
00000150: 8d04 032c 7ebe 322d eb14 e927 8efd 1f2f
00000160: 65fb 84a4 6bb2 f427 94ff 3827 ad7b 0fae
00000170: 36ff 07a2 bbbd 93ae d305 042f b0f3 84a9
00000180: 9dbe 3cad f598 032a c582 c4ab 4613 80a8
00000190: 0661 1728 126e d5b9 7b7b eb2a 12d1 29a7
000001a0: 6a1b 9830 917b 8a36 f34e 41ba 755f fa2a
000001b0: 8693 d5a4 3f80 21a8 3e72 1b29 a71f 8727
000001c0: 53fe d8a1 12f0 2cad 2698 22a9 a16e a124
000001d0: 22f5 02a4 ba95 93a2 9450 23ac 3ad7 992d
000001e0: 5d31 2125 9d0e e828 9154 d628 99c6 e233
000001f0: e922 6b2a 82c2 c6a5 e940 9aad eabb e1ae
00000200: bf78 cc30 ca19 4626 b804 d62b 96bd 9b28
00000210: c09f 0fb2 6697 bc2b 8d08 9838 8665 9b27
00000220: 2fa3 07b4 3494 b4a6 34e6 a62f 6a17 2f2c
00000230: 17aa aa37 715e 4c2b ed27 30a8 7347 90a9
00000240: 18c1 00ab 39d7 ac26 3eef 55aa 110e 1428
00000250: cca5 7a28 1102 d92f 3d48 8dae 67a1 01b1
00000260: d2a0 b02e a7b9 94ba 06e9 5f25 2afa 1ca6
00000270: ad05 32a4 1731 27b9 6bab 0337 7d1f 8c2f
00000280: 2977 d624 ee21 2fa9 23d2 12af e1c0 e6bc
00000290: 06dd daac ef96 00b1 93c6 d72f 2a30 b72d
000002a0: a7a2 e525 79f7 3527 ce65 9ea6 e971 0e2a
000002b0: 08d3 ec25 b2a6 9c3b cbbf 4c2a 0142 aa2a
000002c0: 87a5 cbae 184a 7a2f 1d1e a62c 504e 3433
000002d0: 6ee7 352e f20f c527 51f7 6fbb 148f 15a6
000002e0: d7c1 8935 69d8 08b2 4433 8825 c1f8 b1b9
000002f0: a488 b535 78b0 c737 d56d 63a5 f429 012d
00000300: 5ad6 982d 2122 8324 1cf4 43b1 9af5 a52b
00000310: 19e9 0c2a 0704 a231 8ca0 eda9 baa8 8ab7
00000320: e78d 0aa5 ccc1 3fba 2e18 15a7 2030 afae
00000330: f810 1832 19ba b526 827b 88b5 42a8 b930
00000340: 5c74 0b3c 321a cba5 f625 0eb8 af83 2bad
00000350: 60f1 19b3 ec4e f52b af11 bba5 b335 cd2c
00000360: c0d1 e52c b823 3f25 5493 ea21 d895 7ea4
00000370: 8b8e 3334 b695 a3ad 4f40 43b2 91fa 4433
00000380: c993 2fb7 19d3 56aa e833 cd23 7e5e e8af
00000390: a9a6 8821 c878 7aa7 44a0 923c 1825 e92b
000003a0: 715e 4c23 d917 c324 1d1d 4824 12f6 6b26
000003b0: 457d 1ea9 017d feae eb68 e2ac 9e9f 0c39
000003c0: 7050 0629 d7ea 7c3b 1c53 6f30 958d 9c24
000003d0: 3898 33ad 1fbc 28b4 dd3f d6a6 492b 0b36
000003e0: 2d4e 4528 3b12 9da3 bfad e12b a477 d6ad
000003f0: f0de ffbe 5424 11ac eab1 ea36 106e 3b2d
