DeepSignalingFlow/Micha/analysis_nci/fold_2_pan/block_conv_up_weight.npy (npy, 74176 bytes, 1 tensors)

array f4 [18512]
4.9859812e-12 -3.9407382e-16 7.523099e-17 -0.020003568 -1.2996951e-09 -1.0775332e-09 -7.183069e-09 -9.122639e-13
-8.2508544e-10 -1.1171306e-12 -1.1858604e-09 -5.4691753e-16 4.824511e-17 -3.4424588e-09 0.08598324 -0.55157745
-3.4262487e-15 7.41821e-15 6.567728e-13 -4.3461951e-16 6.6173156e-10 1.0459483e-12 -2.19754e-13 1.3615971e-08
-5.825973e-10 2.8833252e-18 -2.8940472e-09 1.0370903e-16 -2.2630088e-08 2.5883194e-08 4.1037898e-09 -9.777928e-17
-2.8946244e-13 6.4593296e-11 -5.395768e-09 2.6700079e-12 4.8086983e-18 -5.1130466e-16 1.1047392e-10 6.9145917e-10
2.0669222e-13 2.0790629e-14 -1.382399e-16 -9.921744e-17 -5.7068747e-15 2.0541131e-11 1.858084e-16 9.637169e-14
0.00748162 9.638767e-17 -3.00453e-16 5.9687837e-15 -5.371396e-11 -3.5826861e-09 -1.3824026e-13 1.694248e-14
-0.03316915 5.3294674e-17 -2.6279315e-13 -1.8946947e-13 4.0856685e-10 1.2737912e-13 1.54537e-10 1.2402783e-12
5.445552e-12 1.1473085e-15 1.6149191e-13 4.48221e-16 -1.8081296e-09 6.181113e-13 1.2524031e-08 3.293011e-13
-2.8998096e-13 -4.6991833e-17 -6.3852943e-15 -1.7805571e-18 2.6344898e-18 -5.7917456e-12 3.875381e-12 -6.7123736e-14
-8.543332e-16 9.919181e-10 -0.14074264 5.048081e-09 -1.3361905e-16 8.626596e-09 -2.9985676e-13 1.2765587e-13
1.2949587e-12 4.270833e-12 6.7696456e-16 3.8192097e-15 -1.88189e-06 -3.6207935e-15 -1.7072328e-11 3.7728095e-11
-1.03566905e-14 9.331424e-16 -2.3815197e-12 9.429479e-16 -1.522735e-14 2.1604305e-11 -1.6779241e-17 -1.516137e-07
-4.807743e-13 -8.870804e-15 -0.0018007759 -3.973916e-09 -4.474523e-15 6.7404897e-12 0.00054164586 3.018663e-14
-4.8709694e-14 2.8427665e-11 -8.0547324e-18 -8.3557826e-16 0.00013030226 -5.539401e-14 -2.5140508e-15 4.1159242e-07
-1.8576429e-14 -1.9000639e-12 1.2901811e-12 -1.9624358e-15 -1.0391503e-09 -1.5122328e-14 -1.1127403e-07 -7.3112936e-08
7.972229e-06 3.790731e-18 6.9240787e-18 -0.72045803 2.0467465e-10 2.395234e-16 2.9297519e-15 3.083989e-12
1.5612645e-11 3.4795735e-09 4.1059515e-17 -0.2516156 -8.394721e-13 6.699305e-08 1.3363966e-06 4.0380703e-14
4.760328e-15 7.0195186e-14 -7.6562986e-07 -8.768996e-16 5.821642e-07 -1.0290706e-08 -1.9920452e-09 -1.28737705e-08
1.0746787e-13 -4.9456758e-17 4.0411756e-18 -8.9538424e-13 -4.487018e-12 -2.8631545e-11 0.0002447196 5.305299e-15
2.025838e-14 -1.03780225e-13 -2.782497e-07 9.684118e-05 -3.8816078e-14 2.670258e-10 -4.040556e-14 1.4411891e-11
0.00017061831 -1.833555e-17 2.0365452e-09 1.2715718e-08 -1.1112394e-11 7.738815e-12 5.872208e-15 0.26773313
1.835279e-08 7.8423995e-17 1.7447648e-09 3.2046048e-18 6.584231e-17 1.7181212e-16 -4.013429e-15 -3.3879488e-12
3.6459474e-17 -1.0066544e-14 -1.6277554e-13 5.2639764e-14 2.3257436e-14 -1.7233066e-11 -1.2584765e-09 -7.407063e-18
-1.6934824e-15 -1.2032376e-10 8.6955887e-10 4.4615363e-11 0.00031763603 0.00018588082 2.5302006e-08 -6.245237e-11
-1.5267987e-12 -3.829209e-13 -1.5545321e-12 -1.5676223e-08 -1.9765715e-15 -3.6629137e-12 2.460144e-08 0.028712524
-9.612001e-10 8.100703e-10 -1.2895415e-10 1.6542979e-14 2.1527045e-09 8.4125854e-13 -2.4143881e-11 1.8970678e-17
1.3368489e-14 2.349548e-10 -3.5091995e-13 6.8270445e-15 -5.6382213e-16 2.1564095e-13 3.2039966e-09 3.8378526e-13
-2.1450192e-12 4.639626e-17 8.674004e-11 -1.2533025e-10 -8.003591e-15 1.0976243e-16 -0.121806264 9.044646e-16
-1.0412868e-11 -6.191161e-11 1.6569571e-17 -3.3070495e-13 -1.1988248e-16 -4.631489e-09 1.1920317e-08 -3.829974e-13
4.8361234e-14 3.7444405e-11 -7.9881983e-13 -5.538712e-09 -3.5859426e-16 -3.6125408e-11 -6.2906813e-10 2.5820726e-05
4.933963e-06 -2.6196397e-12 -4.2230393e-09 5.803791e-06 6.425868e-14 -6.131388e-17 -0.078006744 -0.5299816
00000000: ba6d af2c 082b e3a5 8a78 ad24 86de a3bc
00000010: f5a0 b2b0 5418 94b0 f1ce f6b1 c563 80ab
00000020: 3acc 62b0 df38 9dab c1fb a2b0 64a3 1da6
00000030: c67d 5e24 6090 6cb1 fb17 b03d 2e34 0dbf
00000040: 22e3 76a7 75a2 0528 78dd 382b 858a faa5
00000050: 38e5 3530 4234 932b c76b 77aa aceb 6932
00000060: a424 20b0 79c0 5422 9ee0 46b1 0223 ef24
00000070: 1764 c2b2 bf55 de32 5101 8d31 b376 e1a4
00000080: eff3 a2aa cb0a 8e2e ad65 b9b1 96e2 3b2c
00000090: df68 b122 a05f 13a6 4aef f22e 1d11 3e30
000000a0: fab6 682a ed43 bb28 3861 1fa5 a4c7 e4a4
000000b0: a19c cda7 84ae b42d f638 5625 7f02 d929
000000c0: 6128 f53b 3d41 de24 0933 ada5 500c d727
000000d0: 8b3c 6cae 4833 76b1 0ba5 1baa b39a 9828
000000e0: 60dc 07bd 3fc7 7524 7cf0 93aa db52 55aa
000000f0: ac9c e02f 886a 0f2a 4cea 292f bc8d ae2b
00000100: 2c99 bf2c 3658 a526 e0d2 352a df30 0126
00000110: e881 f8b0 9dfb 2d2b 4529 5732 4a61 b92a
00000120: a93e a3aa 2ab6 58a4 f20d e6a7 c661 03a2
00000130: 1b64 4222 68c7 cbac 545a 882c 3326 97a9
00000140: aa3e 76a6 0454 8830 d71e 10be 6473 ad31
00000150: 620d 1aa5 2c34 1432 eacd a8aa 4dba 0f2a
00000160: ce3f b62b 3e44 962c 2b1f 4326 fe99 8927
00000170: 3f95 fcb5 ed73 82a7 772b 96ad 0fee 252e
00000180: ce91 3aa8 e17a 8626 a595 27ac a3e4 8726
00000190: e127 89a8 9208 be2d ddc2 9aa3 42cb 22b4
000001a0: 7053 07ab 5dcd 1fa8 0308 ecba ef8a 88b1
000001b0: 3136 a1a7 ef28 ed2c 3dfd 0d3a d1f2 0729
000001c0: 745e 5ba9 690d fa2d 6695 14a3 cbd6 70a6
000001d0: bfa1 0839 f278 79a9 0d28 35a7 d5f8 dc34
000001e0: 5452 a7a8 82b4 05ac ac93 b52b 8d68 0da7
000001f0: dad1 8eb0 b735 88a8 8cf5 eeb3 4302 9db3
00000200: 76c0 0537 71da 8b22 1374 ff22 f06f 38bf
00000210: cb0a 612f 6a13 8a25 621c 5327 3504 592c
00000220: 8d54 892d 4e1d 6f31 855a 3d24 c3d3 80be
00000230: 574a 6cab d2dd 8f33 3d5e b335 c8db 3529
00000240: 4782 ab27 c510 9e29 af85 4db5 c5bf 7ca6
00000250: 0546 1c35 01cb 30b2 6ee4 08b1 712b 5db2
00000260: 02ff f129 3c14 64a4 d317 9522 3c07 7cab
00000270: 77df 9dac 82d8 fbad b54d 8039 bf24 bf27
00000280: a578 b628 3ab1 e9a9 5962 95b4 3617 cb38
00000290: e4cf 2ea9 8acc 922f 70f8 35a9 6389 7d2d
000002a0: 01e8 3239 981d a9a3 48f3 0b31 5274 5a32
000002b0: c67d 43ad 8624 082d 8f91 d327 5114 893e
000002c0: 36a6 9d32 5bd5 b424 74cc ef30 4675 6c22
000002d0: 71d2 9724 fd15 4625 5999 90a7 dc67 6eac
000002e0: c023 2824 bd57 35a8 db44 37aa 8411 6d29
000002f0: ff7b d128 6a95 97ad b5f6 acb0 dea2 08a3
00000300: 790e f4a6 214c 04af c405 6f30 6f38 442e
00000310: 6388 a639 01e9 4239 b357 d932 8f55 89ae
00000320: b8e0 d6ab b890 d7aa ecc7 daab 61a8 86b2
00000330: 4f6d 0ea7 98e0 80ac 2453 d332 8736 eb3c
00000340: 391b 84b0 a1ab 5e30 5ec9 0daf 8301 9528
00000350: c7ee 1331 11cb 6c2b 305f d4ad 3ff9 ae23
00000360: 46d3 7028 f32a 812f e58c c5aa 5ff8 f527
00000370: bb82 22a6 46ca 722a 4e2d 5c31 490d d82a
00000380: 3bf1 16ac 09f7 5524 4dbe be2e 54cd 09af
00000390: 0c2e 10a8 4d18 fd24 9075 f9bd db58 8226
000003a0: 632f 37ad 2325 88ae cbd3 9823 9b2b baaa
000003b0: 1037 0aa5 0223 9fb1 1cca 4c32 be9b d7aa
000003c0: b5cc 5929 a7ae 242e 09d9 60ab 074f beb1
000003d0: 2cb7 cea5 98e1 1eae bcea 2cb0 9699 d837
000003e0: 6b8e a536 3c57 38ac 3f1a 91b1 2fbe c236
000003f0: 9bb2 9029 5461 8da4 00c2 9fbd e0ac 07bf
