DeepSignalingFlow/Micha/analysis_nci/fold_2_pan/last_conv_up_weight.npy (npy, 74176 bytes, 1 tensors)

array f4 [18512]
00000000: 13b6 a3ad 7121 5fa9 7ea3 4028 bdbb 05aa
00000010: 2526 20a9 17f8 0730 c9e4 d5ad 7c46 0b26
00000020: 8c68 b7a8 264d a736 33f4 4c32 2834 2faa
00000030: 7d8b 5130 11bd 98a5 0fda 8fb2 acb7 d827
00000040: 0add 692e 8216 c2a5 ba64 b823 4297 7aaa
00000050: bb59 ebb2 c4dd eea5 c8e7 f8a7 b99d 8e25
00000060: b191 823a 9e03 792e 9a29 3f36 c424 a532
00000070: 6cba 9ea3 fdac 3135 4cf1 2aa7 ee93 4925
00000080: e29d 2f2e 48d9 7b2a 3361 c3b4 f5e9 05ac
00000090: f7ac 3329 6b48 47a6 95bb 46a7 6842 902c
000000a0: 6c71 a239 8311 99a0 59eb 4eb0 899c 0724
000000b0: 4092 2923 181b 68a8 2b10 1ba5 cca7 91a6
000000c0: d601 c6aa dc21 0c24 3bd4 4b24 835c 8eb9
000000d0: 5387 bea6 5885 7027 1fc5 132a 2a2c 9926
000000e0: 72eb 31a9 c0d8 9fa2 1c0e 89a9 0874 11ac
000000f0: df69 a928 d535 60a2 a927 6929 fc54 f5af
00000100: 97ef 00b5 3156 2324 312f 75ab 50cc 8bb1
00000110: c5e8 6533 5667 842c 70b5 b3a4 4527 8db2
00000120: 1b44 02a7 4bf9 b2a4 2020 5bb8 6a68 242a
00000130: 25d1 39af 08eb 6ca1 c30e a0a2 3efb 0dae
00000140: 2f0b afb2 0e22 17ae 2d76 9cac 7fe6 4a2a
00000150: dcc3 74a6 d8a3 a5ae e988 9026 aaea 1eb2
00000160: 9d1f 5ea3 fb7f 1aab ebe3 e8ae 06f5 792e
00000170: 14b3 32b9 d13f cb2c 33b2 4eb6 35df 88b1
00000180: a23a 28b0 8143 232a 38bc 002f f97d 2bb4
00000190: f084 49b9 0b89 b524 289d 3434 4051 e1af
000001a0: a015 f323 07c7 b02b e513 5ab6 0994 3024
000001b0: ee83 802d 7f7d aaaa 09e5 9737 297b ff2c
000001c0: 417a 86bb 3bf6 bbaf b817 48af 14de 5730
000001d0: 23e3 c3a7 07b7 1ea5 8ee6 54aa 8be7 1a2b
000001e0: 3872 38a8 3feb c5bb b459 d5ae d5e9 23aa
000001f0: e415 bcab 77e1 1db9 2c22 4e2e abda b2a2
00000200: 1dcd 1aa8 2ce7 54af 1348 2d35 632e cf34
00000210: 6fbe 10b1 5aa4 c9ac 1c92 0fb6 7386 f5a8
00000220: 1212 6dbf 5827 f722 9e40 e4a9 b2cf 03a7
00000230: 3ee4 1e25 0bae a4ab 4f58 472e 81dc 182e
00000240: a806 42aa ba65 f527 c767 a1a8 ca0a eca9
00000250: 1317 45be 2c66 8121 dd7b f4a5 5566 1b26
00000260: 7e41 4635 8c41 09a7 719d 6c2f 0c37 1223
00000270: c426 6f2c 8cfc 0b31 092d 31ae 46f3 f5a7
00000280: f95d 2f27 08f5 ba3d 4789 08ac 943e 5630
00000290: 588c eda7 2d4d 9221 545c 88a2 ae53 b0a5
000002a0: efb3 e530 dda3 c9ba 9471 eab5 985b 8ba4
000002b0: 15d6 6028 7353 3e34 a91d 8526 166d 0bbe
000002c0: 8082 98b7 beea e8aa 24e0 6539 4cce c4a7
000002d0: 7f20 0ca3 170d 8626 cd04 43a8 770c 173a
000002e0: 1b12 14b2 6154 0226 a81a 3c26 ff95 77be
000002f0: 732b 6ba3 3f39 9f24 2bca f3ae f9a9 d9ae
00000300: 66ee 0d33 972c 4331 05d7 7323 a254 202a
00000310: ae46 0ca7 792b 23a6 3f95 2d31 2005 5c27
00000320: b2b5 8e3e a334 db2c 8187 72ab 9375 9d2c
00000330: 2981 c1a5 e5b0 8526 cb9f 2b3c cb31 bcab
00000340: 7ea3 e521 3c45 a3a5 1834 4c2a db3a 3b2d
00000350: 2d31 d7a5 5ece 00a9 24ce b3a7 2f8c 93ac
00000360: a457 ca2e 24e9 dc28 62e3 26a6 6bf4 323c
00000370: 44f3 b527 3065 b6a6 bd50 22a9 9139 2137
00000380: 9480 40a5 f2c5 0f28 c134 c4bf ce9e 2124
00000390: ee2d 2926 e437 9326 e867 c02a 128d 662e
000003a0: b11c 77ab d53d ae29 969f 642d 21ca dbab
000003b0: 3d95 07b1 5fa6 c9af 4de6 9ca5 78d1 8e30
000003c0: 1c46 9caf 5b49 4bba 8378 67a7 94b6 d732
000003d0: 5eea b730 ba80 92bc 8ba2 08bc 5ced bf36
000003e0: 212f a3a2 1c38 0f34 06e0 9127 8178 ae2f
000003f0: f203 162f cba1 8326 485f e625 cfd5 0fae
-1.8611812e-11 -4.9544953e-14 1.0693593e-14 -1.1877908e-13 -3.5560222e-14 4.946527e-10 -2.4316897e-11 4.8320837e-16
-2.0362421e-14 4.985969e-06 1.1929887e-08 -1.5561218e-13 7.623198e-10 -2.6495913e-16 -1.6746553e-08 6.015118e-15
5.317439e-11 -3.3668887e-16 1.999198e-17 -2.2256939e-13 -2.7398405e-08 -4.1436693e-16 -6.9085125e-15 2.473995e-16
0.0009961632 5.6619258e-11 2.8485433e-06 1.9225247e-08 -1.7209347e-17 6.618937e-07 -2.3723047e-15 1.7484091e-16
3.993062e-11 2.2368663e-13 -3.6392302e-07 -1.903031e-12 3.9896007e-14 -6.914014e-16 -2.7579708e-15 4.1000987e-12
0.00030983554 -2.5930796e-19 -7.527681e-10 2.940605e-17 9.192478e-18 -1.2884462e-14 -1.3449585e-16 -1.0106878e-15
-3.517314e-13 3.038634e-17 4.4198374e-17 -0.00027153277 -1.3220578e-15 3.3378977e-15 1.3124613e-13 1.0628478e-15
-3.950611e-14 -4.332653e-18 -6.08647e-14 -2.067015e-12 1.8808683e-14 -3.038616e-18 5.1770793e-14 -4.4625625e-10
-4.8032365e-07 3.5417998e-17 -8.7106976e-13 -4.06866e-09 5.352992e-08 3.7631382e-12 -7.793624e-17 -1.6432418e-08
-1.8078044e-15 -7.7617513e-17 -5.2243588e-05 1.4602352e-13 -1.6899955e-10 -8.027097e-19 -4.3383716e-18 -3.2282836e-11
-2.0377767e-08 -3.436367e-11 -4.446907e-12 1.8021173e-13 -8.4919945e-16 -7.532436e-11 1.0029117e-15 -9.250167e-09
-1.20413385e-17 -5.48894e-13 -1.0590625e-10 5.683367e-11 -0.00017042115 5.776692e-12 -3.0800118e-06 -3.9834966e-09
-6.1201366e-10 1.4500728e-13 1.1708401e-10 -1.5971445e-07 -0.00019218377 7.87284e-17 1.682098e-07 -4.0984993e-10
2.6355271e-17 1.2560793e-12 -3.2496112e-06 3.8289307e-17 1.4610504e-11 -3.0285147e-13 1.8107256e-05 7.2612094e-12
-0.0041039293 -3.419006e-10 -1.819832e-10 7.8532136e-10 -5.4369635e-15 -1.3766328e-16 -1.8909372e-13 5.503312e-13
-1.0238819e-14 -0.0060400064 -9.702053e-11 -1.4558435e-13 -1.3364279e-12 -0.00015056679 4.6869328e-11 -4.847852e-18
-8.593194e-15 -1.9363416e-10 6.4552404e-07 3.8590505e-07 -2.1063007e-09 -5.7310103e-12 -2.1393707e-06 -2.7258772e-14
-0.926057 6.699114e-18 -1.0136443e-13 -1.8292494e-15 1.3781647e-16 -1.1701207e-12 4.5325795e-11 3.4756645e-11
-1.7232971e-13 6.8111452e-15 -1.7919597e-14 -1.0482377e-13 -0.19247083 8.768425e-19 -4.2411186e-16 5.3915114e-16
7.385605e-07 -1.9048102e-15 2.152001e-10 7.9263325e-18 3.3985462e-12 2.0370718e-09 -4.028514e-11 -6.8264918e-15
2.4337071e-15 0.09128767 -1.9402967e-12 7.7941675e-10 -6.5932875e-15 9.913773e-19 -3.696063e-18 -3.0587837e-16
1.6713083e-09 -0.0015383918 -1.7467414e-06 -6.0436807e-17 1.24809195e-14 1.7725488e-07 9.236768e-16 -0.13615832
-1.818058e-05 -4.1374364e-13 0.00021922641 -5.4624596e-15 -7.5962965e-18 9.301666e-16 -1.08257155e-14 0.000576205
-8.6188505e-09 4.5217165e-16 6.526173e-16 -0.24178313 -1.2748576e-17 6.905224e-17 -1.1086273e-10 -9.898211e-11
3.3045943e-08 2.840158e-09 1.32185886e-17 1.4240218e-13 -1.9467218e-15 -5.66109e-16 2.525965e-09 3.0533911e-15
0.27872998 6.230198e-12 -8.616372e-13 4.4752617e-12 -3.3567685e-16 9.276676e-16 0.010475109 -1.3372024e-12
1.556092e-18 -2.8322908e-16 1.8136913e-13 1.0642788e-11 -3.7329878e-16 -2.8600704e-14 -4.990598e-15 -4.193555e-12
9.2014646e-11 2.4526015e-14 -5.790098e-16 0.010922532 5.050134e-15 -1.2656214e-15 -3.6041255e-14 9.609751e-06
-1.6696909e-16 7.981017e-15 -1.5328599 3.5045823e-17 5.86959e-16 1.0215323e-15 3.417815e-13 5.242124e-11
-8.7791845e-13 7.7378784e-14 1.2995735e-11 -1.5616988e-12 -1.9729918e-09 -3.66799e-10 -2.7217744e-16 1.0391394e-09
-2.842605e-10 -0.0007754766 -3.212302e-15 2.5112321e-08 1.3381614e-09 -0.017883647 -0.0083395345 5.719876e-06
-4.423114e-18 1.3338325e-07 4.048847e-15 3.173604e-10 1.3643822e-10 9.133805e-16 3.9963205e-16 -3.2704336e-11
