DeepSignalingFlow/analysis_nci/fold_5_pan/block_conv_up_weight.npy (npy, 74176 bytes, 1 tensors)

array f4 [18512]
0	0xacc571d0	-5.6117125e-12
1	0x267eaa21	8.835452e-16
2	0x280556dc	7.401818e-15
3	0x312d7aee	2.524469e-09
4	0x363218d5	2.653852e-06
5	0x33917273	6.772907e-08
6	0x2c17fd5d	2.1599035e-12
7	0xab97d87d	-1.0789283e-12
8	0x2908c2c4	3.0367e-14
9	0x2939c1b5	4.1246266e-14
10	0x269b482f	1.0774851e-15
11	0x2cbad305	5.309866e-12
12	0xac8f5570	-4.07379e-12
13	0x22b06451	4.781111e-18
14	0x296532f0	5.0892396e-14
15	0x3f5f586d	0.872443
16	0xa70d5ef5	-1.9619157e-15
17	0xb10cfbbc	-2.0515776e-09
18	0x25cc8d9f	3.5484325e-16
19	0xac94924d	-4.2226556e-12
20	0xa32fd674	-9.532181e-18
21	0x25a0ad02	2.787281e-16
22	0x22735b88	3.2981097e-18
23	0xa630d5da	-6.135209e-16
24	0x236c1cde	1.27996985e-17
25	0xb3c7f89e	-9.311883e-08
26	0xa41dabaa	-3.4189353e-17
27	0x247148ba	5.2320147e-17
28	0x2d10c53d	8.229248e-12
29	0x2707f127	1.8865742e-15
30	0x2ccef147	5.8816593e-12
31	0x3e9375f6	0.28800935
32	0xae0c3717	-3.1881244e-11
33	0x2893dafe	1.6415251e-14
34	0xaf4f341f	-1.8845057e-10
35	0xa4c9d946	-8.753793e-17
36	0xa35663fd	-1.1622137e-17
37	0xab427d05	-6.9096145e-13
38	0xa6454010	-6.8434926e-16
39	0x353dea89	7.074928e-07
40	0xa89b677c	-1.7253336e-14
41	0x2846b225	1.1029837e-14
42	0x3068052a	8.4408447e-10
43	0x27ba772f	5.175459e-15
44	0xabf41c59	-1.7345111e-12
45	0xa67a9746	-8.694119e-16
46	0xa97633be	-5.4667852e-14
47	0x31a0139a	4.6588413e-09
48	0x2a39360e	1.6450055e-13
49	0xaccaa6f4	-5.759721e-12
50	0x3b9c76d0	0.0047749057
51	0xa60b80d2	-4.8399897e-16
52	0xa7025972	-1.8089613e-15
53	0x343f2f0c	1.7805377e-07
54	0x229cca1f	4.249789e-18
55	0x36cd327a	6.1153523e-06
56	0xa64237ca	-6.738288e-16
57	0xbc8ef0da	-0.017448831
58	0x32a5f384	1.9319266e-08
59	0x25721d3c	2.1000059e-16
60	0x227414a4	3.3079093e-18
61	0x28ab5a0a	1.9023862e-14
62	0xae336a5b	-4.079435e-11
63	0x291243ac	3.247721e-14
64	0x2917d3d2	3.371246e-14
65	0xa80f80dd	-7.966037e-15
66	0x3617ac03	2.2600877e-06
67	0xb50d527c	-5.2646624e-07
68	0x2d8d7d8e	1.6085602e-11
69	0x29874294	6.006754e-14
70	0xb3b2816b	-8.312312e-08
71	0xae65c61b	-5.2244525e-11
72	0xb3189926	-3.5529546e-08
73	0x3edb63a3	0.42849454
74	0xaf0c0c7c	-1.2737361e-10
75	0x2e15125d	3.3894988e-11
76	0x3bc1ae06	0.005910638
77	0xa5406cda	-1.6690226e-16
78	0x28933166	1.6341702e-14
79	0x313dc9d6	2.761785e-09
80	0xb523df2f	-6.1047007e-07
81	0x2a8033fe	2.2773444e-13
82	0x36158ede	2.228589e-06
83	0x33008c01	2.9929655e-08
84	0xb6e6d51c	-6.8793433e-06
85	0x32559c81	1.2433817e-08
86	0x2e3afb03	4.2514447e-11
87	0x27302394	2.4444193e-15
88	0xa8939fba	-1.6389549e-14
89	0xa3c81adf	-2.1695424e-17
90	0xb5fbeae7	-1.8769323e-06
91	0xa929b50c	-3.768257e-14
92	0x2a677e5a	2.0560758e-13
93	0x2ba4c80f	1.1708428e-12
94	0x2a072ae5	1.2005291e-13
95	0x333e8bb5	4.4364885e-08
96	0x301a5b69	5.6154775e-10
97	0x2788bee8	3.7954564e-15
98	0xb4462c69	-1.8456343e-07
99	0xab0c7a49	-4.9907696e-13
100	0x2ad9dc30	3.869973e-13
101	0x280588d4	7.412653e-15
102	0x251438ae	1.2856158e-16
103	0xb3775eee	-5.7595507e-08
104	0xadaf0f12	-1.990189e-11
105	0x28c10954	2.143135e-14
106	0xab324f0e	-6.3348014e-13
107	0x353ff245	7.1505593e-07
108	0xa66352cc	-7.8868656e-16
109	0xb00f871d	-5.2215104e-10
110	0x2599fbf6	2.6712005e-16
111	0xa8e9f981	-2.5976402e-14
112	0xbb28c742	-0.0025753533
113	0xac55557b	-3.0316572e-12
114	0xaef73977	-1.12424674e-10
115	0xb3a90a4b	-7.871548e-08
116	0x381d570e	3.7512793e-05
117	0x3270809f	1.3999084e-08
118	0x28600e9c	1.2437666e-14
119	0xb8de3bd5	-0.000105969295
120	0xa63875f6	-6.399769e-16
121	0xa27b8f56	-3.4092725e-18
122	0x36bf8130	5.707283e-06
123	0x25cb059f	3.5218696e-16
124	0xa6cec65d	-1.4347888e-15
125	0x3339a11a	4.322019e-08
126	0x2f84303c	2.4044933e-10
127	0xaa6720fc	-2.0528365e-13
128	0x305fbcd3	8.139526e-10
129	0x2defc877	2.7260178e-11
130	0xaec69db3	-9.0320106e-11
131	0xa508162f	-1.1803636e-16
132	0x3443bc26	1.8229238e-07
133	0xaddea45a	-2.5311465e-11
134	0x2587e107	2.3571251e-16
135	0xa35190af	-1.1360551e-17
136	0x2582df06	2.2702532e-16
137	0xba791630	-0.00095019024
138	0x2af17c64	4.2896513e-13
139	0xab1eac4b	-5.637198e-13
140	0x2f1984f1	1.3962499e-10
141	0xa7b55be8	-5.0337237e-15
142	0xad04da60	-7.55182e-12
143	0xaa79f7da	-2.2201633e-13
144	0x2877028a	1.3711805e-14
145	0xacac3577	-4.89447e-12
146	0x262cb8bc	5.992485e-16
147	0x2657d366	7.487961e-16
148	0xa5418a60	-1.6786965e-16
149	0x2736ef5d	2.5387333e-15
150	0x2ba785c9	1.1903197e-12
151	0xa9954646	-6.62912e-14
152	0xb62568be	-2.4647884e-06
153	0x3b003b9e	0.0019566785
154	0x2644c632	6.8269765e-16
155	0xa995b505	-6.648331e-14
156	0xaf997608	-2.7914404e-10
157	0x28c470bb	2.180926e-14
158	0xb81f3f41	-3.7967464e-05
159	0x30d35f0b	1.5379283e-09
160	0x2e9231c7	6.6481536e-11
161	0xb761b3be	-1.3452895e-05
162	0xab93ce8f	-1.050231e-12
163	0xa2bcfaf5	-5.1223213e-18
164	0xa644587b	-6.8121074e-16
165	0x2cd021ba	5.91546e-12
166	0xa8471e8f	-1.10533454e-14
167	0xada36720	-1.8576751e-11
168	0x2a27eac9	1.4914037e-13
169	0x24cc6e78	8.865804e-17
170	0xab6d9c9f	-8.441667e-13
171	0x2412acec	3.1805174e-17
172	0x2a8d6ee6	2.5123583e-13
173	0xbac5e7ba	-0.0015098967
174	0x2f5c0e57	2.0013978e-10
175	0xa46cead5	-5.1373253e-17
176	0xa83f75b4	-1.0628153e-14
177	0x32a51922	1.9219957e-08
178	0x3579f7ae	9.312015e-07
179	0xab380e91	-6.5390147e-13
180	0x2ee9f573	1.0639214e-10
181	0xa654c3d0	-7.381765e-16
182	0x2d75a568	1.3963365e-11
183	0x2c3112db	2.516368e-12
184	0xa83c4ebb	-1.0453168e-14
185	0x25ec4125	4.0983618e-16
186	0xa6f7737c	-1.717037e-15
187	0x2bccbc49	1.4547331e-12
188	0xa3480e20	-1.0845013e-17
189	0x2528ab55	1.4629727e-16
190	0xab8608e8	-9.523745e-13
191	0x2412aa6c	3.1803056e-17
192	0x2c658fd5	3.26227e-12
193	0xb515f75d	-5.5866786e-07
194	0xb0bf901b	-1.3938036e-09
195	0x2d87853f	1.5406896e-11
196	0x302191f9	5.87789e-10
197	0x28909102	1.6050099e-14
198	0x28a75c78	1.8580826e-14
199	0x2debafdc	2.6794504e-11
200	0x31b4ec50	5.265555e-09
201	0x27b95622	5.14412e-15
202	0xa9e71d35	-1.02635274e-13
203	0xad2109ea	-9.153992e-12
204	0x2f9799cf	2.7576028e-10
205	0x28c91afe	2.2327189e-14
206	0xabfac152	-1.7817226e-12
207	0x3009bd31	5.0109167e-10
208	0x232ac666	9.257731e-18
209	0xad9667b1	-1.7099074e-11
210	0xa9189489	-3.3879614e-14
211	0xa520f42a	-1.3960514e-16
212	0x2fe540cc	4.1700898e-10
213	0x3096c9f0	1.097133e-09
214	0x2d0e6128	8.0933385e-12
215	0x29d7766e	9.568462e-14
216	0xa82d6007	-9.624252e-15
217	0x2871b81e	1.34181115e-14
218	0x31f6145d	7.1618573e-09
219	0x31b38d02	5.2256164e-09
220	0x33356bfd	4.224056e-08
221	0xae1cdbfa	-3.5665672e-11
222	0xa8368534	-1.0131913e-14
223	0xa840d8ab	-1.0705123e-14
224	0xa6377e7e	-6.366231e-16
225	0xa1c12b5d	-1.3089667e-18
226	0xac07ea59	-1.9314743e-12
227	0xaa55f136	-1.9001887e-13
228	0x3de2b72e	0.11070095
229	0x28a6d646	1.8522628e-14
230	0x3f478157	0.7793173
231	0xacfea41b	-7.2373336e-12
232	0xb422df00	-1.5168553e-07
233	0x2315315d	8.087759e-18
234	0x26dbe6da	1.525875e-15
235	0xa7aa293e	-4.7229193e-15
236	0x2c27d669	2.385115e-12
237	0xad33d992	-1.0223282e-11
238	0xad7b929b	-1.4300251e-11
239	0xa34f9b50	-1.1254381e-17
240	0xb8794900	-5.9434213e-05
241	0xa256a1fd	-2.9088164e-18
242	0xb4c49051	-3.661285e-07
243	0xabd0bf2c	-1.483235e-12
244	0xb271de67	-1.4078615e-08
245	0x27a669d6	4.6189003e-15
246	0xa48d4775	-6.1270055e-17
247	0xab431348	-6.9304675e-13
248	0xa5c50f58	-3.418445e-16
249	0x2be229a0	1.6069819e-12
250	0x2c8942ff	3.9012123e-12
251	0x37b93cdb	2.2082057e-05
252	0x2f4497ad	1.7879982e-10
253	0xac83aabb	-3.742199e-12
254	0x3fe41f8a	1.7822125
255	0xbfd4acc4	-1.6615224
