DeepSignalingFlow/analysis_nci/fold_5_pan/first_conv_up_weight.npy (npy, 74176 bytes, 1 tensors)

array f4 [18512]
00000000: f28f 24ba 9104 0aac 6f5a 9739 7396 d528
00000010: 6b56 262e 6ec1 18ab 236e c12e 27ac 06aa
00000020: cab8 60a7 b6d4 463d d946 8d34 ae2d 87bd
00000030: c53e a13f 6500 b73e 46af 2c3f 0853 cb3e
00000040: 3b58 803f 6ffb 2da4 4979 c3a2 7d41 5a3d
00000050: 85ea a9bd cb79 9332 4a8b 9130 3ef8 3bbf
00000060: 3516 d23d f931 a13f 90a3 a93e 80c4 0c40
00000070: f6c2 8e3d 7eb2 6abd d412 9fbc 9c17 2ba4
00000080: 6fdf d1a9 4aa4 b031 32fb 89ad bda1 30bd
00000090: 7536 be3d ce0e b6bf 7bba a63b 87c7 74bf
000000a0: 17b1 4c3f c49f 07bc 78b6 febb 8d93 b3be
000000b0: d703 6f3d 9537 faba f14c 913e be4f 593d
000000c0: 3bd7 e2bc 5709 a6be 1b0d 413d 421c 3ebf
000000d0: 6650 5a3f eae1 39bd d73a c6be acd3 b03e
000000e0: 89cc 463d 89cd 9e3e bc99 3e3f b9d8 963e
000000f0: e349 5ebf e32c 7a3f 84de 72a8 6de0 0026
00000100: ddee 56ab 9324 b2ad 9553 a7aa e470 a5a6
00000110: 1c30 b6a7 e84a 9625 0688 b5b5 6ecc 9f27
00000120: 441a e03c c147 ae2a 5154 c7ab 8000 a32c
00000130: 13bc 60ab 34d0 a434 1575 39bf 8b2b cd21
00000140: c106 a12b 3b80 46b0 6bf4 493d 9940 8437
00000150: f706 1030 45fc 87bf 26f3 ada6 881e 223e
00000160: 2b96 48bf 3ebf bbbe 8d28 1abb ff22 44ad
00000170: ddab b63f 1736 f2ae e967 b9ab 0d7c dabe
00000180: 775d 263f 0c90 2dbf 28e4 053e 04dd 042e
00000190: e2a9 8fb1 bf0e b226 47e2 2a34 42aa 09aa
000001a0: 84dc 45b1 3adf 0c40 c063 23c0 4ae0 123f
000001b0: 6023 4fbf a430 b43f 79e3 80bf 77dc d13f
000001c0: 2cbd b3a5 76ba 902d 6319 83a8 58ca 64b2
000001d0: 3317 3b25 1c52 6c22 4ebc 4e2b 5490 4aae
000001e0: b984 2eba 87a9 3ead 2cb9 d02e 2c21 fa2e
000001f0: b9b3 19af 37c9 0a36 eccc 4a2b 8ee2 48a6
00000200: 44f1 65b2 fdd5 7928 8e4f b929 7629 a5a4
00000210: 850f 85ba 67ac a630 d2a7 d431 5705 0b36
00000220: 99b4 8e2b 8975 cd28 94ef 48b1 221c 46a9
00000230: b96b a2ab a498 e4b6 e5e1 8e3e de05 c43d
00000240: 6772 15bc 0cc2 ee27 745b 84be 8cc8 80be
00000250: 5372 083f 0301 32be 101b c5a8 ecc7 a93a
00000260: d1df 473d c619 dbbe f00b 883b 5246 97a7
00000270: 4b59 20bd 93af e32f 9d15 f82f 1bdc be3f
00000280: 3052 2f3f 8350 353f 8eae b03f ed9a ca3f
00000290: 8673 1e40 617b f9b9 6111 413f 2369 2c3e
000002a0: 7363 8bbf 5b8b 25c0 41b8 d53e ed15 33be
000002b0: ccd1 bbbf ba44 613f 83cc c83e 274b 2f3f
000002c0: acbd 75bf 256e 653e dfb6 9faf 8e8f a125
000002d0: fc8c 052b c7ee 7227 7bd4 8bbf 8136 723e
000002e0: b8a9 3d3f 5e97 afa5 3db7 cf2a de28 05a8
000002f0: 55ca c2af c478 6829 7da5 0cab 9397 7faa
00000300: 32a5 7b31 d98d 8faf 5a63 69a6 c84f fa25
00000310: bfab 26ac 4c90 d72e f7da 8828 d22a 9227
00000320: ab0e 4d30 6a0a 61b9 d00d cbbe 4e10 af29
00000330: 56cd ed27 ce83 3dac efe6 9524 4a14 82a7
00000340: f232 64b2 26cb 6a24 bc32 d025 380c 5dbc
00000350: 302e bcbd 4cc7 87bc 3269 553e b5b3 f63d
00000360: bc65 093f 007c f125 c9fc 8f31 6e03 532f
00000370: e398 7928 11f7 803c 9a20 bcb1 f74d 49a4
00000380: 9d28 12ae 60d0 153e c2c1 273f ba4d d13f
00000390: c82e 03bf bf82 633f 1c44 7d3d fbde 7e25
000003a0: 9609 76ac 9ae5 a5be cdc7 13b5 7537 4740
000003b0: cb2b 113f 461c 17c0 e285 83bd c4d6 003f
000003c0: 749b 9e3d 8a48 45c0 2837 4fbe 8381 0dbd
000003d0: 0e40 06bf 0522 e03c 4738 ce2b 44cd df3e
000003e0: db35 1d3e 1a0e 073e b5a1 43bf df05 823f
000003f0: 9dd4 8fbf 7dc1 8a2c 84dd 963e 0648 703f
-0.0006277553 -1.9613514e-12 0.00028868343 2.3712997e-14 3.7820785e-11 -5.4269686e-13 8.796188e-11 -1.1961318e-13
-3.118642e-15 0.0485427 2.6314845e-07 -0.066005096 1.2597281 0.35742489 0.67454946 0.39711785
1.0026926 -3.7726368e-17 -5.298327e-18 0.05328511 -0.08296684 1.7168437e-08 1.0589727e-09 -0.7342566
0.10258142 1.2593375 0.331326 2.1994934 0.069707796 -0.05729913 -0.019418158 -3.7099712e-17
-9.320224e-14 5.1409517e-09 -1.568665e-11 -0.043122996 0.092877306 -1.4223268 0.005088148 -0.95616955
0.7995772 -0.008277837 -0.007773217 -0.3507351 0.05835327 -0.0019090051 0.28379014 0.053054564
-0.02769052 -0.32429 0.04713164 -0.7426187 0.8527893 -0.045381464 -0.38716766 0.34536493
0.048534904 0.31016186 0.7445333 0.2946222 -0.8683149 0.9772474 -1.3481949e-14 4.4713075e-16
-7.635956e-13 -2.02525e-11 -2.9723156e-13 -1.1479774e-15 -5.056731e-15 2.607161e-16 -1.3525139e-06 4.435301e-15
0.027356274 3.0958398e-13 -1.4163203e-12 4.632794e-12 -7.984179e-13 3.0698868e-07 -0.7244428 1.3902866e-18
1.1441613e-12 -7.2214207e-10 0.04930536 1.5765707e-05 5.239679e-10 -1.0623862 -1.2070192e-15 0.15831959
-0.7835414 -0.36669344 -0.0023522705 -1.1149081e-11 1.4271199 -1.1014494e-10 -1.3173881e-12 -0.42672768
0.64986366 -0.67797923 0.13075316 3.0209626e-11 -4.181161e-09 1.2355228e-15 1.5914803e-07 -1.2227114e-13
-2.8792622e-09 2.2011247 -2.5529633 0.5737349 -0.8091335 1.4077344 -1.0069419 1.6395406
-3.1179738e-16 1.645371e-11 -1.4554931e-14 -1.3317354e-08 1.6227525e-16 3.2027432e-18 7.3447227e-13 -4.605767e-11
-0.00066573505 -1.0837892e-11 9.491638e-11 1.1374576e-10 -1.3979119e-10 2.0680725e-06 7.20492e-13 -6.969598e-16
-1.3384412e-08 1.3868678e-14 8.229451e-14 -7.162758e-17 -0.001015172 1.2127089e-09 6.189091e-09 2.0715722e-06
1.0139833e-12 2.2810545e-14 -2.9240015e-09 -4.3989233e-14 -1.1540691e-12 -6.812699e-06 0.2790672 0.095714316
-0.009121514 6.6268656e-15 -0.25851023 -0.25153005 0.53299445 -0.17383198 -2.188313e-14 0.0012953258
0.048797432 -0.427931 0.0041518137 -4.198716e-15 -0.039147656 4.1415812e-10 4.5126294e-10 1.4910921
0.68484783 0.70825976 1.380327 1.582853 2.475801 -0.00047584905 0.75417143 0.16836981
-1.0889724 -2.5866306 0.41742137 -0.17488833 -1.46734 0.87995493 0.3921853 0.6847405
-0.9599254 0.22405298 -2.905187e-10 2.8026324e-16 4.7446747e-13 3.3713688e-15 -1.0924219 0.23653604
0.74087095 -3.046023e-16 3.6897734e-13 -7.391845e-15 -3.543216e-10 5.1619096e-14 -4.996765e-13 -2.2701138e-13
3.661921e-09 -2.6112337e-10 -8.097276e-16 4.342215e-16 -2.3685357e-12 9.8027e-11 1.5193994e-14 4.0569566e-15
7.459941e-10 -0.00021461552 -0.39658976 7.7743896e-14 6.600334e-15 -2.6931682e-12 6.5009666e-17 -3.6104246e-15
-1.328293e-08 5.0912735e-17 3.6116627e-16 -0.013491683 -0.09188497 -0.016574524 0.2084091 0.12045995
0.5367086 4.1890861e-16 4.190586e-09 1.9191557e-10 1.3855429e-14 0.01574281 -5.4752265e-09 -4.3650966e-17
-3.323263e-11 0.1463027 0.65530026 1.6351845 -0.5124326 0.8887138 0.061832532 2.2106537e-16
-3.4964024e-12 -0.32401735 -5.5052516e-07 3.1127598 0.5670745 -2.3611007 -0.064220205 0.50327706
0.07744494 -3.0825524 -0.20235884 -0.03454734 -0.5244149 0.027359972 1.46528e-12 0.43711293
0.15352575 0.13188973 -0.7641862 1.0158042 -1.123676 3.9436774e-12 0.29465878 0.938599
