DeepSignalingFlow/analysis_nci/fold_5_pan/last_conv_up_weight.npy (npy, 74176 bytes, 1 tensors)

array f4 [18512]
00000000: 776e 44a8 e4e7 a8a0 f1a0 5424 05fe 5ca4
00000010: 4ace 4c33 1cf1 c7af 4c38 2b2b 81d3 422a
00000020: a495 d62b 8d9f 002a f111 f429 c306 e937
00000030: 2daf 2423 2aab da27 3fba 9929 83b1 bd2f
00000040: a358 d6a4 6c8f db24 89e9 76ab 947c 4b2d
00000050: e450 d3a5 1374 55a8 9883 1130 f564 de2b
00000060: 2260 b927 ac2f 9c2b d808 4eae e956 80a4
00000070: 4f7a a629 e34c 7bbb 2fc9 23a9 4f00 54b2
00000080: d83f 052c 43ed 7729 e6c4 3aa4 7564 8abd
00000090: abeb f124 5327 90aa 8d02 a4a4 e3dc 9a27
000000a0: a881 163c 4f85 14aa f5d1 8cb5 7201 af2f
000000b0: 1e1a 1eb4 3be2 8b26 c4ec 79a9 cc3b 4828
000000c0: 8c44 bab9 7539 8e25 e2e2 aea8 30b4 3228
000000d0: 4a5c 9c2f 2667 02ad b460 1c26 26af b023
000000e0: bbe2 a8ab 0f84 6832 0645 76a7 64f4 cc34
000000f0: c381 97b6 b600 cf36 b6e4 3db3 143b 07b2
00000100: aa63 20a6 78ca fcb4 fd28 a8ba d0dc 7b2c
00000110: 0bab 252a 72aa 0135 b3f8 b62b bca3 1528
00000120: fcd7 9331 6c6d 97a9 bc13 2cad 16ca dc26
00000130: bd97 672a 80e6 87a2 12e2 07a8 db3f d32b
00000140: f32e e432 1ffd c7b1 127a 6433 c886 ec27
00000150: 714b de30 6a10 d027 33ac 3eaa 6260 1d2d
00000160: cd6d 9ab9 3d17 ca25 0599 8f2f 7186 82a3
00000170: 5a9c e324 e410 0ca8 ba1b ac2f c947 f2aa
00000180: f210 22bf a7d6 a528 239b feaa e3ea 922a
00000190: ecff d5b3 1bd2 b3b7 177c 07a5 5463 8d3b
000001a0: 53cd 16af e0b9 9827 4758 7aaa 3540 aca6
000001b0: 6f8a 52b1 8bbc e0a3 5d7a 982f 5cd2 8628
000001c0: 0f0f 8e36 d751 2caf 1ffb 4228 1066 64a3
000001d0: 9548 6dac 0096 2cae b991 f924 c162 b62f
000001e0: e564 d0a8 6e31 9ea7 2d8a 38a9 9bd5 e2af
000001f0: 59f9 85a9 ddb3 7134 0fe3 15ab 77a5 a124
00000200: 2990 072e 82da 6aa6 0c41 c327 ffac 8b2b
00000210: fca4 e9ad ba5f 622d 9dd5 b1ae ce76 5533
00000220: 54c0 5f2d 57ce 52af f96f 1a2f 43cd 8e26
00000230: 2dd6 e128 ff48 b4aa 21dd 3037 5181 afa7
00000240: 58a7 5c3d 0193 db28 1fc9 c829 bc0f bea2
00000250: d62e 092a b9ae 5022 aae9 0020 1df6 ddac
00000260: bac1 bc2e c1c9 00a5 762f e3aa 2156 8cae
00000270: 0d6f d6a5 28b1 622b ac59 2b2c ec1a 49ae
00000280: aee5 1425 d87f a0b6 47cc b6ae 5a31 a025
00000290: 9d4e a4ab 0381 982c cca2 38a3 0a95 34a2
000002a0: 91d3 b8b4 32a5 97aa 08a9 59ad 1be3 dd2a
000002b0: 4191 a923 6596 7eac e43d 7323 ee22 3330
000002c0: 28a1 9dae 4e19 162a c550 8438 f9d2 4132
000002d0: 5c2c f4ae f593 1fa7 f174 11ab 392e 1521
000002e0: 254e 4dab b2e5 be27 2cfd f8b2 4e58 6530
000002f0: 9987 a2ac 2e8e 0324 4f27 56aa 476a cf28
00000300: 4e57 d929 438c 0a2c fd2a fd38 f763 b1a5
00000310: 1e72 b3a9 2848 61ae bd14 832b 8305 b0ae
00000320: 397b 4428 30e1 e0a8 4bf1 aea3 4131 47b2
00000330: e0a4 99a9 66e4 81b0 b5f1 2aa6 c9de 6da7
00000340: a62a 462d 04f5 14b8 853a 0d2a 975a 1aa9
00000350: 2d68 31ac 9941 da27 6887 0fbd 434e f0a3
00000360: 89f8 54bd e3de 2fae cd88 782f 4787 a22d
00000370: b308 29a5 78cc bd26 d118 e5ab 0de4 0128
00000380: 34ef 2f36 4bca 9fa7 b617 a0ba 021c d13a
00000390: bb4d 4e2e e0a1 c528 56e3 bb27 9f04 27a4
000003a0: ecba a0a9 4115 1833 a636 14ab 3b7d 8f25
000003b0: 6f85 92a8 63e8 c625 de16 48bf 1c54 14b4
000003c0: 148c b338 3bb4 db33 57e1 a8a7 d455 89af
000003d0: 1f9d 4cad faea 9f3b 64a9 16a9 b057 9225
000003e0: 9335 fe24 cf49 7035 5c2d 3625 1815 5e27
000003f0: af3a d92b 521e 6125 7eb7 4d31 d621 2c3c
-1.0904139e-14 -2.861376e-19 4.6106495e-17 -4.792006e-17 4.768507e-08 -3.6369208e-10 6.082953e-13 1.7304042e-13
1.5247148e-12 1.1424039e-13 1.0838889e-13 2.7778913e-05 8.927553e-18 6.069273e-15 6.8268735e-14 3.450503e-10
-9.295786e-17 9.5219076e-17 -8.772085e-13 1.1566876e-11 -3.665748e-16 -1.1849045e-14 5.29377e-10 1.580207e-12
5.1452042e-15 1.1097698e-12 -4.6846832e-11 -5.565838e-17 7.393098e-14 -0.0038345389 -3.636777e-14 -1.2340094e-08
1.8935877e-12 5.505081e-14 -4.04991e-17 -0.06757442 1.04916326e-16 -2.5606825e-13 -7.1127984e-17 4.2983072e-15
0.009186186 -1.3191291e-13 -1.0491918e-06 3.1833342e-10 -1.4724398e-07 9.706382e-16 -5.5494468e-14 1.1115197e-14
-0.00035527756 2.4672008e-16 -1.9416275e-14 9.920057e-15 2.844181e-10 -7.412548e-12 5.425443e-16 1.9156136e-17
-1.2000048e-12 1.3534204e-08 -3.4176776e-15 3.817578e-07 -4.515257e-06 6.1691635e-06 -4.4213003e-08 -7.871467e-09
-5.564622e-16 -4.7085973e-07 -0.0012829598 3.579182e-12 1.4714286e-13 4.8304275e-07 1.3000906e-12 8.306666e-15
4.3028177e-09 -6.724729e-14 -9.78145e-12 1.5320342e-15 2.0569566e-13 -3.6835875e-18 -7.543027e-15 1.5010175e-12
2.6564043e-08 -5.820439e-09 5.319641e-08 6.564929e-15 1.6174068e-09 5.7749393e-15 -1.6935134e-13 8.945818e-12
-0.00029454977 3.505716e-16 2.6120275e-10 -1.4151566e-17 9.871043e-17 -7.775224e-15 3.130632e-10 -4.3037646e-13
-0.63307106 1.841177e-14 -4.5227111e-13 2.6097795e-13 -9.965137e-08 -2.14363e-05 -1.1751427e-16 0.0043148194
-1.3715366e-10 4.239e-15 -2.2235088e-13 -1.1952301e-15 -3.0637712e-09 -2.436598e-17 2.7735583e-10 1.4968217e-14
4.233683e-06 -1.5672384e-10 1.08236165e-14 -1.2381517e-17 -3.3720017e-12 -3.92415e-11 1.082334e-16 3.3175776e-10
-2.3136395e-14 -4.39074e-15 -4.0976056e-14 -4.1260936e-10 -5.9496414e-14 2.2510308e-07 -5.325054e-13 7.010293e-17
3.0823486e-11 -8.148119e-16 5.4193896e-15 9.92456e-13 -2.6562301e-11 1.2867868e-11 -8.0869735e-11 4.970098e-08
1.2718788e-11 -1.9172695e-10 1.4045999e-10 9.908866e-16 2.5072902e-14 -3.2025074e-13 1.0541903e-05 -4.8712462e-15
0.05387053 2.4377637e-14 8.916673e-14 -5.1516263e-18 1.2184294e-13 2.8281754e-18 1.0919335e-19 -6.308522e-12
8.583663e-11 -1.1170587e-16 -4.0356233e-13 -6.3817625e-11 -3.7198333e-16 8.0537183e-13 2.435034e-12 -4.572602e-11
1.2914772e-16 -4.7832546e-06 -8.312689e-11 2.7789018e-16 -1.167472e-12 4.334423e-12 -1.00091336e-17 -2.447345e-18
-3.4426606e-07 -2.6937616e-13 -1.2372554e-11 3.9415072e-13 1.8384534e-17 -3.6179057e-12 1.3186162e-17 6.516946e-10
-7.1681605e-11 1.3331456e-13 6.309295e-05 1.1282048e-08 -1.1103715e-10 -2.214589e-15 -5.1676637e-13 5.054434e-19
-7.293908e-13 5.298463e-15 -2.8986129e-08 8.3435203e-10 -4.6193713e-12 2.8526528e-17 -1.9020656e-13 2.3027707e-14
9.651881e-14 1.968884e-12 0.00012071987 -3.0772344e-16 -7.968993e-14 -5.1223165e-11 9.313866e-13 -8.0045325e-11
1.0906905e-14 -2.4966655e-14 -1.896731e-17 -1.1594524e-08 -6.823166e-14 -9.4509e-10 -5.930817e-16 -3.301113e-15
1.1264467e-11 -3.551414e-05 1.2543619e-13 -3.4273443e-14 -2.5211042e-12 6.0578276e-15 -0.035041243 -2.6053997e-17
-0.051994834 -3.9988356e-11 2.260407e-10 1.8477343e-11 -1.4661361e-16 1.3169931e-15 -1.6278317e-12 7.210389e-15
2.6216267e-06 -4.435069e-15 -0.0012214098 0.0015953782 4.6908016e-11 2.1941596e-14 5.2149405e-15 -3.6216267e-17
-7.137853e-14 3.5409588e-08 -5.2656e-13 2.4891405e-16 -1.6267124e-14 3.4504996e-16 -0.7815989 -1.3814173e-07
8.561477e-05 1.0230766e-07 -4.687368e-15 -2.498114e-10 -1.1630945e-11 0.0048803063 -3.3453614e-14 2.5386382e-16
1.102457e-16 8.951437e-07 1.5801352e-16 3.0820124e-15 1.5435065e-12 1.9525912e-16 2.993573e-09 0.010506114
