DeepSignalingFlow/analysis_nci/fold_5_pan/last_conv_down_weight.npy (npy, 74176 bytes, 1 tensors)

array f4 [18512]
00000000: 0269 50b6 1d4c 8128 a4cb a9a7 9b52 9227
00000010: 3441 2d2e 216d 4e2a be64 892f 4742 2caf
00000020: 8309 6426 2317 61a3 a973 8c2d 8fc2 3826
00000030: 9d4d 7b34 c811 f9ad e5b7 66a4 9ac8 8438
00000040: 780f 01ac 0bde 392c 3924 22ac aa5f d330
00000050: 6804 6927 a2f8 a92d e814 01b6 5a44 8da6
00000060: 8392 19a9 3509 2c2a 899e aaa4 f3ba 172b
00000070: 43c9 5e2c 779b 1229 ba55 8737 f66f 2e27
00000080: 7550 5db7 c46c 54a9 7d39 74b4 177b 19ae
00000090: b632 d7ab 81ae 1623 c87e 4326 aceb 6124
000000a0: c73a bca8 e481 34a5 3b88 6aa6 1c83 d635
000000b0: 52a2 99a9 430a 8831 eaa0 52ae 919d 9031
000000c0: c5fe 5aa9 ce96 e5a4 ebe2 4b27 9460 1426
000000d0: 1a08 a133 ac46 05ab 069e f225 53a9 5227
000000e0: e3dc 97aa b7be 14b3 4731 3bab bf15 b3aa
000000f0: a96c e6be 73ec 902f 8f29 31a9 d365 6eaa
00000100: dd46 87b4 a3c5 74a6 98f3 302e 11f0 56ae
00000110: 0f3b b126 020c b1b3 f509 9927 e50c a32c
00000120: 94cb ebbc 2334 9c3e 5448 76a9 2f0a 12a9
00000130: 6deb 20a9 187b 2a2b 89e1 6936 803b 0ba5
00000140: ecdb 49aa b8a5 8d27 e39a c1a5 dec6 91a7
00000150: a69c eb2c 975d e9a6 afa9 1a37 9f62 9923
00000160: bbe2 982f 1e60 4da8 0b13 8f29 2cca ca36
00000170: 6b93 9d28 6733 3731 5df8 98ae bca3 93a7
00000180: 1ed0 6923 cc94 d72f a861 8237 50af fc27
00000190: 4f9f 80b1 e0b7 d2aa 5cc3 40ae 7ba9 5924
000001a0: 292c 9aa6 47c6 ae31 1c55 93a3 3c91 f234
000001b0: 2042 87b4 890c 872c 780f e123 3df4 21a3
000001c0: 043e 4f2f d476 35a7 09e5 a1be 6919 b334
000001d0: 80fb b026 f35d aab3 212a 8527 3d1f 69af
000001e0: a5d8 6327 e0f6 372c 58ca 2eb1 cf0a 26b2
000001f0: f153 e4b9 9d4b 1e25 bb87 25aa 6f07 14af
00000200: 5f17 7525 bbd0 8fab c426 4239 cc04 3fb1
00000210: 1c96 e028 b5db 78a6 1e64 c72d de9b ebab
00000220: 0cd7 142c ced8 7430 2a57 e2a8 bdd6 5a27
00000230: ba16 88a8 2da4 ee2e cba9 4daf 70da d6a2
00000240: 343e 312a f799 3dac eb93 d235 9267 7f2c
00000250: 1b0c f829 e8f4 6cb2 e4ff 75a7 5b10 49b9
00000260: a726 3b2c 19cc 55be 060b a129 8376 0a25
00000270: 7077 443b 3317 3b27 53d6 9925 bd60 5836
00000280: 4be3 342b bb8d 6d31 d734 2928 469c f32b
00000290: 51e2 f5a1 413f 0230 eab3 b431 6173 7fae
000002a0: ef7b e3a3 17c0 2e2b f685 b2a3 3160 07b6
000002b0: eb91 d72b 401f 332c c52c b6a4 8ad5 97a2
000002c0: c11f a726 5ed2 f627 85bd 132b c9f4 8fa9
000002d0: cbbe bf20 a665 cf29 a99b 0639 75fc beac
000002e0: efcf 31b4 358e ee30 3c04 81ad d839 aeb2
000002f0: 0e97 65a9 837c fe23 e982 fa2a 8e3f 2138
00000300: f88e bea7 c142 3db7 14a3 1eb3 3b37 9625
00000310: 646a 60b7 defb 1433 abb0 1c26 2beb 3530
00000320: 9cca e024 fb3f e42b abf1 7138 d6df d2af
00000330: 6c2d 41a9 8ba3 5829 971f 9023 bba8 09a3
00000340: 37d3 2f2e 8e24 852c 632a aba7 b8a5 9a2f
00000350: 2597 3c2c ff65 aa26 ba93 5c29 13d3 c1ae
00000360: 8316 2fb3 de70 6e2b dff7 d82c adc2 9929
00000370: 05a2 a4b4 d725 15ac 64f7 eaae 0437 93a7
00000380: b722 e1a9 8555 5330 fe85 c2a8 5a1b 1aa6
00000390: dea7 a333 a2af d7a6 cf5a 26a5 5095 e430
000003a0: 7ca3 96aa a15b d1a5 3823 36ba c233 68b5
000003b0: edea 0d25 97b6 e3b1 3fa8 7a2a 488d 2632
000003c0: 2114 fa2d d8ba 3ba6 f9c8 96b5 b119 5da4
000003d0: 5b8f f9ab 89c6 5531 127b d51f 8f10 7da8
000003e0: e093 6032 9d85 a1b8 cf72 272b 0a66 872c
000003f0: d66b 15a5 a64a 76af a41a 2b23 b1de a3af
-3.1055538e-06 1.4354886e-14 -4.712771e-15 4.06127e-15 3.9393558e-11 1.8334337e-13 2.4991736e-10 -1.5666855e-10
7.911628e-16 -1.2202174e-17 1.596752e-11 6.41015e-16 2.3404432e-07 -2.8315919e-11 -5.0029065e-17 6.3316154e-05
-1.834059e-12 2.641334e-12 -2.3041692e-12 1.537946e-09 3.2337634e-15 1.932349e-11 -1.9234667e-06 -9.802367e-16
-3.4099903e-14 1.5279863e-13 -7.399432e-17 5.390542e-13 3.165982e-12 3.2553357e-14 1.6133174e-05 2.4208045e-15
-1.3191359e-05 -4.7167795e-14 -2.2745185e-07 -3.4897498e-11 -1.5290744e-12 8.168469e-18 6.7826036e-16 4.898872e-17
-2.0897683e-14 -1.565652e-16 -8.1369685e-16 1.59824e-06 -6.822723e-14 3.9592876e-09 -4.7891392e-11 4.208865e-09
-4.86267e-14 -9.956839e-17 2.8294922e-15 5.1478703e-16 7.4986204e-08 -4.734917e-13 4.208739e-16 2.9235145e-15
-2.697626e-13 -3.463239e-08 -6.650413e-13 -3.1811877e-13 -0.45004776 2.6361455e-10 -3.933794e-14 -2.1173974e-13
-2.519727e-07 -8.4922353e-16 4.023412e-11 -4.887119e-11 1.229785e-15 -8.244389e-08 4.2476826e-15 4.6341702e-12
-0.028783597 0.30508527 -5.4685707e-14 -3.2427345e-14 -3.5731336e-14 6.056696e-13 3.4850984e-06 -1.2076488e-16
-1.7928687e-13 3.9315034e-15 -3.3585118e-16 -4.0461197e-15 6.696493e-12 -1.619299e-15 9.218623e-06 1.6630061e-17
2.780974e-10 -1.1400628e-14 6.353779e-14 6.043605e-06 1.7494434e-14 2.6659224e-09 -6.956278e-11 -4.0978217e-15
1.2675026e-17 3.9214e-10 1.5542682e-05 7.0134125e-15 -3.7434016e-09 -3.7431083e-13 -4.382926e-11 4.719793e-17
-1.0697866e-15 5.086608e-09 -1.5973817e-17 4.5181685e-07 -2.5193822e-07 3.8383225e-12 2.44011e-17 -8.779547e-18
1.8848573e-10 -2.5183213e-15 -0.31620052 3.3359836e-07 1.2280622e-15 -7.933331e-08 3.696059e-15 -2.1202325e-10
3.1620022e-15 2.6142907e-12 -2.5435352e-09 -9.664929e-09 -0.0004355009 1.3729934e-16 -1.4702035e-13 -1.3463163e-10
2.1258281e-16 -1.0218695e-12 0.00018515723 -2.7796885e-09 2.4934095e-14 -8.6340043e-16 2.2668142e-11 -1.6741016e-12
2.115144e-12 8.907478e-10 -2.5128842e-14 3.0369987e-15 -1.510889e-14 1.08521504e-10 -1.8704964e-10 -5.8236096e-18
1.5742339e-13 -2.6943983e-12 1.5689269e-06 3.6295173e-12 1.10155124e-13 -1.3792693e-08 -3.4139299e-15 -0.00019174947
2.6595755e-12 -0.20878638 7.1517485e-14 1.2009745e-16 0.0029978417 2.596404e-15 2.66865e-16 3.2242817e-06
6.426428e-13 3.4568604e-09 9.392842e-15 1.7309563e-12 -1.6661751e-18 4.7383614e-10 5.2591433e-09 -5.8082764e-11
-2.4663877e-17 6.2083796e-13 -1.9355533e-17 -2.0172558e-06 1.5317169e-12 2.5454777e-12 -7.900576e-17 -4.1154725e-18
1.159656e-15 6.8506797e-15 5.24879e-13 -6.392939e-14 3.2482915e-19 9.21028e-14 0.00012837224 -5.428153e-12
-1.6560055e-07 1.7357197e-09 -1.4667483e-11 -2.028257e-08 -5.0979234e-14 2.7591468e-17 4.4499758e-13 3.844458e-05
-5.28906e-15 -1.128082e-05 -3.693556e-08 2.6058278e-16 -1.3376211e-05 3.4688007e-08 5.43628e-16 6.618161e-10
9.748775e-17 1.6218133e-12 5.768395e-05 -3.8357822e-10 -4.2894006e-14 4.8103486e-14 1.562589e-17 -7.462515e-18
3.997799e-11 3.7841457e-12 -4.750799e-15 2.8130187e-10 2.680031e-12 1.1823766e-15 4.8977945e-14 -8.814118e-11
-4.0765837e-08 8.471122e-13 6.1666085e-12 6.828336e-14 -3.0665265e-07 -2.1195179e-12 -1.06850334e-10 -4.0860344e-15
-9.998029e-14 7.6882883e-10 -2.1596437e-14 -5.346655e-16 7.620814e-08 -1.4966227e-15 -1.4428972e-16 1.663162e-09
-2.6758793e-13 -3.631781e-16 -0.0006947997 -8.650205e-07 1.2309396e-16 -6.6273276e-09 2.2262833e-13 9.694595e-09
2.8430648e-11 -6.513188e-16 -1.1234362e-06 -4.7943497e-17 -1.7732303e-12 3.1108434e-09 9.041261e-20 -1.4047912e-14
1.3072139e-08 -7.701966e-05 5.948965e-13 3.8482594e-12 -1.2960226e-16 -2.240009e-10 9.27557e-18 -2.980776e-10
